{
  "weightsManifest": [
    {
      "paths": [
        "group1-shard1of25",
        "group1-shard2of25",
        "group1-shard3of25",
        "group1-shard4of25",
        "group1-shard5of25",
        "group1-shard6of25",
        "group1-shard7of25",
        "group1-shard8of25",
        "group1-shard9of25",
        "group1-shard10of25",
        "group1-shard11of25",
        "group1-shard12of25",
        "group1-shard13of25",
        "group1-shard14of25",
        "group1-shard15of25",
        "group1-shard16of25",
        "group1-shard17of25",
        "group1-shard18of25",
        "group1-shard19of25",
        "group1-shard20of25",
        "group1-shard21of25",
        "group1-shard22of25",
        "group1-shard23of25",
        "group1-shard24of25",
        "group1-shard25of25"
      ],
      "weights": [
        {
          "shape": [
            256
          ],
          "name": "bn2a_branch1/gamma",
          "dtype": "float32"
        },
        {
          "shape": [
            256
          ],
          "name": "bn2a_branch1/beta",
          "dtype": "float32"
        },
        {
          "shape": [
            256
          ],
          "name": "bn2a_branch1/moving_mean",
          "dtype": "float32"
        },
        {
          "shape": [
            256
          ],
          "name": "bn2a_branch1/moving_variance",
          "dtype": "float32"
        },
        {
          "shape": [
            64
          ],
          "name": "bn2a_branch2a/gamma",
          "dtype": "float32"
        },
        {
          "shape": [
            64
          ],
          "name": "bn2a_branch2a/beta",
          "dtype": "float32"
        },
        {
          "shape": [
            64
          ],
          "name": "bn2a_branch2a/moving_mean",
          "dtype": "float32"
        },
        {
          "shape": [
            64
          ],
          "name": "bn2a_branch2a/moving_variance",
          "dtype": "float32"
        },
        {
          "shape": [
            64
          ],
          "name": "bn2a_branch2b/gamma",
          "dtype": "float32"
        },
        {
          "shape": [
            64
          ],
          "name": "bn2a_branch2b/beta",
          "dtype": "float32"
        },
        {
          "shape": [
            64
          ],
          "name": "bn2a_branch2b/moving_mean",
          "dtype": "float32"
        },
        {
          "shape": [
            64
          ],
          "name": "bn2a_branch2b/moving_variance",
          "dtype": "float32"
        },
        {
          "shape": [
            256
          ],
          "name": "bn2a_branch2c/gamma",
          "dtype": "float32"
        },
        {
          "shape": [
            256
          ],
          "name": "bn2a_branch2c/beta",
          "dtype": "float32"
        },
        {
          "shape": [
            256
          ],
          "name": "bn2a_branch2c/moving_mean",
          "dtype": "float32"
        },
        {
          "shape": [
            256
          ],
          "name": "bn2a_branch2c/moving_variance",
          "dtype": "float32"
        },
        {
          "shape": [
            64
          ],
          "name": "bn2b_branch2a/gamma",
          "dtype": "float32"
        },
        {
          "shape": [
            64
          ],
          "name": "bn2b_branch2a/beta",
          "dtype": "float32"
        },
        {
          "shape": [
            64
          ],
          "name": "bn2b_branch2a/moving_mean",
          "dtype": "float32"
        },
        {
          "shape": [
            64
          ],
          "name": "bn2b_branch2a/moving_variance",
          "dtype": "float32"
        },
        {
          "shape": [
            64
          ],
          "name": "bn2b_branch2b/gamma",
          "dtype": "float32"
        },
        {
          "shape": [
            64
          ],
          "name": "bn2b_branch2b/beta",
          "dtype": "float32"
        },
        {
          "shape": [
            64
          ],
          "name": "bn2b_branch2b/moving_mean",
          "dtype": "float32"
        },
        {
          "shape": [
            64
          ],
          "name": "bn2b_branch2b/moving_variance",
          "dtype": "float32"
        },
        {
          "shape": [
            256
          ],
          "name": "bn2b_branch2c/gamma",
          "dtype": "float32"
        },
        {
          "shape": [
            256
          ],
          "name": "bn2b_branch2c/beta",
          "dtype": "float32"
        },
        {
          "shape": [
            256
          ],
          "name": "bn2b_branch2c/moving_mean",
          "dtype": "float32"
        },
        {
          "shape": [
            256
          ],
          "name": "bn2b_branch2c/moving_variance",
          "dtype": "float32"
        },
        {
          "shape": [
            64
          ],
          "name": "bn2c_branch2a/gamma",
          "dtype": "float32"
        },
        {
          "shape": [
            64
          ],
          "name": "bn2c_branch2a/beta",
          "dtype": "float32"
        },
        {
          "shape": [
            64
          ],
          "name": "bn2c_branch2a/moving_mean",
          "dtype": "float32"
        },
        {
          "shape": [
            64
          ],
          "name": "bn2c_branch2a/moving_variance",
          "dtype": "float32"
        },
        {
          "shape": [
            64
          ],
          "name": "bn2c_branch2b/gamma",
          "dtype": "float32"
        },
        {
          "shape": [
            64
          ],
          "name": "bn2c_branch2b/beta",
          "dtype": "float32"
        },
        {
          "shape": [
            64
          ],
          "name": "bn2c_branch2b/moving_mean",
          "dtype": "float32"
        },
        {
          "shape": [
            64
          ],
          "name": "bn2c_branch2b/moving_variance",
          "dtype": "float32"
        },
        {
          "shape": [
            256
          ],
          "name": "bn2c_branch2c/gamma",
          "dtype": "float32"
        },
        {
          "shape": [
            256
          ],
          "name": "bn2c_branch2c/beta",
          "dtype": "float32"
        },
        {
          "shape": [
            256
          ],
          "name": "bn2c_branch2c/moving_mean",
          "dtype": "float32"
        },
        {
          "shape": [
            256
          ],
          "name": "bn2c_branch2c/moving_variance",
          "dtype": "float32"
        },
        {
          "shape": [
            512
          ],
          "name": "bn3a_branch1/gamma",
          "dtype": "float32"
        },
        {
          "shape": [
            512
          ],
          "name": "bn3a_branch1/beta",
          "dtype": "float32"
        },
        {
          "shape": [
            512
          ],
          "name": "bn3a_branch1/moving_mean",
          "dtype": "float32"
        },
        {
          "shape": [
            512
          ],
          "name": "bn3a_branch1/moving_variance",
          "dtype": "float32"
        },
        {
          "shape": [
            128
          ],
          "name": "bn3a_branch2a/gamma",
          "dtype": "float32"
        },
        {
          "shape": [
            128
          ],
          "name": "bn3a_branch2a/beta",
          "dtype": "float32"
        },
        {
          "shape": [
            128
          ],
          "name": "bn3a_branch2a/moving_mean",
          "dtype": "float32"
        },
        {
          "shape": [
            128
          ],
          "name": "bn3a_branch2a/moving_variance",
          "dtype": "float32"
        },
        {
          "shape": [
            128
          ],
          "name": "bn3a_branch2b/gamma",
          "dtype": "float32"
        },
        {
          "shape": [
            128
          ],
          "name": "bn3a_branch2b/beta",
          "dtype": "float32"
        },
        {
          "shape": [
            128
          ],
          "name": "bn3a_branch2b/moving_mean",
          "dtype": "float32"
        },
        {
          "shape": [
            128
          ],
          "name": "bn3a_branch2b/moving_variance",
          "dtype": "float32"
        },
        {
          "shape": [
            512
          ],
          "name": "bn3a_branch2c/gamma",
          "dtype": "float32"
        },
        {
          "shape": [
            512
          ],
          "name": "bn3a_branch2c/beta",
          "dtype": "float32"
        },
        {
          "shape": [
            512
          ],
          "name": "bn3a_branch2c/moving_mean",
          "dtype": "float32"
        },
        {
          "shape": [
            512
          ],
          "name": "bn3a_branch2c/moving_variance",
          "dtype": "float32"
        },
        {
          "shape": [
            128
          ],
          "name": "bn3b_branch2a/gamma",
          "dtype": "float32"
        },
        {
          "shape": [
            128
          ],
          "name": "bn3b_branch2a/beta",
          "dtype": "float32"
        },
        {
          "shape": [
            128
          ],
          "name": "bn3b_branch2a/moving_mean",
          "dtype": "float32"
        },
        {
          "shape": [
            128
          ],
          "name": "bn3b_branch2a/moving_variance",
          "dtype": "float32"
        },
        {
          "shape": [
            128
          ],
          "name": "bn3b_branch2b/gamma",
          "dtype": "float32"
        },
        {
          "shape": [
            128
          ],
          "name": "bn3b_branch2b/beta",
          "dtype": "float32"
        },
        {
          "shape": [
            128
          ],
          "name": "bn3b_branch2b/moving_mean",
          "dtype": "float32"
        },
        {
          "shape": [
            128
          ],
          "name": "bn3b_branch2b/moving_variance",
          "dtype": "float32"
        },
        {
          "shape": [
            512
          ],
          "name": "bn3b_branch2c/gamma",
          "dtype": "float32"
        },
        {
          "shape": [
            512
          ],
          "name": "bn3b_branch2c/beta",
          "dtype": "float32"
        },
        {
          "shape": [
            512
          ],
          "name": "bn3b_branch2c/moving_mean",
          "dtype": "float32"
        },
        {
          "shape": [
            512
          ],
          "name": "bn3b_branch2c/moving_variance",
          "dtype": "float32"
        },
        {
          "shape": [
            128
          ],
          "name": "bn3c_branch2a/gamma",
          "dtype": "float32"
        },
        {
          "shape": [
            128
          ],
          "name": "bn3c_branch2a/beta",
          "dtype": "float32"
        },
        {
          "shape": [
            128
          ],
          "name": "bn3c_branch2a/moving_mean",
          "dtype": "float32"
        },
        {
          "shape": [
            128
          ],
          "name": "bn3c_branch2a/moving_variance",
          "dtype": "float32"
        },
        {
          "shape": [
            128
          ],
          "name": "bn3c_branch2b/gamma",
          "dtype": "float32"
        },
        {
          "shape": [
            128
          ],
          "name": "bn3c_branch2b/beta",
          "dtype": "float32"
        },
        {
          "shape": [
            128
          ],
          "name": "bn3c_branch2b/moving_mean",
          "dtype": "float32"
        },
        {
          "shape": [
            128
          ],
          "name": "bn3c_branch2b/moving_variance",
          "dtype": "float32"
        },
        {
          "shape": [
            512
          ],
          "name": "bn3c_branch2c/gamma",
          "dtype": "float32"
        },
        {
          "shape": [
            512
          ],
          "name": "bn3c_branch2c/beta",
          "dtype": "float32"
        },
        {
          "shape": [
            512
          ],
          "name": "bn3c_branch2c/moving_mean",
          "dtype": "float32"
        },
        {
          "shape": [
            512
          ],
          "name": "bn3c_branch2c/moving_variance",
          "dtype": "float32"
        },
        {
          "shape": [
            128
          ],
          "name": "bn3d_branch2a/gamma",
          "dtype": "float32"
        },
        {
          "shape": [
            128
          ],
          "name": "bn3d_branch2a/beta",
          "dtype": "float32"
        },
        {
          "shape": [
            128
          ],
          "name": "bn3d_branch2a/moving_mean",
          "dtype": "float32"
        },
        {
          "shape": [
            128
          ],
          "name": "bn3d_branch2a/moving_variance",
          "dtype": "float32"
        },
        {
          "shape": [
            128
          ],
          "name": "bn3d_branch2b/gamma",
          "dtype": "float32"
        },
        {
          "shape": [
            128
          ],
          "name": "bn3d_branch2b/beta",
          "dtype": "float32"
        },
        {
          "shape": [
            128
          ],
          "name": "bn3d_branch2b/moving_mean",
          "dtype": "float32"
        },
        {
          "shape": [
            128
          ],
          "name": "bn3d_branch2b/moving_variance",
          "dtype": "float32"
        },
        {
          "shape": [
            512
          ],
          "name": "bn3d_branch2c/gamma",
          "dtype": "float32"
        },
        {
          "shape": [
            512
          ],
          "name": "bn3d_branch2c/beta",
          "dtype": "float32"
        },
        {
          "shape": [
            512
          ],
          "name": "bn3d_branch2c/moving_mean",
          "dtype": "float32"
        },
        {
          "shape": [
            512
          ],
          "name": "bn3d_branch2c/moving_variance",
          "dtype": "float32"
        },
        {
          "shape": [
            1024
          ],
          "name": "bn4a_branch1/gamma",
          "dtype": "float32"
        },
        {
          "shape": [
            1024
          ],
          "name": "bn4a_branch1/beta",
          "dtype": "float32"
        },
        {
          "shape": [
            1024
          ],
          "name": "bn4a_branch1/moving_mean",
          "dtype": "float32"
        },
        {
          "shape": [
            1024
          ],
          "name": "bn4a_branch1/moving_variance",
          "dtype": "float32"
        },
        {
          "shape": [
            256
          ],
          "name": "bn4a_branch2a/gamma",
          "dtype": "float32"
        },
        {
          "shape": [
            256
          ],
          "name": "bn4a_branch2a/beta",
          "dtype": "float32"
        },
        {
          "shape": [
            256
          ],
          "name": "bn4a_branch2a/moving_mean",
          "dtype": "float32"
        },
        {
          "shape": [
            256
          ],
          "name": "bn4a_branch2a/moving_variance",
          "dtype": "float32"
        },
        {
          "shape": [
            256
          ],
          "name": "bn4a_branch2b/gamma",
          "dtype": "float32"
        },
        {
          "shape": [
            256
          ],
          "name": "bn4a_branch2b/beta",
          "dtype": "float32"
        },
        {
          "shape": [
            256
          ],
          "name": "bn4a_branch2b/moving_mean",
          "dtype": "float32"
        },
        {
          "shape": [
            256
          ],
          "name": "bn4a_branch2b/moving_variance",
          "dtype": "float32"
        },
        {
          "shape": [
            1024
          ],
          "name": "bn4a_branch2c/gamma",
          "dtype": "float32"
        },
        {
          "shape": [
            1024
          ],
          "name": "bn4a_branch2c/beta",
          "dtype": "float32"
        },
        {
          "shape": [
            1024
          ],
          "name": "bn4a_branch2c/moving_mean",
          "dtype": "float32"
        },
        {
          "shape": [
            1024
          ],
          "name": "bn4a_branch2c/moving_variance",
          "dtype": "float32"
        },
        {
          "shape": [
            256
          ],
          "name": "bn4b_branch2a/gamma",
          "dtype": "float32"
        },
        {
          "shape": [
            256
          ],
          "name": "bn4b_branch2a/beta",
          "dtype": "float32"
        },
        {
          "shape": [
            256
          ],
          "name": "bn4b_branch2a/moving_mean",
          "dtype": "float32"
        },
        {
          "shape": [
            256
          ],
          "name": "bn4b_branch2a/moving_variance",
          "dtype": "float32"
        },
        {
          "shape": [
            256
          ],
          "name": "bn4b_branch2b/gamma",
          "dtype": "float32"
        },
        {
          "shape": [
            256
          ],
          "name": "bn4b_branch2b/beta",
          "dtype": "float32"
        },
        {
          "shape": [
            256
          ],
          "name": "bn4b_branch2b/moving_mean",
          "dtype": "float32"
        },
        {
          "shape": [
            256
          ],
          "name": "bn4b_branch2b/moving_variance",
          "dtype": "float32"
        },
        {
          "shape": [
            1024
          ],
          "name": "bn4b_branch2c/gamma",
          "dtype": "float32"
        },
        {
          "shape": [
            1024
          ],
          "name": "bn4b_branch2c/beta",
          "dtype": "float32"
        },
        {
          "shape": [
            1024
          ],
          "name": "bn4b_branch2c/moving_mean",
          "dtype": "float32"
        },
        {
          "shape": [
            1024
          ],
          "name": "bn4b_branch2c/moving_variance",
          "dtype": "float32"
        },
        {
          "shape": [
            256
          ],
          "name": "bn4c_branch2a/gamma",
          "dtype": "float32"
        },
        {
          "shape": [
            256
          ],
          "name": "bn4c_branch2a/beta",
          "dtype": "float32"
        },
        {
          "shape": [
            256
          ],
          "name": "bn4c_branch2a/moving_mean",
          "dtype": "float32"
        },
        {
          "shape": [
            256
          ],
          "name": "bn4c_branch2a/moving_variance",
          "dtype": "float32"
        },
        {
          "shape": [
            256
          ],
          "name": "bn4c_branch2b/gamma",
          "dtype": "float32"
        },
        {
          "shape": [
            256
          ],
          "name": "bn4c_branch2b/beta",
          "dtype": "float32"
        },
        {
          "shape": [
            256
          ],
          "name": "bn4c_branch2b/moving_mean",
          "dtype": "float32"
        },
        {
          "shape": [
            256
          ],
          "name": "bn4c_branch2b/moving_variance",
          "dtype": "float32"
        },
        {
          "shape": [
            1024
          ],
          "name": "bn4c_branch2c/gamma",
          "dtype": "float32"
        },
        {
          "shape": [
            1024
          ],
          "name": "bn4c_branch2c/beta",
          "dtype": "float32"
        },
        {
          "shape": [
            1024
          ],
          "name": "bn4c_branch2c/moving_mean",
          "dtype": "float32"
        },
        {
          "shape": [
            1024
          ],
          "name": "bn4c_branch2c/moving_variance",
          "dtype": "float32"
        },
        {
          "shape": [
            256
          ],
          "name": "bn4d_branch2a/gamma",
          "dtype": "float32"
        },
        {
          "shape": [
            256
          ],
          "name": "bn4d_branch2a/beta",
          "dtype": "float32"
        },
        {
          "shape": [
            256
          ],
          "name": "bn4d_branch2a/moving_mean",
          "dtype": "float32"
        },
        {
          "shape": [
            256
          ],
          "name": "bn4d_branch2a/moving_variance",
          "dtype": "float32"
        },
        {
          "shape": [
            256
          ],
          "name": "bn4d_branch2b/gamma",
          "dtype": "float32"
        },
        {
          "shape": [
            256
          ],
          "name": "bn4d_branch2b/beta",
          "dtype": "float32"
        },
        {
          "shape": [
            256
          ],
          "name": "bn4d_branch2b/moving_mean",
          "dtype": "float32"
        },
        {
          "shape": [
            256
          ],
          "name": "bn4d_branch2b/moving_variance",
          "dtype": "float32"
        },
        {
          "shape": [
            1024
          ],
          "name": "bn4d_branch2c/gamma",
          "dtype": "float32"
        },
        {
          "shape": [
            1024
          ],
          "name": "bn4d_branch2c/beta",
          "dtype": "float32"
        },
        {
          "shape": [
            1024
          ],
          "name": "bn4d_branch2c/moving_mean",
          "dtype": "float32"
        },
        {
          "shape": [
            1024
          ],
          "name": "bn4d_branch2c/moving_variance",
          "dtype": "float32"
        },
        {
          "shape": [
            256
          ],
          "name": "bn4e_branch2a/gamma",
          "dtype": "float32"
        },
        {
          "shape": [
            256
          ],
          "name": "bn4e_branch2a/beta",
          "dtype": "float32"
        },
        {
          "shape": [
            256
          ],
          "name": "bn4e_branch2a/moving_mean",
          "dtype": "float32"
        },
        {
          "shape": [
            256
          ],
          "name": "bn4e_branch2a/moving_variance",
          "dtype": "float32"
        },
        {
          "shape": [
            256
          ],
          "name": "bn4e_branch2b/gamma",
          "dtype": "float32"
        },
        {
          "shape": [
            256
          ],
          "name": "bn4e_branch2b/beta",
          "dtype": "float32"
        },
        {
          "shape": [
            256
          ],
          "name": "bn4e_branch2b/moving_mean",
          "dtype": "float32"
        },
        {
          "shape": [
            256
          ],
          "name": "bn4e_branch2b/moving_variance",
          "dtype": "float32"
        },
        {
          "shape": [
            1024
          ],
          "name": "bn4e_branch2c/gamma",
          "dtype": "float32"
        },
        {
          "shape": [
            1024
          ],
          "name": "bn4e_branch2c/beta",
          "dtype": "float32"
        },
        {
          "shape": [
            1024
          ],
          "name": "bn4e_branch2c/moving_mean",
          "dtype": "float32"
        },
        {
          "shape": [
            1024
          ],
          "name": "bn4e_branch2c/moving_variance",
          "dtype": "float32"
        },
        {
          "shape": [
            256
          ],
          "name": "bn4f_branch2a/gamma",
          "dtype": "float32"
        },
        {
          "shape": [
            256
          ],
          "name": "bn4f_branch2a/beta",
          "dtype": "float32"
        },
        {
          "shape": [
            256
          ],
          "name": "bn4f_branch2a/moving_mean",
          "dtype": "float32"
        },
        {
          "shape": [
            256
          ],
          "name": "bn4f_branch2a/moving_variance",
          "dtype": "float32"
        },
        {
          "shape": [
            256
          ],
          "name": "bn4f_branch2b/gamma",
          "dtype": "float32"
        },
        {
          "shape": [
            256
          ],
          "name": "bn4f_branch2b/beta",
          "dtype": "float32"
        },
        {
          "shape": [
            256
          ],
          "name": "bn4f_branch2b/moving_mean",
          "dtype": "float32"
        },
        {
          "shape": [
            256
          ],
          "name": "bn4f_branch2b/moving_variance",
          "dtype": "float32"
        },
        {
          "shape": [
            1024
          ],
          "name": "bn4f_branch2c/gamma",
          "dtype": "float32"
        },
        {
          "shape": [
            1024
          ],
          "name": "bn4f_branch2c/beta",
          "dtype": "float32"
        },
        {
          "shape": [
            1024
          ],
          "name": "bn4f_branch2c/moving_mean",
          "dtype": "float32"
        },
        {
          "shape": [
            1024
          ],
          "name": "bn4f_branch2c/moving_variance",
          "dtype": "float32"
        },
        {
          "shape": [
            2048
          ],
          "name": "bn5a_branch1/gamma",
          "dtype": "float32"
        },
        {
          "shape": [
            2048
          ],
          "name": "bn5a_branch1/beta",
          "dtype": "float32"
        },
        {
          "shape": [
            2048
          ],
          "name": "bn5a_branch1/moving_mean",
          "dtype": "float32"
        },
        {
          "shape": [
            2048
          ],
          "name": "bn5a_branch1/moving_variance",
          "dtype": "float32"
        },
        {
          "shape": [
            512
          ],
          "name": "bn5a_branch2a/gamma",
          "dtype": "float32"
        },
        {
          "shape": [
            512
          ],
          "name": "bn5a_branch2a/beta",
          "dtype": "float32"
        },
        {
          "shape": [
            512
          ],
          "name": "bn5a_branch2a/moving_mean",
          "dtype": "float32"
        },
        {
          "shape": [
            512
          ],
          "name": "bn5a_branch2a/moving_variance",
          "dtype": "float32"
        },
        {
          "shape": [
            512
          ],
          "name": "bn5a_branch2b/gamma",
          "dtype": "float32"
        },
        {
          "shape": [
            512
          ],
          "name": "bn5a_branch2b/beta",
          "dtype": "float32"
        },
        {
          "shape": [
            512
          ],
          "name": "bn5a_branch2b/moving_mean",
          "dtype": "float32"
        },
        {
          "shape": [
            512
          ],
          "name": "bn5a_branch2b/moving_variance",
          "dtype": "float32"
        },
        {
          "shape": [
            2048
          ],
          "name": "bn5a_branch2c/gamma",
          "dtype": "float32"
        },
        {
          "shape": [
            2048
          ],
          "name": "bn5a_branch2c/beta",
          "dtype": "float32"
        },
        {
          "shape": [
            2048
          ],
          "name": "bn5a_branch2c/moving_mean",
          "dtype": "float32"
        },
        {
          "shape": [
            2048
          ],
          "name": "bn5a_branch2c/moving_variance",
          "dtype": "float32"
        },
        {
          "shape": [
            512
          ],
          "name": "bn5b_branch2a/gamma",
          "dtype": "float32"
        },
        {
          "shape": [
            512
          ],
          "name": "bn5b_branch2a/beta",
          "dtype": "float32"
        },
        {
          "shape": [
            512
          ],
          "name": "bn5b_branch2a/moving_mean",
          "dtype": "float32"
        },
        {
          "shape": [
            512
          ],
          "name": "bn5b_branch2a/moving_variance",
          "dtype": "float32"
        },
        {
          "shape": [
            512
          ],
          "name": "bn5b_branch2b/gamma",
          "dtype": "float32"
        },
        {
          "shape": [
            512
          ],
          "name": "bn5b_branch2b/beta",
          "dtype": "float32"
        },
        {
          "shape": [
            512
          ],
          "name": "bn5b_branch2b/moving_mean",
          "dtype": "float32"
        },
        {
          "shape": [
            512
          ],
          "name": "bn5b_branch2b/moving_variance",
          "dtype": "float32"
        },
        {
          "shape": [
            2048
          ],
          "name": "bn5b_branch2c/gamma",
          "dtype": "float32"
        },
        {
          "shape": [
            2048
          ],
          "name": "bn5b_branch2c/beta",
          "dtype": "float32"
        },
        {
          "shape": [
            2048
          ],
          "name": "bn5b_branch2c/moving_mean",
          "dtype": "float32"
        },
        {
          "shape": [
            2048
          ],
          "name": "bn5b_branch2c/moving_variance",
          "dtype": "float32"
        },
        {
          "shape": [
            512
          ],
          "name": "bn5c_branch2a/gamma",
          "dtype": "float32"
        },
        {
          "shape": [
            512
          ],
          "name": "bn5c_branch2a/beta",
          "dtype": "float32"
        },
        {
          "shape": [
            512
          ],
          "name": "bn5c_branch2a/moving_mean",
          "dtype": "float32"
        },
        {
          "shape": [
            512
          ],
          "name": "bn5c_branch2a/moving_variance",
          "dtype": "float32"
        },
        {
          "shape": [
            512
          ],
          "name": "bn5c_branch2b/gamma",
          "dtype": "float32"
        },
        {
          "shape": [
            512
          ],
          "name": "bn5c_branch2b/beta",
          "dtype": "float32"
        },
        {
          "shape": [
            512
          ],
          "name": "bn5c_branch2b/moving_mean",
          "dtype": "float32"
        },
        {
          "shape": [
            512
          ],
          "name": "bn5c_branch2b/moving_variance",
          "dtype": "float32"
        },
        {
          "shape": [
            2048
          ],
          "name": "bn5c_branch2c/gamma",
          "dtype": "float32"
        },
        {
          "shape": [
            2048
          ],
          "name": "bn5c_branch2c/beta",
          "dtype": "float32"
        },
        {
          "shape": [
            2048
          ],
          "name": "bn5c_branch2c/moving_mean",
          "dtype": "float32"
        },
        {
          "shape": [
            2048
          ],
          "name": "bn5c_branch2c/moving_variance",
          "dtype": "float32"
        },
        {
          "shape": [
            64
          ],
          "name": "bn_conv1/gamma",
          "dtype": "float32"
        },
        {
          "shape": [
            64
          ],
          "name": "bn_conv1/beta",
          "dtype": "float32"
        },
        {
          "shape": [
            64
          ],
          "name": "bn_conv1/moving_mean",
          "dtype": "float32"
        },
        {
          "shape": [
            64
          ],
          "name": "bn_conv1/moving_variance",
          "dtype": "float32"
        },
        {
          "shape": [
            7,
            7,
            3,
            64
          ],
          "name": "conv1/kernel",
          "dtype": "float32"
        },
        {
          "shape": [
            64
          ],
          "name": "conv1/bias",
          "dtype": "float32"
        },
        {
          "shape": [
            2048,
            1000
          ],
          "name": "fc1000/kernel",
          "dtype": "float32"
        },
        {
          "shape": [
            1000
          ],
          "name": "fc1000/bias",
          "dtype": "float32"
        },
        {
          "shape": [
            1,
            1,
            64,
            256
          ],
          "name": "res2a_branch1/kernel",
          "dtype": "float32"
        },
        {
          "shape": [
            256
          ],
          "name": "res2a_branch1/bias",
          "dtype": "float32"
        },
        {
          "shape": [
            1,
            1,
            64,
            64
          ],
          "name": "res2a_branch2a/kernel",
          "dtype": "float32"
        },
        {
          "shape": [
            64
          ],
          "name": "res2a_branch2a/bias",
          "dtype": "float32"
        },
        {
          "shape": [
            3,
            3,
            64,
            64
          ],
          "name": "res2a_branch2b/kernel",
          "dtype": "float32"
        },
        {
          "shape": [
            64
          ],
          "name": "res2a_branch2b/bias",
          "dtype": "float32"
        },
        {
          "shape": [
            1,
            1,
            64,
            256
          ],
          "name": "res2a_branch2c/kernel",
          "dtype": "float32"
        },
        {
          "shape": [
            256
          ],
          "name": "res2a_branch2c/bias",
          "dtype": "float32"
        },
        {
          "shape": [
            1,
            1,
            256,
            64
          ],
          "name": "res2b_branch2a/kernel",
          "dtype": "float32"
        },
        {
          "shape": [
            64
          ],
          "name": "res2b_branch2a/bias",
          "dtype": "float32"
        },
        {
          "shape": [
            3,
            3,
            64,
            64
          ],
          "name": "res2b_branch2b/kernel",
          "dtype": "float32"
        },
        {
          "shape": [
            64
          ],
          "name": "res2b_branch2b/bias",
          "dtype": "float32"
        },
        {
          "shape": [
            1,
            1,
            64,
            256
          ],
          "name": "res2b_branch2c/kernel",
          "dtype": "float32"
        },
        {
          "shape": [
            256
          ],
          "name": "res2b_branch2c/bias",
          "dtype": "float32"
        },
        {
          "shape": [
            1,
            1,
            256,
            64
          ],
          "name": "res2c_branch2a/kernel",
          "dtype": "float32"
        },
        {
          "shape": [
            64
          ],
          "name": "res2c_branch2a/bias",
          "dtype": "float32"
        },
        {
          "shape": [
            3,
            3,
            64,
            64
          ],
          "name": "res2c_branch2b/kernel",
          "dtype": "float32"
        },
        {
          "shape": [
            64
          ],
          "name": "res2c_branch2b/bias",
          "dtype": "float32"
        },
        {
          "shape": [
            1,
            1,
            64,
            256
          ],
          "name": "res2c_branch2c/kernel",
          "dtype": "float32"
        },
        {
          "shape": [
            256
          ],
          "name": "res2c_branch2c/bias",
          "dtype": "float32"
        },
        {
          "shape": [
            1,
            1,
            256,
            512
          ],
          "name": "res3a_branch1/kernel",
          "dtype": "float32"
        },
        {
          "shape": [
            512
          ],
          "name": "res3a_branch1/bias",
          "dtype": "float32"
        },
        {
          "shape": [
            1,
            1,
            256,
            128
          ],
          "name": "res3a_branch2a/kernel",
          "dtype": "float32"
        },
        {
          "shape": [
            128
          ],
          "name": "res3a_branch2a/bias",
          "dtype": "float32"
        },
        {
          "shape": [
            3,
            3,
            128,
            128
          ],
          "name": "res3a_branch2b/kernel",
          "dtype": "float32"
        },
        {
          "shape": [
            128
          ],
          "name": "res3a_branch2b/bias",
          "dtype": "float32"
        },
        {
          "shape": [
            1,
            1,
            128,
            512
          ],
          "name": "res3a_branch2c/kernel",
          "dtype": "float32"
        },
        {
          "shape": [
            512
          ],
          "name": "res3a_branch2c/bias",
          "dtype": "float32"
        },
        {
          "shape": [
            1,
            1,
            512,
            128
          ],
          "name": "res3b_branch2a/kernel",
          "dtype": "float32"
        },
        {
          "shape": [
            128
          ],
          "name": "res3b_branch2a/bias",
          "dtype": "float32"
        },
        {
          "shape": [
            3,
            3,
            128,
            128
          ],
          "name": "res3b_branch2b/kernel",
          "dtype": "float32"
        },
        {
          "shape": [
            128
          ],
          "name": "res3b_branch2b/bias",
          "dtype": "float32"
        },
        {
          "shape": [
            1,
            1,
            128,
            512
          ],
          "name": "res3b_branch2c/kernel",
          "dtype": "float32"
        },
        {
          "shape": [
            512
          ],
          "name": "res3b_branch2c/bias",
          "dtype": "float32"
        },
        {
          "shape": [
            1,
            1,
            512,
            128
          ],
          "name": "res3c_branch2a/kernel",
          "dtype": "float32"
        },
        {
          "shape": [
            128
          ],
          "name": "res3c_branch2a/bias",
          "dtype": "float32"
        },
        {
          "shape": [
            3,
            3,
            128,
            128
          ],
          "name": "res3c_branch2b/kernel",
          "dtype": "float32"
        },
        {
          "shape": [
            128
          ],
          "name": "res3c_branch2b/bias",
          "dtype": "float32"
        },
        {
          "shape": [
            1,
            1,
            128,
            512
          ],
          "name": "res3c_branch2c/kernel",
          "dtype": "float32"
        },
        {
          "shape": [
            512
          ],
          "name": "res3c_branch2c/bias",
          "dtype": "float32"
        },
        {
          "shape": [
            1,
            1,
            512,
            128
          ],
          "name": "res3d_branch2a/kernel",
          "dtype": "float32"
        },
        {
          "shape": [
            128
          ],
          "name": "res3d_branch2a/bias",
          "dtype": "float32"
        },
        {
          "shape": [
            3,
            3,
            128,
            128
          ],
          "name": "res3d_branch2b/kernel",
          "dtype": "float32"
        },
        {
          "shape": [
            128
          ],
          "name": "res3d_branch2b/bias",
          "dtype": "float32"
        },
        {
          "shape": [
            1,
            1,
            128,
            512
          ],
          "name": "res3d_branch2c/kernel",
          "dtype": "float32"
        },
        {
          "shape": [
            512
          ],
          "name": "res3d_branch2c/bias",
          "dtype": "float32"
        },
        {
          "shape": [
            1,
            1,
            512,
            1024
          ],
          "name": "res4a_branch1/kernel",
          "dtype": "float32"
        },
        {
          "shape": [
            1024
          ],
          "name": "res4a_branch1/bias",
          "dtype": "float32"
        },
        {
          "shape": [
            1,
            1,
            512,
            256
          ],
          "name": "res4a_branch2a/kernel",
          "dtype": "float32"
        },
        {
          "shape": [
            256
          ],
          "name": "res4a_branch2a/bias",
          "dtype": "float32"
        },
        {
          "shape": [
            3,
            3,
            256,
            256
          ],
          "name": "res4a_branch2b/kernel",
          "dtype": "float32"
        },
        {
          "shape": [
            256
          ],
          "name": "res4a_branch2b/bias",
          "dtype": "float32"
        },
        {
          "shape": [
            1,
            1,
            256,
            1024
          ],
          "name": "res4a_branch2c/kernel",
          "dtype": "float32"
        },
        {
          "shape": [
            1024
          ],
          "name": "res4a_branch2c/bias",
          "dtype": "float32"
        },
        {
          "shape": [
            1,
            1,
            1024,
            256
          ],
          "name": "res4b_branch2a/kernel",
          "dtype": "float32"
        },
        {
          "shape": [
            256
          ],
          "name": "res4b_branch2a/bias",
          "dtype": "float32"
        },
        {
          "shape": [
            3,
            3,
            256,
            256
          ],
          "name": "res4b_branch2b/kernel",
          "dtype": "float32"
        },
        {
          "shape": [
            256
          ],
          "name": "res4b_branch2b/bias",
          "dtype": "float32"
        },
        {
          "shape": [
            1,
            1,
            256,
            1024
          ],
          "name": "res4b_branch2c/kernel",
          "dtype": "float32"
        },
        {
          "shape": [
            1024
          ],
          "name": "res4b_branch2c/bias",
          "dtype": "float32"
        },
        {
          "shape": [
            1,
            1,
            1024,
            256
          ],
          "name": "res4c_branch2a/kernel",
          "dtype": "float32"
        },
        {
          "shape": [
            256
          ],
          "name": "res4c_branch2a/bias",
          "dtype": "float32"
        },
        {
          "shape": [
            3,
            3,
            256,
            256
          ],
          "name": "res4c_branch2b/kernel",
          "dtype": "float32"
        },
        {
          "shape": [
            256
          ],
          "name": "res4c_branch2b/bias",
          "dtype": "float32"
        },
        {
          "shape": [
            1,
            1,
            256,
            1024
          ],
          "name": "res4c_branch2c/kernel",
          "dtype": "float32"
        },
        {
          "shape": [
            1024
          ],
          "name": "res4c_branch2c/bias",
          "dtype": "float32"
        },
        {
          "shape": [
            1,
            1,
            1024,
            256
          ],
          "name": "res4d_branch2a/kernel",
          "dtype": "float32"
        },
        {
          "shape": [
            256
          ],
          "name": "res4d_branch2a/bias",
          "dtype": "float32"
        },
        {
          "shape": [
            3,
            3,
            256,
            256
          ],
          "name": "res4d_branch2b/kernel",
          "dtype": "float32"
        },
        {
          "shape": [
            256
          ],
          "name": "res4d_branch2b/bias",
          "dtype": "float32"
        },
        {
          "shape": [
            1,
            1,
            256,
            1024
          ],
          "name": "res4d_branch2c/kernel",
          "dtype": "float32"
        },
        {
          "shape": [
            1024
          ],
          "name": "res4d_branch2c/bias",
          "dtype": "float32"
        },
        {
          "shape": [
            1,
            1,
            1024,
            256
          ],
          "name": "res4e_branch2a/kernel",
          "dtype": "float32"
        },
        {
          "shape": [
            256
          ],
          "name": "res4e_branch2a/bias",
          "dtype": "float32"
        },
        {
          "shape": [
            3,
            3,
            256,
            256
          ],
          "name": "res4e_branch2b/kernel",
          "dtype": "float32"
        },
        {
          "shape": [
            256
          ],
          "name": "res4e_branch2b/bias",
          "dtype": "float32"
        },
        {
          "shape": [
            1,
            1,
            256,
            1024
          ],
          "name": "res4e_branch2c/kernel",
          "dtype": "float32"
        },
        {
          "shape": [
            1024
          ],
          "name": "res4e_branch2c/bias",
          "dtype": "float32"
        },
        {
          "shape": [
            1,
            1,
            1024,
            256
          ],
          "name": "res4f_branch2a/kernel",
          "dtype": "float32"
        },
        {
          "shape": [
            256
          ],
          "name": "res4f_branch2a/bias",
          "dtype": "float32"
        },
        {
          "shape": [
            3,
            3,
            256,
            256
          ],
          "name": "res4f_branch2b/kernel",
          "dtype": "float32"
        },
        {
          "shape": [
            256
          ],
          "name": "res4f_branch2b/bias",
          "dtype": "float32"
        },
        {
          "shape": [
            1,
            1,
            256,
            1024
          ],
          "name": "res4f_branch2c/kernel",
          "dtype": "float32"
        },
        {
          "shape": [
            1024
          ],
          "name": "res4f_branch2c/bias",
          "dtype": "float32"
        },
        {
          "shape": [
            1,
            1,
            1024,
            2048
          ],
          "name": "res5a_branch1/kernel",
          "dtype": "float32"
        },
        {
          "shape": [
            2048
          ],
          "name": "res5a_branch1/bias",
          "dtype": "float32"
        },
        {
          "shape": [
            1,
            1,
            1024,
            512
          ],
          "name": "res5a_branch2a/kernel",
          "dtype": "float32"
        },
        {
          "shape": [
            512
          ],
          "name": "res5a_branch2a/bias",
          "dtype": "float32"
        },
        {
          "shape": [
            3,
            3,
            512,
            512
          ],
          "name": "res5a_branch2b/kernel",
          "dtype": "float32"
        },
        {
          "shape": [
            512
          ],
          "name": "res5a_branch2b/bias",
          "dtype": "float32"
        },
        {
          "shape": [
            1,
            1,
            512,
            2048
          ],
          "name": "res5a_branch2c/kernel",
          "dtype": "float32"
        },
        {
          "shape": [
            2048
          ],
          "name": "res5a_branch2c/bias",
          "dtype": "float32"
        },
        {
          "shape": [
            1,
            1,
            2048,
            512
          ],
          "name": "res5b_branch2a/kernel",
          "dtype": "float32"
        },
        {
          "shape": [
            512
          ],
          "name": "res5b_branch2a/bias",
          "dtype": "float32"
        },
        {
          "shape": [
            3,
            3,
            512,
            512
          ],
          "name": "res5b_branch2b/kernel",
          "dtype": "float32"
        },
        {
          "shape": [
            512
          ],
          "name": "res5b_branch2b/bias",
          "dtype": "float32"
        },
        {
          "shape": [
            1,
            1,
            512,
            2048
          ],
          "name": "res5b_branch2c/kernel",
          "dtype": "float32"
        },
        {
          "shape": [
            2048
          ],
          "name": "res5b_branch2c/bias",
          "dtype": "float32"
        },
        {
          "shape": [
            1,
            1,
            2048,
            512
          ],
          "name": "res5c_branch2a/kernel",
          "dtype": "float32"
        },
        {
          "shape": [
            512
          ],
          "name": "res5c_branch2a/bias",
          "dtype": "float32"
        },
        {
          "shape": [
            3,
            3,
            512,
            512
          ],
          "name": "res5c_branch2b/kernel",
          "dtype": "float32"
        },
        {
          "shape": [
            512
          ],
          "name": "res5c_branch2b/bias",
          "dtype": "float32"
        },
        {
          "shape": [
            1,
            1,
            512,
            2048
          ],
          "name": "res5c_branch2c/kernel",
          "dtype": "float32"
        },
        {
          "shape": [
            2048
          ],
          "name": "res5c_branch2c/bias",
          "dtype": "float32"
        }
      ]
    }
  ],
  "modelTopology": {
    "backend": "tensorflow",
    "model_config": {
      "config": {
        "output_layers": [
          [
            "fc1000",
            0,
            0
          ]
        ],
        "name": "resnet50",
        "layers": [
          {
            "config": {
              "batch_input_shape": [
                null,
                224,
                224,
                3
              ],
              "sparse": false,
              "name": "input_1",
              "dtype": "float32"
            },
            "inbound_nodes": [],
            "name": "input_1",
            "class_name": "InputLayer"
          },
          {
            "config": {
              "dtype": "float32",
              "padding": [
                [
                  3,
                  3
                ],
                [
                  3,
                  3
                ]
              ],
              "data_format": "channels_last",
              "name": "conv1_pad",
              "trainable": true
            },
            "inbound_nodes": [
              [
                [
                  "input_1",
                  0,
                  0,
                  {}
                ]
              ]
            ],
            "name": "conv1_pad",
            "class_name": "ZeroPadding2D"
          },
          {
            "config": {
              "bias_constraint": null,
              "strides": [
                2,
                2
              ],
              "kernel_initializer": {
                "config": {
                  "mode": "fan_in",
                  "distribution": "normal",
                  "scale": 2.0,
                  "seed": null,
                  "dtype": "float32"
                },
                "class_name": "VarianceScaling"
              },
              "kernel_size": [
                7,
                7
              ],
              "kernel_regularizer": null,
              "kernel_constraint": null,
              "bias_initializer": {
                "config": {
                  "dtype": "float32"
                },
                "class_name": "Zeros"
              },
              "trainable": true,
              "activation": "linear",
              "data_format": "channels_last",
              "bias_regularizer": null,
              "filters": 64,
              "name": "conv1",
              "dilation_rate": [
                1,
                1
              ],
              "activity_regularizer": null,
              "padding": "valid",
              "use_bias": true,
              "dtype": "float32"
            },
            "inbound_nodes": [
              [
                [
                  "conv1_pad",
                  0,
                  0,
                  {}
                ]
              ]
            ],
            "name": "conv1",
            "class_name": "Conv2D"
          },
          {
            "config": {
              "moving_variance_initializer": {
                "config": {
                  "dtype": "float32"
                },
                "class_name": "Ones"
              },
              "momentum": 0.99,
              "axis": [
                3
              ],
              "center": true,
              "moving_mean_initializer": {
                "config": {
                  "dtype": "float32"
                },
                "class_name": "Zeros"
              },
              "gamma_regularizer": null,
              "epsilon": 0.001,
              "beta_constraint": null,
              "scale": true,
              "beta_initializer": {
                "config": {
                  "dtype": "float32"
                },
                "class_name": "Zeros"
              },
              "gamma_constraint": null,
              "name": "bn_conv1",
              "trainable": true,
              "beta_regularizer": null,
              "gamma_initializer": {
                "config": {
                  "dtype": "float32"
                },
                "class_name": "Ones"
              },
              "dtype": "float32"
            },
            "inbound_nodes": [
              [
                [
                  "conv1",
                  0,
                  0,
                  {}
                ]
              ]
            ],
            "name": "bn_conv1",
            "class_name": "BatchNormalization"
          },
          {
            "config": {
              "dtype": "float32",
              "activation": "relu",
              "name": "activation",
              "trainable": true
            },
            "inbound_nodes": [
              [
                [
                  "bn_conv1",
                  0,
                  0,
                  {}
                ]
              ]
            ],
            "name": "activation",
            "class_name": "Activation"
          },
          {
            "config": {
              "dtype": "float32",
              "padding": [
                [
                  1,
                  1
                ],
                [
                  1,
                  1
                ]
              ],
              "data_format": "channels_last",
              "name": "pool1_pad",
              "trainable": true
            },
            "inbound_nodes": [
              [
                [
                  "activation",
                  0,
                  0,
                  {}
                ]
              ]
            ],
            "name": "pool1_pad",
            "class_name": "ZeroPadding2D"
          },
          {
            "config": {
              "strides": [
                2,
                2
              ],
              "name": "max_pooling2d",
              "trainable": true,
              "pool_size": [
                3,
                3
              ],
              "data_format": "channels_last",
              "padding": "valid",
              "dtype": "float32"
            },
            "inbound_nodes": [
              [
                [
                  "pool1_pad",
                  0,
                  0,
                  {}
                ]
              ]
            ],
            "name": "max_pooling2d",
            "class_name": "MaxPooling2D"
          },
          {
            "config": {
              "bias_constraint": null,
              "strides": [
                1,
                1
              ],
              "kernel_initializer": {
                "config": {
                  "mode": "fan_in",
                  "distribution": "normal",
                  "scale": 2.0,
                  "seed": null,
                  "dtype": "float32"
                },
                "class_name": "VarianceScaling"
              },
              "kernel_size": [
                1,
                1
              ],
              "kernel_regularizer": null,
              "kernel_constraint": null,
              "bias_initializer": {
                "config": {
                  "dtype": "float32"
                },
                "class_name": "Zeros"
              },
              "trainable": true,
              "activation": "linear",
              "data_format": "channels_last",
              "bias_regularizer": null,
              "filters": 64,
              "name": "res2a_branch2a",
              "dilation_rate": [
                1,
                1
              ],
              "activity_regularizer": null,
              "padding": "valid",
              "use_bias": true,
              "dtype": "float32"
            },
            "inbound_nodes": [
              [
                [
                  "max_pooling2d",
                  0,
                  0,
                  {}
                ]
              ]
            ],
            "name": "res2a_branch2a",
            "class_name": "Conv2D"
          },
          {
            "config": {
              "moving_variance_initializer": {
                "config": {
                  "dtype": "float32"
                },
                "class_name": "Ones"
              },
              "momentum": 0.99,
              "axis": [
                3
              ],
              "center": true,
              "moving_mean_initializer": {
                "config": {
                  "dtype": "float32"
                },
                "class_name": "Zeros"
              },
              "gamma_regularizer": null,
              "epsilon": 0.001,
              "beta_constraint": null,
              "scale": true,
              "beta_initializer": {
                "config": {
                  "dtype": "float32"
                },
                "class_name": "Zeros"
              },
              "gamma_constraint": null,
              "name": "bn2a_branch2a",
              "trainable": true,
              "beta_regularizer": null,
              "gamma_initializer": {
                "config": {
                  "dtype": "float32"
                },
                "class_name": "Ones"
              },
              "dtype": "float32"
            },
            "inbound_nodes": [
              [
                [
                  "res2a_branch2a",
                  0,
                  0,
                  {}
                ]
              ]
            ],
            "name": "bn2a_branch2a",
            "class_name": "BatchNormalization"
          },
          {
            "config": {
              "dtype": "float32",
              "activation": "relu",
              "name": "activation_1",
              "trainable": true
            },
            "inbound_nodes": [
              [
                [
                  "bn2a_branch2a",
                  0,
                  0,
                  {}
                ]
              ]
            ],
            "name": "activation_1",
            "class_name": "Activation"
          },
          {
            "config": {
              "bias_constraint": null,
              "strides": [
                1,
                1
              ],
              "kernel_initializer": {
                "config": {
                  "mode": "fan_in",
                  "distribution": "normal",
                  "scale": 2.0,
                  "seed": null,
                  "dtype": "float32"
                },
                "class_name": "VarianceScaling"
              },
              "kernel_size": [
                3,
                3
              ],
              "kernel_regularizer": null,
              "kernel_constraint": null,
              "bias_initializer": {
                "config": {
                  "dtype": "float32"
                },
                "class_name": "Zeros"
              },
              "trainable": true,
              "activation": "linear",
              "data_format": "channels_last",
              "bias_regularizer": null,
              "filters": 64,
              "name": "res2a_branch2b",
              "dilation_rate": [
                1,
                1
              ],
              "activity_regularizer": null,
              "padding": "same",
              "use_bias": true,
              "dtype": "float32"
            },
            "inbound_nodes": [
              [
                [
                  "activation_1",
                  0,
                  0,
                  {}
                ]
              ]
            ],
            "name": "res2a_branch2b",
            "class_name": "Conv2D"
          },
          {
            "config": {
              "moving_variance_initializer": {
                "config": {
                  "dtype": "float32"
                },
                "class_name": "Ones"
              },
              "momentum": 0.99,
              "axis": [
                3
              ],
              "center": true,
              "moving_mean_initializer": {
                "config": {
                  "dtype": "float32"
                },
                "class_name": "Zeros"
              },
              "gamma_regularizer": null,
              "epsilon": 0.001,
              "beta_constraint": null,
              "scale": true,
              "beta_initializer": {
                "config": {
                  "dtype": "float32"
                },
                "class_name": "Zeros"
              },
              "gamma_constraint": null,
              "name": "bn2a_branch2b",
              "trainable": true,
              "beta_regularizer": null,
              "gamma_initializer": {
                "config": {
                  "dtype": "float32"
                },
                "class_name": "Ones"
              },
              "dtype": "float32"
            },
            "inbound_nodes": [
              [
                [
                  "res2a_branch2b",
                  0,
                  0,
                  {}
                ]
              ]
            ],
            "name": "bn2a_branch2b",
            "class_name": "BatchNormalization"
          },
          {
            "config": {
              "dtype": "float32",
              "activation": "relu",
              "name": "activation_2",
              "trainable": true
            },
            "inbound_nodes": [
              [
                [
                  "bn2a_branch2b",
                  0,
                  0,
                  {}
                ]
              ]
            ],
            "name": "activation_2",
            "class_name": "Activation"
          },
          {
            "config": {
              "bias_constraint": null,
              "strides": [
                1,
                1
              ],
              "kernel_initializer": {
                "config": {
                  "mode": "fan_in",
                  "distribution": "normal",
                  "scale": 2.0,
                  "seed": null,
                  "dtype": "float32"
                },
                "class_name": "VarianceScaling"
              },
              "kernel_size": [
                1,
                1
              ],
              "kernel_regularizer": null,
              "kernel_constraint": null,
              "bias_initializer": {
                "config": {
                  "dtype": "float32"
                },
                "class_name": "Zeros"
              },
              "trainable": true,
              "activation": "linear",
              "data_format": "channels_last",
              "bias_regularizer": null,
              "filters": 256,
              "name": "res2a_branch2c",
              "dilation_rate": [
                1,
                1
              ],
              "activity_regularizer": null,
              "padding": "valid",
              "use_bias": true,
              "dtype": "float32"
            },
            "inbound_nodes": [
              [
                [
                  "activation_2",
                  0,
                  0,
                  {}
                ]
              ]
            ],
            "name": "res2a_branch2c",
            "class_name": "Conv2D"
          },
          {
            "config": {
              "bias_constraint": null,
              "strides": [
                1,
                1
              ],
              "kernel_initializer": {
                "config": {
                  "mode": "fan_in",
                  "distribution": "normal",
                  "scale": 2.0,
                  "seed": null,
                  "dtype": "float32"
                },
                "class_name": "VarianceScaling"
              },
              "kernel_size": [
                1,
                1
              ],
              "kernel_regularizer": null,
              "kernel_constraint": null,
              "bias_initializer": {
                "config": {
                  "dtype": "float32"
                },
                "class_name": "Zeros"
              },
              "trainable": true,
              "activation": "linear",
              "data_format": "channels_last",
              "bias_regularizer": null,
              "filters": 256,
              "name": "res2a_branch1",
              "dilation_rate": [
                1,
                1
              ],
              "activity_regularizer": null,
              "padding": "valid",
              "use_bias": true,
              "dtype": "float32"
            },
            "inbound_nodes": [
              [
                [
                  "max_pooling2d",
                  0,
                  0,
                  {}
                ]
              ]
            ],
            "name": "res2a_branch1",
            "class_name": "Conv2D"
          },
          {
            "config": {
              "moving_variance_initializer": {
                "config": {
                  "dtype": "float32"
                },
                "class_name": "Ones"
              },
              "momentum": 0.99,
              "axis": [
                3
              ],
              "center": true,
              "moving_mean_initializer": {
                "config": {
                  "dtype": "float32"
                },
                "class_name": "Zeros"
              },
              "gamma_regularizer": null,
              "epsilon": 0.001,
              "beta_constraint": null,
              "scale": true,
              "beta_initializer": {
                "config": {
                  "dtype": "float32"
                },
                "class_name": "Zeros"
              },
              "gamma_constraint": null,
              "name": "bn2a_branch2c",
              "trainable": true,
              "beta_regularizer": null,
              "gamma_initializer": {
                "config": {
                  "dtype": "float32"
                },
                "class_name": "Ones"
              },
              "dtype": "float32"
            },
            "inbound_nodes": [
              [
                [
                  "res2a_branch2c",
                  0,
                  0,
                  {}
                ]
              ]
            ],
            "name": "bn2a_branch2c",
            "class_name": "BatchNormalization"
          },
          {
            "config": {
              "moving_variance_initializer": {
                "config": {
                  "dtype": "float32"
                },
                "class_name": "Ones"
              },
              "momentum": 0.99,
              "axis": [
                3
              ],
              "center": true,
              "moving_mean_initializer": {
                "config": {
                  "dtype": "float32"
                },
                "class_name": "Zeros"
              },
              "gamma_regularizer": null,
              "epsilon": 0.001,
              "beta_constraint": null,
              "scale": true,
              "beta_initializer": {
                "config": {
                  "dtype": "float32"
                },
                "class_name": "Zeros"
              },
              "gamma_constraint": null,
              "name": "bn2a_branch1",
              "trainable": true,
              "beta_regularizer": null,
              "gamma_initializer": {
                "config": {
                  "dtype": "float32"
                },
                "class_name": "Ones"
              },
              "dtype": "float32"
            },
            "inbound_nodes": [
              [
                [
                  "res2a_branch1",
                  0,
                  0,
                  {}
                ]
              ]
            ],
            "name": "bn2a_branch1",
            "class_name": "BatchNormalization"
          },
          {
            "config": {
              "dtype": "float32",
              "name": "add",
              "trainable": true
            },
            "inbound_nodes": [
              [
                [
                  "bn2a_branch2c",
                  0,
                  0,
                  {}
                ],
                [
                  "bn2a_branch1",
                  0,
                  0,
                  {}
                ]
              ]
            ],
            "name": "add",
            "class_name": "Add"
          },
          {
            "config": {
              "dtype": "float32",
              "activation": "relu",
              "name": "activation_3",
              "trainable": true
            },
            "inbound_nodes": [
              [
                [
                  "add",
                  0,
                  0,
                  {}
                ]
              ]
            ],
            "name": "activation_3",
            "class_name": "Activation"
          },
          {
            "config": {
              "bias_constraint": null,
              "strides": [
                1,
                1
              ],
              "kernel_initializer": {
                "config": {
                  "mode": "fan_in",
                  "distribution": "normal",
                  "scale": 2.0,
                  "seed": null,
                  "dtype": "float32"
                },
                "class_name": "VarianceScaling"
              },
              "kernel_size": [
                1,
                1
              ],
              "kernel_regularizer": null,
              "kernel_constraint": null,
              "bias_initializer": {
                "config": {
                  "dtype": "float32"
                },
                "class_name": "Zeros"
              },
              "trainable": true,
              "activation": "linear",
              "data_format": "channels_last",
              "bias_regularizer": null,
              "filters": 64,
              "name": "res2b_branch2a",
              "dilation_rate": [
                1,
                1
              ],
              "activity_regularizer": null,
              "padding": "valid",
              "use_bias": true,
              "dtype": "float32"
            },
            "inbound_nodes": [
              [
                [
                  "activation_3",
                  0,
                  0,
                  {}
                ]
              ]
            ],
            "name": "res2b_branch2a",
            "class_name": "Conv2D"
          },
          {
            "config": {
              "moving_variance_initializer": {
                "config": {
                  "dtype": "float32"
                },
                "class_name": "Ones"
              },
              "momentum": 0.99,
              "axis": [
                3
              ],
              "center": true,
              "moving_mean_initializer": {
                "config": {
                  "dtype": "float32"
                },
                "class_name": "Zeros"
              },
              "gamma_regularizer": null,
              "epsilon": 0.001,
              "beta_constraint": null,
              "scale": true,
              "beta_initializer": {
                "config": {
                  "dtype": "float32"
                },
                "class_name": "Zeros"
              },
              "gamma_constraint": null,
              "name": "bn2b_branch2a",
              "trainable": true,
              "beta_regularizer": null,
              "gamma_initializer": {
                "config": {
                  "dtype": "float32"
                },
                "class_name": "Ones"
              },
              "dtype": "float32"
            },
            "inbound_nodes": [
              [
                [
                  "res2b_branch2a",
                  0,
                  0,
                  {}
                ]
              ]
            ],
            "name": "bn2b_branch2a",
            "class_name": "BatchNormalization"
          },
          {
            "config": {
              "dtype": "float32",
              "activation": "relu",
              "name": "activation_4",
              "trainable": true
            },
            "inbound_nodes": [
              [
                [
                  "bn2b_branch2a",
                  0,
                  0,
                  {}
                ]
              ]
            ],
            "name": "activation_4",
            "class_name": "Activation"
          },
          {
            "config": {
              "bias_constraint": null,
              "strides": [
                1,
                1
              ],
              "kernel_initializer": {
                "config": {
                  "mode": "fan_in",
                  "distribution": "normal",
                  "scale": 2.0,
                  "seed": null,
                  "dtype": "float32"
                },
                "class_name": "VarianceScaling"
              },
              "kernel_size": [
                3,
                3
              ],
              "kernel_regularizer": null,
              "kernel_constraint": null,
              "bias_initializer": {
                "config": {
                  "dtype": "float32"
                },
                "class_name": "Zeros"
              },
              "trainable": true,
              "activation": "linear",
              "data_format": "channels_last",
              "bias_regularizer": null,
              "filters": 64,
              "name": "res2b_branch2b",
              "dilation_rate": [
                1,
                1
              ],
              "activity_regularizer": null,
              "padding": "same",
              "use_bias": true,
              "dtype": "float32"
            },
            "inbound_nodes": [
              [
                [
                  "activation_4",
                  0,
                  0,
                  {}
                ]
              ]
            ],
            "name": "res2b_branch2b",
            "class_name": "Conv2D"
          },
          {
            "config": {
              "moving_variance_initializer": {
                "config": {
                  "dtype": "float32"
                },
                "class_name": "Ones"
              },
              "momentum": 0.99,
              "axis": [
                3
              ],
              "center": true,
              "moving_mean_initializer": {
                "config": {
                  "dtype": "float32"
                },
                "class_name": "Zeros"
              },
              "gamma_regularizer": null,
              "epsilon": 0.001,
              "beta_constraint": null,
              "scale": true,
              "beta_initializer": {
                "config": {
                  "dtype": "float32"
                },
                "class_name": "Zeros"
              },
              "gamma_constraint": null,
              "name": "bn2b_branch2b",
              "trainable": true,
              "beta_regularizer": null,
              "gamma_initializer": {
                "config": {
                  "dtype": "float32"
                },
                "class_name": "Ones"
              },
              "dtype": "float32"
            },
            "inbound_nodes": [
              [
                [
                  "res2b_branch2b",
                  0,
                  0,
                  {}
                ]
              ]
            ],
            "name": "bn2b_branch2b",
            "class_name": "BatchNormalization"
          },
          {
            "config": {
              "dtype": "float32",
              "activation": "relu",
              "name": "activation_5",
              "trainable": true
            },
            "inbound_nodes": [
              [
                [
                  "bn2b_branch2b",
                  0,
                  0,
                  {}
                ]
              ]
            ],
            "name": "activation_5",
            "class_name": "Activation"
          },
          {
            "config": {
              "bias_constraint": null,
              "strides": [
                1,
                1
              ],
              "kernel_initializer": {
                "config": {
                  "mode": "fan_in",
                  "distribution": "normal",
                  "scale": 2.0,
                  "seed": null,
                  "dtype": "float32"
                },
                "class_name": "VarianceScaling"
              },
              "kernel_size": [
                1,
                1
              ],
              "kernel_regularizer": null,
              "kernel_constraint": null,
              "bias_initializer": {
                "config": {
                  "dtype": "float32"
                },
                "class_name": "Zeros"
              },
              "trainable": true,
              "activation": "linear",
              "data_format": "channels_last",
              "bias_regularizer": null,
              "filters": 256,
              "name": "res2b_branch2c",
              "dilation_rate": [
                1,
                1
              ],
              "activity_regularizer": null,
              "padding": "valid",
              "use_bias": true,
              "dtype": "float32"
            },
            "inbound_nodes": [
              [
                [
                  "activation_5",
                  0,
                  0,
                  {}
                ]
              ]
            ],
            "name": "res2b_branch2c",
            "class_name": "Conv2D"
          },
          {
            "config": {
              "moving_variance_initializer": {
                "config": {
                  "dtype": "float32"
                },
                "class_name": "Ones"
              },
              "momentum": 0.99,
              "axis": [
                3
              ],
              "center": true,
              "moving_mean_initializer": {
                "config": {
                  "dtype": "float32"
                },
                "class_name": "Zeros"
              },
              "gamma_regularizer": null,
              "epsilon": 0.001,
              "beta_constraint": null,
              "scale": true,
              "beta_initializer": {
                "config": {
                  "dtype": "float32"
                },
                "class_name": "Zeros"
              },
              "gamma_constraint": null,
              "name": "bn2b_branch2c",
              "trainable": true,
              "beta_regularizer": null,
              "gamma_initializer": {
                "config": {
                  "dtype": "float32"
                },
                "class_name": "Ones"
              },
              "dtype": "float32"
            },
            "inbound_nodes": [
              [
                [
                  "res2b_branch2c",
                  0,
                  0,
                  {}
                ]
              ]
            ],
            "name": "bn2b_branch2c",
            "class_name": "BatchNormalization"
          },
          {
            "config": {
              "dtype": "float32",
              "name": "add_1",
              "trainable": true
            },
            "inbound_nodes": [
              [
                [
                  "bn2b_branch2c",
                  0,
                  0,
                  {}
                ],
                [
                  "activation_3",
                  0,
                  0,
                  {}
                ]
              ]
            ],
            "name": "add_1",
            "class_name": "Add"
          },
          {
            "config": {
              "dtype": "float32",
              "activation": "relu",
              "name": "activation_6",
              "trainable": true
            },
            "inbound_nodes": [
              [
                [
                  "add_1",
                  0,
                  0,
                  {}
                ]
              ]
            ],
            "name": "activation_6",
            "class_name": "Activation"
          },
          {
            "config": {
              "bias_constraint": null,
              "strides": [
                1,
                1
              ],
              "kernel_initializer": {
                "config": {
                  "mode": "fan_in",
                  "distribution": "normal",
                  "scale": 2.0,
                  "seed": null,
                  "dtype": "float32"
                },
                "class_name": "VarianceScaling"
              },
              "kernel_size": [
                1,
                1
              ],
              "kernel_regularizer": null,
              "kernel_constraint": null,
              "bias_initializer": {
                "config": {
                  "dtype": "float32"
                },
                "class_name": "Zeros"
              },
              "trainable": true,
              "activation": "linear",
              "data_format": "channels_last",
              "bias_regularizer": null,
              "filters": 64,
              "name": "res2c_branch2a",
              "dilation_rate": [
                1,
                1
              ],
              "activity_regularizer": null,
              "padding": "valid",
              "use_bias": true,
              "dtype": "float32"
            },
            "inbound_nodes": [
              [
                [
                  "activation_6",
                  0,
                  0,
                  {}
                ]
              ]
            ],
            "name": "res2c_branch2a",
            "class_name": "Conv2D"
          },
          {
            "config": {
              "moving_variance_initializer": {
                "config": {
                  "dtype": "float32"
                },
                "class_name": "Ones"
              },
              "momentum": 0.99,
              "axis": [
                3
              ],
              "center": true,
              "moving_mean_initializer": {
                "config": {
                  "dtype": "float32"
                },
                "class_name": "Zeros"
              },
              "gamma_regularizer": null,
              "epsilon": 0.001,
              "beta_constraint": null,
              "scale": true,
              "beta_initializer": {
                "config": {
                  "dtype": "float32"
                },
                "class_name": "Zeros"
              },
              "gamma_constraint": null,
              "name": "bn2c_branch2a",
              "trainable": true,
              "beta_regularizer": null,
              "gamma_initializer": {
                "config": {
                  "dtype": "float32"
                },
                "class_name": "Ones"
              },
              "dtype": "float32"
            },
            "inbound_nodes": [
              [
                [
                  "res2c_branch2a",
                  0,
                  0,
                  {}
                ]
              ]
            ],
            "name": "bn2c_branch2a",
            "class_name": "BatchNormalization"
          },
          {
            "config": {
              "dtype": "float32",
              "activation": "relu",
              "name": "activation_7",
              "trainable": true
            },
            "inbound_nodes": [
              [
                [
                  "bn2c_branch2a",
                  0,
                  0,
                  {}
                ]
              ]
            ],
            "name": "activation_7",
            "class_name": "Activation"
          },
          {
            "config": {
              "bias_constraint": null,
              "strides": [
                1,
                1
              ],
              "kernel_initializer": {
                "config": {
                  "mode": "fan_in",
                  "distribution": "normal",
                  "scale": 2.0,
                  "seed": null,
                  "dtype": "float32"
                },
                "class_name": "VarianceScaling"
              },
              "kernel_size": [
                3,
                3
              ],
              "kernel_regularizer": null,
              "kernel_constraint": null,
              "bias_initializer": {
                "config": {
                  "dtype": "float32"
                },
                "class_name": "Zeros"
              },
              "trainable": true,
              "activation": "linear",
              "data_format": "channels_last",
              "bias_regularizer": null,
              "filters": 64,
              "name": "res2c_branch2b",
              "dilation_rate": [
                1,
                1
              ],
              "activity_regularizer": null,
              "padding": "same",
              "use_bias": true,
              "dtype": "float32"
            },
            "inbound_nodes": [
              [
                [
                  "activation_7",
                  0,
                  0,
                  {}
                ]
              ]
            ],
            "name": "res2c_branch2b",
            "class_name": "Conv2D"
          },
          {
            "config": {
              "moving_variance_initializer": {
                "config": {
                  "dtype": "float32"
                },
                "class_name": "Ones"
              },
              "momentum": 0.99,
              "axis": [
                3
              ],
              "center": true,
              "moving_mean_initializer": {
                "config": {
                  "dtype": "float32"
                },
                "class_name": "Zeros"
              },
              "gamma_regularizer": null,
              "epsilon": 0.001,
              "beta_constraint": null,
              "scale": true,
              "beta_initializer": {
                "config": {
                  "dtype": "float32"
                },
                "class_name": "Zeros"
              },
              "gamma_constraint": null,
              "name": "bn2c_branch2b",
              "trainable": true,
              "beta_regularizer": null,
              "gamma_initializer": {
                "config": {
                  "dtype": "float32"
                },
                "class_name": "Ones"
              },
              "dtype": "float32"
            },
            "inbound_nodes": [
              [
                [
                  "res2c_branch2b",
                  0,
                  0,
                  {}
                ]
              ]
            ],
            "name": "bn2c_branch2b",
            "class_name": "BatchNormalization"
          },
          {
            "config": {
              "dtype": "float32",
              "activation": "relu",
              "name": "activation_8",
              "trainable": true
            },
            "inbound_nodes": [
              [
                [
                  "bn2c_branch2b",
                  0,
                  0,
                  {}
                ]
              ]
            ],
            "name": "activation_8",
            "class_name": "Activation"
          },
          {
            "config": {
              "bias_constraint": null,
              "strides": [
                1,
                1
              ],
              "kernel_initializer": {
                "config": {
                  "mode": "fan_in",
                  "distribution": "normal",
                  "scale": 2.0,
                  "seed": null,
                  "dtype": "float32"
                },
                "class_name": "VarianceScaling"
              },
              "kernel_size": [
                1,
                1
              ],
              "kernel_regularizer": null,
              "kernel_constraint": null,
              "bias_initializer": {
                "config": {
                  "dtype": "float32"
                },
                "class_name": "Zeros"
              },
              "trainable": true,
              "activation": "linear",
              "data_format": "channels_last",
              "bias_regularizer": null,
              "filters": 256,
              "name": "res2c_branch2c",
              "dilation_rate": [
                1,
                1
              ],
              "activity_regularizer": null,
              "padding": "valid",
              "use_bias": true,
              "dtype": "float32"
            },
            "inbound_nodes": [
              [
                [
                  "activation_8",
                  0,
                  0,
                  {}
                ]
              ]
            ],
            "name": "res2c_branch2c",
            "class_name": "Conv2D"
          },
          {
            "config": {
              "moving_variance_initializer": {
                "config": {
                  "dtype": "float32"
                },
                "class_name": "Ones"
              },
              "momentum": 0.99,
              "axis": [
                3
              ],
              "center": true,
              "moving_mean_initializer": {
                "config": {
                  "dtype": "float32"
                },
                "class_name": "Zeros"
              },
              "gamma_regularizer": null,
              "epsilon": 0.001,
              "beta_constraint": null,
              "scale": true,
              "beta_initializer": {
                "config": {
                  "dtype": "float32"
                },
                "class_name": "Zeros"
              },
              "gamma_constraint": null,
              "name": "bn2c_branch2c",
              "trainable": true,
              "beta_regularizer": null,
              "gamma_initializer": {
                "config": {
                  "dtype": "float32"
                },
                "class_name": "Ones"
              },
              "dtype": "float32"
            },
            "inbound_nodes": [
              [
                [
                  "res2c_branch2c",
                  0,
                  0,
                  {}
                ]
              ]
            ],
            "name": "bn2c_branch2c",
            "class_name": "BatchNormalization"
          },
          {
            "config": {
              "dtype": "float32",
              "name": "add_2",
              "trainable": true
            },
            "inbound_nodes": [
              [
                [
                  "bn2c_branch2c",
                  0,
                  0,
                  {}
                ],
                [
                  "activation_6",
                  0,
                  0,
                  {}
                ]
              ]
            ],
            "name": "add_2",
            "class_name": "Add"
          },
          {
            "config": {
              "dtype": "float32",
              "activation": "relu",
              "name": "activation_9",
              "trainable": true
            },
            "inbound_nodes": [
              [
                [
                  "add_2",
                  0,
                  0,
                  {}
                ]
              ]
            ],
            "name": "activation_9",
            "class_name": "Activation"
          },
          {
            "config": {
              "bias_constraint": null,
              "strides": [
                2,
                2
              ],
              "kernel_initializer": {
                "config": {
                  "mode": "fan_in",
                  "distribution": "normal",
                  "scale": 2.0,
                  "seed": null,
                  "dtype": "float32"
                },
                "class_name": "VarianceScaling"
              },
              "kernel_size": [
                1,
                1
              ],
              "kernel_regularizer": null,
              "kernel_constraint": null,
              "bias_initializer": {
                "config": {
                  "dtype": "float32"
                },
                "class_name": "Zeros"
              },
              "trainable": true,
              "activation": "linear",
              "data_format": "channels_last",
              "bias_regularizer": null,
              "filters": 128,
              "name": "res3a_branch2a",
              "dilation_rate": [
                1,
                1
              ],
              "activity_regularizer": null,
              "padding": "valid",
              "use_bias": true,
              "dtype": "float32"
            },
            "inbound_nodes": [
              [
                [
                  "activation_9",
                  0,
                  0,
                  {}
                ]
              ]
            ],
            "name": "res3a_branch2a",
            "class_name": "Conv2D"
          },
          {
            "config": {
              "moving_variance_initializer": {
                "config": {
                  "dtype": "float32"
                },
                "class_name": "Ones"
              },
              "momentum": 0.99,
              "axis": [
                3
              ],
              "center": true,
              "moving_mean_initializer": {
                "config": {
                  "dtype": "float32"
                },
                "class_name": "Zeros"
              },
              "gamma_regularizer": null,
              "epsilon": 0.001,
              "beta_constraint": null,
              "scale": true,
              "beta_initializer": {
                "config": {
                  "dtype": "float32"
                },
                "class_name": "Zeros"
              },
              "gamma_constraint": null,
              "name": "bn3a_branch2a",
              "trainable": true,
              "beta_regularizer": null,
              "gamma_initializer": {
                "config": {
                  "dtype": "float32"
                },
                "class_name": "Ones"
              },
              "dtype": "float32"
            },
            "inbound_nodes": [
              [
                [
                  "res3a_branch2a",
                  0,
                  0,
                  {}
                ]
              ]
            ],
            "name": "bn3a_branch2a",
            "class_name": "BatchNormalization"
          },
          {
            "config": {
              "dtype": "float32",
              "activation": "relu",
              "name": "activation_10",
              "trainable": true
            },
            "inbound_nodes": [
              [
                [
                  "bn3a_branch2a",
                  0,
                  0,
                  {}
                ]
              ]
            ],
            "name": "activation_10",
            "class_name": "Activation"
          },
          {
            "config": {
              "bias_constraint": null,
              "strides": [
                1,
                1
              ],
              "kernel_initializer": {
                "config": {
                  "mode": "fan_in",
                  "distribution": "normal",
                  "scale": 2.0,
                  "seed": null,
                  "dtype": "float32"
                },
                "class_name": "VarianceScaling"
              },
              "kernel_size": [
                3,
                3
              ],
              "kernel_regularizer": null,
              "kernel_constraint": null,
              "bias_initializer": {
                "config": {
                  "dtype": "float32"
                },
                "class_name": "Zeros"
              },
              "trainable": true,
              "activation": "linear",
              "data_format": "channels_last",
              "bias_regularizer": null,
              "filters": 128,
              "name": "res3a_branch2b",
              "dilation_rate": [
                1,
                1
              ],
              "activity_regularizer": null,
              "padding": "same",
              "use_bias": true,
              "dtype": "float32"
            },
            "inbound_nodes": [
              [
                [
                  "activation_10",
                  0,
                  0,
                  {}
                ]
              ]
            ],
            "name": "res3a_branch2b",
            "class_name": "Conv2D"
          },
          {
            "config": {
              "moving_variance_initializer": {
                "config": {
                  "dtype": "float32"
                },
                "class_name": "Ones"
              },
              "momentum": 0.99,
              "axis": [
                3
              ],
              "center": true,
              "moving_mean_initializer": {
                "config": {
                  "dtype": "float32"
                },
                "class_name": "Zeros"
              },
              "gamma_regularizer": null,
              "epsilon": 0.001,
              "beta_constraint": null,
              "scale": true,
              "beta_initializer": {
                "config": {
                  "dtype": "float32"
                },
                "class_name": "Zeros"
              },
              "gamma_constraint": null,
              "name": "bn3a_branch2b",
              "trainable": true,
              "beta_regularizer": null,
              "gamma_initializer": {
                "config": {
                  "dtype": "float32"
                },
                "class_name": "Ones"
              },
              "dtype": "float32"
            },
            "inbound_nodes": [
              [
                [
                  "res3a_branch2b",
                  0,
                  0,
                  {}
                ]
              ]
            ],
            "name": "bn3a_branch2b",
            "class_name": "BatchNormalization"
          },
          {
            "config": {
              "dtype": "float32",
              "activation": "relu",
              "name": "activation_11",
              "trainable": true
            },
            "inbound_nodes": [
              [
                [
                  "bn3a_branch2b",
                  0,
                  0,
                  {}
                ]
              ]
            ],
            "name": "activation_11",
            "class_name": "Activation"
          },
          {
            "config": {
              "bias_constraint": null,
              "strides": [
                1,
                1
              ],
              "kernel_initializer": {
                "config": {
                  "mode": "fan_in",
                  "distribution": "normal",
                  "scale": 2.0,
                  "seed": null,
                  "dtype": "float32"
                },
                "class_name": "VarianceScaling"
              },
              "kernel_size": [
                1,
                1
              ],
              "kernel_regularizer": null,
              "kernel_constraint": null,
              "bias_initializer": {
                "config": {
                  "dtype": "float32"
                },
                "class_name": "Zeros"
              },
              "trainable": true,
              "activation": "linear",
              "data_format": "channels_last",
              "bias_regularizer": null,
              "filters": 512,
              "name": "res3a_branch2c",
              "dilation_rate": [
                1,
                1
              ],
              "activity_regularizer": null,
              "padding": "valid",
              "use_bias": true,
              "dtype": "float32"
            },
            "inbound_nodes": [
              [
                [
                  "activation_11",
                  0,
                  0,
                  {}
                ]
              ]
            ],
            "name": "res3a_branch2c",
            "class_name": "Conv2D"
          },
          {
            "config": {
              "bias_constraint": null,
              "strides": [
                2,
                2
              ],
              "kernel_initializer": {
                "config": {
                  "mode": "fan_in",
                  "distribution": "normal",
                  "scale": 2.0,
                  "seed": null,
                  "dtype": "float32"
                },
                "class_name": "VarianceScaling"
              },
              "kernel_size": [
                1,
                1
              ],
              "kernel_regularizer": null,
              "kernel_constraint": null,
              "bias_initializer": {
                "config": {
                  "dtype": "float32"
                },
                "class_name": "Zeros"
              },
              "trainable": true,
              "activation": "linear",
              "data_format": "channels_last",
              "bias_regularizer": null,
              "filters": 512,
              "name": "res3a_branch1",
              "dilation_rate": [
                1,
                1
              ],
              "activity_regularizer": null,
              "padding": "valid",
              "use_bias": true,
              "dtype": "float32"
            },
            "inbound_nodes": [
              [
                [
                  "activation_9",
                  0,
                  0,
                  {}
                ]
              ]
            ],
            "name": "res3a_branch1",
            "class_name": "Conv2D"
          },
          {
            "config": {
              "moving_variance_initializer": {
                "config": {
                  "dtype": "float32"
                },
                "class_name": "Ones"
              },
              "momentum": 0.99,
              "axis": [
                3
              ],
              "center": true,
              "moving_mean_initializer": {
                "config": {
                  "dtype": "float32"
                },
                "class_name": "Zeros"
              },
              "gamma_regularizer": null,
              "epsilon": 0.001,
              "beta_constraint": null,
              "scale": true,
              "beta_initializer": {
                "config": {
                  "dtype": "float32"
                },
                "class_name": "Zeros"
              },
              "gamma_constraint": null,
              "name": "bn3a_branch2c",
              "trainable": true,
              "beta_regularizer": null,
              "gamma_initializer": {
                "config": {
                  "dtype": "float32"
                },
                "class_name": "Ones"
              },
              "dtype": "float32"
            },
            "inbound_nodes": [
              [
                [
                  "res3a_branch2c",
                  0,
                  0,
                  {}
                ]
              ]
            ],
            "name": "bn3a_branch2c",
            "class_name": "BatchNormalization"
          },
          {
            "config": {
              "moving_variance_initializer": {
                "config": {
                  "dtype": "float32"
                },
                "class_name": "Ones"
              },
              "momentum": 0.99,
              "axis": [
                3
              ],
              "center": true,
              "moving_mean_initializer": {
                "config": {
                  "dtype": "float32"
                },
                "class_name": "Zeros"
              },
              "gamma_regularizer": null,
              "epsilon": 0.001,
              "beta_constraint": null,
              "scale": true,
              "beta_initializer": {
                "config": {
                  "dtype": "float32"
                },
                "class_name": "Zeros"
              },
              "gamma_constraint": null,
              "name": "bn3a_branch1",
              "trainable": true,
              "beta_regularizer": null,
              "gamma_initializer": {
                "config": {
                  "dtype": "float32"
                },
                "class_name": "Ones"
              },
              "dtype": "float32"
            },
            "inbound_nodes": [
              [
                [
                  "res3a_branch1",
                  0,
                  0,
                  {}
                ]
              ]
            ],
            "name": "bn3a_branch1",
            "class_name": "BatchNormalization"
          },
          {
            "config": {
              "dtype": "float32",
              "name": "add_3",
              "trainable": true
            },
            "inbound_nodes": [
              [
                [
                  "bn3a_branch2c",
                  0,
                  0,
                  {}
                ],
                [
                  "bn3a_branch1",
                  0,
                  0,
                  {}
                ]
              ]
            ],
            "name": "add_3",
            "class_name": "Add"
          },
          {
            "config": {
              "dtype": "float32",
              "activation": "relu",
              "name": "activation_12",
              "trainable": true
            },
            "inbound_nodes": [
              [
                [
                  "add_3",
                  0,
                  0,
                  {}
                ]
              ]
            ],
            "name": "activation_12",
            "class_name": "Activation"
          },
          {
            "config": {
              "bias_constraint": null,
              "strides": [
                1,
                1
              ],
              "kernel_initializer": {
                "config": {
                  "mode": "fan_in",
                  "distribution": "normal",
                  "scale": 2.0,
                  "seed": null,
                  "dtype": "float32"
                },
                "class_name": "VarianceScaling"
              },
              "kernel_size": [
                1,
                1
              ],
              "kernel_regularizer": null,
              "kernel_constraint": null,
              "bias_initializer": {
                "config": {
                  "dtype": "float32"
                },
                "class_name": "Zeros"
              },
              "trainable": true,
              "activation": "linear",
              "data_format": "channels_last",
              "bias_regularizer": null,
              "filters": 128,
              "name": "res3b_branch2a",
              "dilation_rate": [
                1,
                1
              ],
              "activity_regularizer": null,
              "padding": "valid",
              "use_bias": true,
              "dtype": "float32"
            },
            "inbound_nodes": [
              [
                [
                  "activation_12",
                  0,
                  0,
                  {}
                ]
              ]
            ],
            "name": "res3b_branch2a",
            "class_name": "Conv2D"
          },
          {
            "config": {
              "moving_variance_initializer": {
                "config": {
                  "dtype": "float32"
                },
                "class_name": "Ones"
              },
              "momentum": 0.99,
              "axis": [
                3
              ],
              "center": true,
              "moving_mean_initializer": {
                "config": {
                  "dtype": "float32"
                },
                "class_name": "Zeros"
              },
              "gamma_regularizer": null,
              "epsilon": 0.001,
              "beta_constraint": null,
              "scale": true,
              "beta_initializer": {
                "config": {
                  "dtype": "float32"
                },
                "class_name": "Zeros"
              },
              "gamma_constraint": null,
              "name": "bn3b_branch2a",
              "trainable": true,
              "beta_regularizer": null,
              "gamma_initializer": {
                "config": {
                  "dtype": "float32"
                },
                "class_name": "Ones"
              },
              "dtype": "float32"
            },
            "inbound_nodes": [
              [
                [
                  "res3b_branch2a",
                  0,
                  0,
                  {}
                ]
              ]
            ],
            "name": "bn3b_branch2a",
            "class_name": "BatchNormalization"
          },
          {
            "config": {
              "dtype": "float32",
              "activation": "relu",
              "name": "activation_13",
              "trainable": true
            },
            "inbound_nodes": [
              [
                [
                  "bn3b_branch2a",
                  0,
                  0,
                  {}
                ]
              ]
            ],
            "name": "activation_13",
            "class_name": "Activation"
          },
          {
            "config": {
              "bias_constraint": null,
              "strides": [
                1,
                1
              ],
              "kernel_initializer": {
                "config": {
                  "mode": "fan_in",
                  "distribution": "normal",
                  "scale": 2.0,
                  "seed": null,
                  "dtype": "float32"
                },
                "class_name": "VarianceScaling"
              },
              "kernel_size": [
                3,
                3
              ],
              "kernel_regularizer": null,
              "kernel_constraint": null,
              "bias_initializer": {
                "config": {
                  "dtype": "float32"
                },
                "class_name": "Zeros"
              },
              "trainable": true,
              "activation": "linear",
              "data_format": "channels_last",
              "bias_regularizer": null,
              "filters": 128,
              "name": "res3b_branch2b",
              "dilation_rate": [
                1,
                1
              ],
              "activity_regularizer": null,
              "padding": "same",
              "use_bias": true,
              "dtype": "float32"
            },
            "inbound_nodes": [
              [
                [
                  "activation_13",
                  0,
                  0,
                  {}
                ]
              ]
            ],
            "name": "res3b_branch2b",
            "class_name": "Conv2D"
          },
          {
            "config": {
              "moving_variance_initializer": {
                "config": {
                  "dtype": "float32"
                },
                "class_name": "Ones"
              },
              "momentum": 0.99,
              "axis": [
                3
              ],
              "center": true,
              "moving_mean_initializer": {
                "config": {
                  "dtype": "float32"
                },
                "class_name": "Zeros"
              },
              "gamma_regularizer": null,
              "epsilon": 0.001,
              "beta_constraint": null,
              "scale": true,
              "beta_initializer": {
                "config": {
                  "dtype": "float32"
                },
                "class_name": "Zeros"
              },
              "gamma_constraint": null,
              "name": "bn3b_branch2b",
              "trainable": true,
              "beta_regularizer": null,
              "gamma_initializer": {
                "config": {
                  "dtype": "float32"
                },
                "class_name": "Ones"
              },
              "dtype": "float32"
            },
            "inbound_nodes": [
              [
                [
                  "res3b_branch2b",
                  0,
                  0,
                  {}
                ]
              ]
            ],
            "name": "bn3b_branch2b",
            "class_name": "BatchNormalization"
          },
          {
            "config": {
              "dtype": "float32",
              "activation": "relu",
              "name": "activation_14",
              "trainable": true
            },
            "inbound_nodes": [
              [
                [
                  "bn3b_branch2b",
                  0,
                  0,
                  {}
                ]
              ]
            ],
            "name": "activation_14",
            "class_name": "Activation"
          },
          {
            "config": {
              "bias_constraint": null,
              "strides": [
                1,
                1
              ],
              "kernel_initializer": {
                "config": {
                  "mode": "fan_in",
                  "distribution": "normal",
                  "scale": 2.0,
                  "seed": null,
                  "dtype": "float32"
                },
                "class_name": "VarianceScaling"
              },
              "kernel_size": [
                1,
                1
              ],
              "kernel_regularizer": null,
              "kernel_constraint": null,
              "bias_initializer": {
                "config": {
                  "dtype": "float32"
                },
                "class_name": "Zeros"
              },
              "trainable": true,
              "activation": "linear",
              "data_format": "channels_last",
              "bias_regularizer": null,
              "filters": 512,
              "name": "res3b_branch2c",
              "dilation_rate": [
                1,
                1
              ],
              "activity_regularizer": null,
              "padding": "valid",
              "use_bias": true,
              "dtype": "float32"
            },
            "inbound_nodes": [
              [
                [
                  "activation_14",
                  0,
                  0,
                  {}
                ]
              ]
            ],
            "name": "res3b_branch2c",
            "class_name": "Conv2D"
          },
          {
            "config": {
              "moving_variance_initializer": {
                "config": {
                  "dtype": "float32"
                },
                "class_name": "Ones"
              },
              "momentum": 0.99,
              "axis": [
                3
              ],
              "center": true,
              "moving_mean_initializer": {
                "config": {
                  "dtype": "float32"
                },
                "class_name": "Zeros"
              },
              "gamma_regularizer": null,
              "epsilon": 0.001,
              "beta_constraint": null,
              "scale": true,
              "beta_initializer": {
                "config": {
                  "dtype": "float32"
                },
                "class_name": "Zeros"
              },
              "gamma_constraint": null,
              "name": "bn3b_branch2c",
              "trainable": true,
              "beta_regularizer": null,
              "gamma_initializer": {
                "config": {
                  "dtype": "float32"
                },
                "class_name": "Ones"
              },
              "dtype": "float32"
            },
            "inbound_nodes": [
              [
                [
                  "res3b_branch2c",
                  0,
                  0,
                  {}
                ]
              ]
            ],
            "name": "bn3b_branch2c",
            "class_name": "BatchNormalization"
          },
          {
            "config": {
              "dtype": "float32",
              "name": "add_4",
              "trainable": true
            },
            "inbound_nodes": [
              [
                [
                  "bn3b_branch2c",
                  0,
                  0,
                  {}
                ],
                [
                  "activation_12",
                  0,
                  0,
                  {}
                ]
              ]
            ],
            "name": "add_4",
            "class_name": "Add"
          },
          {
            "config": {
              "dtype": "float32",
              "activation": "relu",
              "name": "activation_15",
              "trainable": true
            },
            "inbound_nodes": [
              [
                [
                  "add_4",
                  0,
                  0,
                  {}
                ]
              ]
            ],
            "name": "activation_15",
            "class_name": "Activation"
          },
          {
            "config": {
              "bias_constraint": null,
              "strides": [
                1,
                1
              ],
              "kernel_initializer": {
                "config": {
                  "mode": "fan_in",
                  "distribution": "normal",
                  "scale": 2.0,
                  "seed": null,
                  "dtype": "float32"
                },
                "class_name": "VarianceScaling"
              },
              "kernel_size": [
                1,
                1
              ],
              "kernel_regularizer": null,
              "kernel_constraint": null,
              "bias_initializer": {
                "config": {
                  "dtype": "float32"
                },
                "class_name": "Zeros"
              },
              "trainable": true,
              "activation": "linear",
              "data_format": "channels_last",
              "bias_regularizer": null,
              "filters": 128,
              "name": "res3c_branch2a",
              "dilation_rate": [
                1,
                1
              ],
              "activity_regularizer": null,
              "padding": "valid",
              "use_bias": true,
              "dtype": "float32"
            },
            "inbound_nodes": [
              [
                [
                  "activation_15",
                  0,
                  0,
                  {}
                ]
              ]
            ],
            "name": "res3c_branch2a",
            "class_name": "Conv2D"
          },
          {
            "config": {
              "moving_variance_initializer": {
                "config": {
                  "dtype": "float32"
                },
                "class_name": "Ones"
              },
              "momentum": 0.99,
              "axis": [
                3
              ],
              "center": true,
              "moving_mean_initializer": {
                "config": {
                  "dtype": "float32"
                },
                "class_name": "Zeros"
              },
              "gamma_regularizer": null,
              "epsilon": 0.001,
              "beta_constraint": null,
              "scale": true,
              "beta_initializer": {
                "config": {
                  "dtype": "float32"
                },
                "class_name": "Zeros"
              },
              "gamma_constraint": null,
              "name": "bn3c_branch2a",
              "trainable": true,
              "beta_regularizer": null,
              "gamma_initializer": {
                "config": {
                  "dtype": "float32"
                },
                "class_name": "Ones"
              },
              "dtype": "float32"
            },
            "inbound_nodes": [
              [
                [
                  "res3c_branch2a",
                  0,
                  0,
                  {}
                ]
              ]
            ],
            "name": "bn3c_branch2a",
            "class_name": "BatchNormalization"
          },
          {
            "config": {
              "dtype": "float32",
              "activation": "relu",
              "name": "activation_16",
              "trainable": true
            },
            "inbound_nodes": [
              [
                [
                  "bn3c_branch2a",
                  0,
                  0,
                  {}
                ]
              ]
            ],
            "name": "activation_16",
            "class_name": "Activation"
          },
          {
            "config": {
              "bias_constraint": null,
              "strides": [
                1,
                1
              ],
              "kernel_initializer": {
                "config": {
                  "mode": "fan_in",
                  "distribution": "normal",
                  "scale": 2.0,
                  "seed": null,
                  "dtype": "float32"
                },
                "class_name": "VarianceScaling"
              },
              "kernel_size": [
                3,
                3
              ],
              "kernel_regularizer": null,
              "kernel_constraint": null,
              "bias_initializer": {
                "config": {
                  "dtype": "float32"
                },
                "class_name": "Zeros"
              },
              "trainable": true,
              "activation": "linear",
              "data_format": "channels_last",
              "bias_regularizer": null,
              "filters": 128,
              "name": "res3c_branch2b",
              "dilation_rate": [
                1,
                1
              ],
              "activity_regularizer": null,
              "padding": "same",
              "use_bias": true,
              "dtype": "float32"
            },
            "inbound_nodes": [
              [
                [
                  "activation_16",
                  0,
                  0,
                  {}
                ]
              ]
            ],
            "name": "res3c_branch2b",
            "class_name": "Conv2D"
          },
          {
            "config": {
              "moving_variance_initializer": {
                "config": {
                  "dtype": "float32"
                },
                "class_name": "Ones"
              },
              "momentum": 0.99,
              "axis": [
                3
              ],
              "center": true,
              "moving_mean_initializer": {
                "config": {
                  "dtype": "float32"
                },
                "class_name": "Zeros"
              },
              "gamma_regularizer": null,
              "epsilon": 0.001,
              "beta_constraint": null,
              "scale": true,
              "beta_initializer": {
                "config": {
                  "dtype": "float32"
                },
                "class_name": "Zeros"
              },
              "gamma_constraint": null,
              "name": "bn3c_branch2b",
              "trainable": true,
              "beta_regularizer": null,
              "gamma_initializer": {
                "config": {
                  "dtype": "float32"
                },
                "class_name": "Ones"
              },
              "dtype": "float32"
            },
            "inbound_nodes": [
              [
                [
                  "res3c_branch2b",
                  0,
                  0,
                  {}
                ]
              ]
            ],
            "name": "bn3c_branch2b",
            "class_name": "BatchNormalization"
          },
          {
            "config": {
              "dtype": "float32",
              "activation": "relu",
              "name": "activation_17",
              "trainable": true
            },
            "inbound_nodes": [
              [
                [
                  "bn3c_branch2b",
                  0,
                  0,
                  {}
                ]
              ]
            ],
            "name": "activation_17",
            "class_name": "Activation"
          },
          {
            "config": {
              "bias_constraint": null,
              "strides": [
                1,
                1
              ],
              "kernel_initializer": {
                "config": {
                  "mode": "fan_in",
                  "distribution": "normal",
                  "scale": 2.0,
                  "seed": null,
                  "dtype": "float32"
                },
                "class_name": "VarianceScaling"
              },
              "kernel_size": [
                1,
                1
              ],
              "kernel_regularizer": null,
              "kernel_constraint": null,
              "bias_initializer": {
                "config": {
                  "dtype": "float32"
                },
                "class_name": "Zeros"
              },
              "trainable": true,
              "activation": "linear",
              "data_format": "channels_last",
              "bias_regularizer": null,
              "filters": 512,
              "name": "res3c_branch2c",
              "dilation_rate": [
                1,
                1
              ],
              "activity_regularizer": null,
              "padding": "valid",
              "use_bias": true,
              "dtype": "float32"
            },
            "inbound_nodes": [
              [
                [
                  "activation_17",
                  0,
                  0,
                  {}
                ]
              ]
            ],
            "name": "res3c_branch2c",
            "class_name": "Conv2D"
          },
          {
            "config": {
              "moving_variance_initializer": {
                "config": {
                  "dtype": "float32"
                },
                "class_name": "Ones"
              },
              "momentum": 0.99,
              "axis": [
                3
              ],
              "center": true,
              "moving_mean_initializer": {
                "config": {
                  "dtype": "float32"
                },
                "class_name": "Zeros"
              },
              "gamma_regularizer": null,
              "epsilon": 0.001,
              "beta_constraint": null,
              "scale": true,
              "beta_initializer": {
                "config": {
                  "dtype": "float32"
                },
                "class_name": "Zeros"
              },
              "gamma_constraint": null,
              "name": "bn3c_branch2c",
              "trainable": true,
              "beta_regularizer": null,
              "gamma_initializer": {
                "config": {
                  "dtype": "float32"
                },
                "class_name": "Ones"
              },
              "dtype": "float32"
            },
            "inbound_nodes": [
              [
                [
                  "res3c_branch2c",
                  0,
                  0,
                  {}
                ]
              ]
            ],
            "name": "bn3c_branch2c",
            "class_name": "BatchNormalization"
          },
          {
            "config": {
              "dtype": "float32",
              "name": "add_5",
              "trainable": true
            },
            "inbound_nodes": [
              [
                [
                  "bn3c_branch2c",
                  0,
                  0,
                  {}
                ],
                [
                  "activation_15",
                  0,
                  0,
                  {}
                ]
              ]
            ],
            "name": "add_5",
            "class_name": "Add"
          },
          {
            "config": {
              "dtype": "float32",
              "activation": "relu",
              "name": "activation_18",
              "trainable": true
            },
            "inbound_nodes": [
              [
                [
                  "add_5",
                  0,
                  0,
                  {}
                ]
              ]
            ],
            "name": "activation_18",
            "class_name": "Activation"
          },
          {
            "config": {
              "bias_constraint": null,
              "strides": [
                1,
                1
              ],
              "kernel_initializer": {
                "config": {
                  "mode": "fan_in",
                  "distribution": "normal",
                  "scale": 2.0,
                  "seed": null,
                  "dtype": "float32"
                },
                "class_name": "VarianceScaling"
              },
              "kernel_size": [
                1,
                1
              ],
              "kernel_regularizer": null,
              "kernel_constraint": null,
              "bias_initializer": {
                "config": {
                  "dtype": "float32"
                },
                "class_name": "Zeros"
              },
              "trainable": true,
              "activation": "linear",
              "data_format": "channels_last",
              "bias_regularizer": null,
              "filters": 128,
              "name": "res3d_branch2a",
              "dilation_rate": [
                1,
                1
              ],
              "activity_regularizer": null,
              "padding": "valid",
              "use_bias": true,
              "dtype": "float32"
            },
            "inbound_nodes": [
              [
                [
                  "activation_18",
                  0,
                  0,
                  {}
                ]
              ]
            ],
            "name": "res3d_branch2a",
            "class_name": "Conv2D"
          },
          {
            "config": {
              "moving_variance_initializer": {
                "config": {
                  "dtype": "float32"
                },
                "class_name": "Ones"
              },
              "momentum": 0.99,
              "axis": [
                3
              ],
              "center": true,
              "moving_mean_initializer": {
                "config": {
                  "dtype": "float32"
                },
                "class_name": "Zeros"
              },
              "gamma_regularizer": null,
              "epsilon": 0.001,
              "beta_constraint": null,
              "scale": true,
              "beta_initializer": {
                "config": {
                  "dtype": "float32"
                },
                "class_name": "Zeros"
              },
              "gamma_constraint": null,
              "name": "bn3d_branch2a",
              "trainable": true,
              "beta_regularizer": null,
              "gamma_initializer": {
                "config": {
                  "dtype": "float32"
                },
                "class_name": "Ones"
              },
              "dtype": "float32"
            },
            "inbound_nodes": [
              [
                [
                  "res3d_branch2a",
                  0,
                  0,
                  {}
                ]
              ]
            ],
            "name": "bn3d_branch2a",
            "class_name": "BatchNormalization"
          },
          {
            "config": {
              "dtype": "float32",
              "activation": "relu",
              "name": "activation_19",
              "trainable": true
            },
            "inbound_nodes": [
              [
                [
                  "bn3d_branch2a",
                  0,
                  0,
                  {}
                ]
              ]
            ],
            "name": "activation_19",
            "class_name": "Activation"
          },
          {
            "config": {
              "bias_constraint": null,
              "strides": [
                1,
                1
              ],
              "kernel_initializer": {
                "config": {
                  "mode": "fan_in",
                  "distribution": "normal",
                  "scale": 2.0,
                  "seed": null,
                  "dtype": "float32"
                },
                "class_name": "VarianceScaling"
              },
              "kernel_size": [
                3,
                3
              ],
              "kernel_regularizer": null,
              "kernel_constraint": null,
              "bias_initializer": {
                "config": {
                  "dtype": "float32"
                },
                "class_name": "Zeros"
              },
              "trainable": true,
              "activation": "linear",
              "data_format": "channels_last",
              "bias_regularizer": null,
              "filters": 128,
              "name": "res3d_branch2b",
              "dilation_rate": [
                1,
                1
              ],
              "activity_regularizer": null,
              "padding": "same",
              "use_bias": true,
              "dtype": "float32"
            },
            "inbound_nodes": [
              [
                [
                  "activation_19",
                  0,
                  0,
                  {}
                ]
              ]
            ],
            "name": "res3d_branch2b",
            "class_name": "Conv2D"
          },
          {
            "config": {
              "moving_variance_initializer": {
                "config": {
                  "dtype": "float32"
                },
                "class_name": "Ones"
              },
              "momentum": 0.99,
              "axis": [
                3
              ],
              "center": true,
              "moving_mean_initializer": {
                "config": {
                  "dtype": "float32"
                },
                "class_name": "Zeros"
              },
              "gamma_regularizer": null,
              "epsilon": 0.001,
              "beta_constraint": null,
              "scale": true,
              "beta_initializer": {
                "config": {
                  "dtype": "float32"
                },
                "class_name": "Zeros"
              },
              "gamma_constraint": null,
              "name": "bn3d_branch2b",
              "trainable": true,
              "beta_regularizer": null,
              "gamma_initializer": {
                "config": {
                  "dtype": "float32"
                },
                "class_name": "Ones"
              },
              "dtype": "float32"
            },
            "inbound_nodes": [
              [
                [
                  "res3d_branch2b",
                  0,
                  0,
                  {}
                ]
              ]
            ],
            "name": "bn3d_branch2b",
            "class_name": "BatchNormalization"
          },
          {
            "config": {
              "dtype": "float32",
              "activation": "relu",
              "name": "activation_20",
              "trainable": true
            },
            "inbound_nodes": [
              [
                [
                  "bn3d_branch2b",
                  0,
                  0,
                  {}
                ]
              ]
            ],
            "name": "activation_20",
            "class_name": "Activation"
          },
          {
            "config": {
              "bias_constraint": null,
              "strides": [
                1,
                1
              ],
              "kernel_initializer": {
                "config": {
                  "mode": "fan_in",
                  "distribution": "normal",
                  "scale": 2.0,
                  "seed": null,
                  "dtype": "float32"
                },
                "class_name": "VarianceScaling"
              },
              "kernel_size": [
                1,
                1
              ],
              "kernel_regularizer": null,
              "kernel_constraint": null,
              "bias_initializer": {
                "config": {
                  "dtype": "float32"
                },
                "class_name": "Zeros"
              },
              "trainable": true,
              "activation": "linear",
              "data_format": "channels_last",
              "bias_regularizer": null,
              "filters": 512,
              "name": "res3d_branch2c",
              "dilation_rate": [
                1,
                1
              ],
              "activity_regularizer": null,
              "padding": "valid",
              "use_bias": true,
              "dtype": "float32"
            },
            "inbound_nodes": [
              [
                [
                  "activation_20",
                  0,
                  0,
                  {}
                ]
              ]
            ],
            "name": "res3d_branch2c",
            "class_name": "Conv2D"
          },
          {
            "config": {
              "moving_variance_initializer": {
                "config": {
                  "dtype": "float32"
                },
                "class_name": "Ones"
              },
              "momentum": 0.99,
              "axis": [
                3
              ],
              "center": true,
              "moving_mean_initializer": {
                "config": {
                  "dtype": "float32"
                },
                "class_name": "Zeros"
              },
              "gamma_regularizer": null,
              "epsilon": 0.001,
              "beta_constraint": null,
              "scale": true,
              "beta_initializer": {
                "config": {
                  "dtype": "float32"
                },
                "class_name": "Zeros"
              },
              "gamma_constraint": null,
              "name": "bn3d_branch2c",
              "trainable": true,
              "beta_regularizer": null,
              "gamma_initializer": {
                "config": {
                  "dtype": "float32"
                },
                "class_name": "Ones"
              },
              "dtype": "float32"
            },
            "inbound_nodes": [
              [
                [
                  "res3d_branch2c",
                  0,
                  0,
                  {}
                ]
              ]
            ],
            "name": "bn3d_branch2c",
            "class_name": "BatchNormalization"
          },
          {
            "config": {
              "dtype": "float32",
              "name": "add_6",
              "trainable": true
            },
            "inbound_nodes": [
              [
                [
                  "bn3d_branch2c",
                  0,
                  0,
                  {}
                ],
                [
                  "activation_18",
                  0,
                  0,
                  {}
                ]
              ]
            ],
            "name": "add_6",
            "class_name": "Add"
          },
          {
            "config": {
              "dtype": "float32",
              "activation": "relu",
              "name": "activation_21",
              "trainable": true
            },
            "inbound_nodes": [
              [
                [
                  "add_6",
                  0,
                  0,
                  {}
                ]
              ]
            ],
            "name": "activation_21",
            "class_name": "Activation"
          },
          {
            "config": {
              "bias_constraint": null,
              "strides": [
                2,
                2
              ],
              "kernel_initializer": {
                "config": {
                  "mode": "fan_in",
                  "distribution": "normal",
                  "scale": 2.0,
                  "seed": null,
                  "dtype": "float32"
                },
                "class_name": "VarianceScaling"
              },
              "kernel_size": [
                1,
                1
              ],
              "kernel_regularizer": null,
              "kernel_constraint": null,
              "bias_initializer": {
                "config": {
                  "dtype": "float32"
                },
                "class_name": "Zeros"
              },
              "trainable": true,
              "activation": "linear",
              "data_format": "channels_last",
              "bias_regularizer": null,
              "filters": 256,
              "name": "res4a_branch2a",
              "dilation_rate": [
                1,
                1
              ],
              "activity_regularizer": null,
              "padding": "valid",
              "use_bias": true,
              "dtype": "float32"
            },
            "inbound_nodes": [
              [
                [
                  "activation_21",
                  0,
                  0,
                  {}
                ]
              ]
            ],
            "name": "res4a_branch2a",
            "class_name": "Conv2D"
          },
          {
            "config": {
              "moving_variance_initializer": {
                "config": {
                  "dtype": "float32"
                },
                "class_name": "Ones"
              },
              "momentum": 0.99,
              "axis": [
                3
              ],
              "center": true,
              "moving_mean_initializer": {
                "config": {
                  "dtype": "float32"
                },
                "class_name": "Zeros"
              },
              "gamma_regularizer": null,
              "epsilon": 0.001,
              "beta_constraint": null,
              "scale": true,
              "beta_initializer": {
                "config": {
                  "dtype": "float32"
                },
                "class_name": "Zeros"
              },
              "gamma_constraint": null,
              "name": "bn4a_branch2a",
              "trainable": true,
              "beta_regularizer": null,
              "gamma_initializer": {
                "config": {
                  "dtype": "float32"
                },
                "class_name": "Ones"
              },
              "dtype": "float32"
            },
            "inbound_nodes": [
              [
                [
                  "res4a_branch2a",
                  0,
                  0,
                  {}
                ]
              ]
            ],
            "name": "bn4a_branch2a",
            "class_name": "BatchNormalization"
          },
          {
            "config": {
              "dtype": "float32",
              "activation": "relu",
              "name": "activation_22",
              "trainable": true
            },
            "inbound_nodes": [
              [
                [
                  "bn4a_branch2a",
                  0,
                  0,
                  {}
                ]
              ]
            ],
            "name": "activation_22",
            "class_name": "Activation"
          },
          {
            "config": {
              "bias_constraint": null,
              "strides": [
                1,
                1
              ],
              "kernel_initializer": {
                "config": {
                  "mode": "fan_in",
                  "distribution": "normal",
                  "scale": 2.0,
                  "seed": null,
                  "dtype": "float32"
                },
                "class_name": "VarianceScaling"
              },
              "kernel_size": [
                3,
                3
              ],
              "kernel_regularizer": null,
              "kernel_constraint": null,
              "bias_initializer": {
                "config": {
                  "dtype": "float32"
                },
                "class_name": "Zeros"
              },
              "trainable": true,
              "activation": "linear",
              "data_format": "channels_last",
              "bias_regularizer": null,
              "filters": 256,
              "name": "res4a_branch2b",
              "dilation_rate": [
                1,
                1
              ],
              "activity_regularizer": null,
              "padding": "same",
              "use_bias": true,
              "dtype": "float32"
            },
            "inbound_nodes": [
              [
                [
                  "activation_22",
                  0,
                  0,
                  {}
                ]
              ]
            ],
            "name": "res4a_branch2b",
            "class_name": "Conv2D"
          },
          {
            "config": {
              "moving_variance_initializer": {
                "config": {
                  "dtype": "float32"
                },
                "class_name": "Ones"
              },
              "momentum": 0.99,
              "axis": [
                3
              ],
              "center": true,
              "moving_mean_initializer": {
                "config": {
                  "dtype": "float32"
                },
                "class_name": "Zeros"
              },
              "gamma_regularizer": null,
              "epsilon": 0.001,
              "beta_constraint": null,
              "scale": true,
              "beta_initializer": {
                "config": {
                  "dtype": "float32"
                },
                "class_name": "Zeros"
              },
              "gamma_constraint": null,
              "name": "bn4a_branch2b",
              "trainable": true,
              "beta_regularizer": null,
              "gamma_initializer": {
                "config": {
                  "dtype": "float32"
                },
                "class_name": "Ones"
              },
              "dtype": "float32"
            },
            "inbound_nodes": [
              [
                [
                  "res4a_branch2b",
                  0,
                  0,
                  {}
                ]
              ]
            ],
            "name": "bn4a_branch2b",
            "class_name": "BatchNormalization"
          },
          {
            "config": {
              "dtype": "float32",
              "activation": "relu",
              "name": "activation_23",
              "trainable": true
            },
            "inbound_nodes": [
              [
                [
                  "bn4a_branch2b",
                  0,
                  0,
                  {}
                ]
              ]
            ],
            "name": "activation_23",
            "class_name": "Activation"
          },
          {
            "config": {
              "bias_constraint": null,
              "strides": [
                1,
                1
              ],
              "kernel_initializer": {
                "config": {
                  "mode": "fan_in",
                  "distribution": "normal",
                  "scale": 2.0,
                  "seed": null,
                  "dtype": "float32"
                },
                "class_name": "VarianceScaling"
              },
              "kernel_size": [
                1,
                1
              ],
              "kernel_regularizer": null,
              "kernel_constraint": null,
              "bias_initializer": {
                "config": {
                  "dtype": "float32"
                },
                "class_name": "Zeros"
              },
              "trainable": true,
              "activation": "linear",
              "data_format": "channels_last",
              "bias_regularizer": null,
              "filters": 1024,
              "name": "res4a_branch2c",
…
                "config": {
                  "dtype": "float32"
                },
                "class_name": "Zeros"
              },
              "trainable": true,
              "activation": "linear",
              "data_format": "channels_last",
              "bias_regularizer": null,
              "filters": 256,
              "name": "res4f_branch2a",
              "dilation_rate": [
                1,
                1
              ],
              "activity_regularizer": null,
              "padding": "valid",
              "use_bias": true,
              "dtype": "float32"
            },
            "inbound_nodes": [
              [
                [
                  "activation_36",
                  0,
                  0,
                  {}
                ]
              ]
            ],
            "name": "res4f_branch2a",
            "class_name": "Conv2D"
          },
          {
            "config": {
              "moving_variance_initializer": {
                "config": {
                  "dtype": "float32"
                },
                "class_name": "Ones"
              },
              "momentum": 0.99,
              "axis": [
                3
              ],
              "center": true,
              "moving_mean_initializer": {
                "config": {
                  "dtype": "float32"
                },
                "class_name": "Zeros"
              },
              "gamma_regularizer": null,
              "epsilon": 0.001,
              "beta_constraint": null,
              "scale": true,
              "beta_initializer": {
                "config": {
                  "dtype": "float32"
                },
                "class_name": "Zeros"
              },
              "gamma_constraint": null,
              "name": "bn4f_branch2a",
              "trainable": true,
              "beta_regularizer": null,
              "gamma_initializer": {
                "config": {
                  "dtype": "float32"
                },
                "class_name": "Ones"
              },
              "dtype": "float32"
            },
            "inbound_nodes": [
              [
                [
                  "res4f_branch2a",
                  0,
                  0,
                  {}
                ]
              ]
            ],
            "name": "bn4f_branch2a",
            "class_name": "BatchNormalization"
          },
          {
            "config": {
              "dtype": "float32",
              "activation": "relu",
              "name": "activation_37",
              "trainable": true
            },
            "inbound_nodes": [
              [
                [
                  "bn4f_branch2a",
                  0,
                  0,
                  {}
                ]
              ]
            ],
            "name": "activation_37",
            "class_name": "Activation"
          },
          {
            "config": {
              "bias_constraint": null,
              "strides": [
                1,
                1
              ],
              "kernel_initializer": {
                "config": {
                  "mode": "fan_in",
                  "distribution": "normal",
                  "scale": 2.0,
                  "seed": null,
                  "dtype": "float32"
                },
                "class_name": "VarianceScaling"
              },
              "kernel_size": [
                3,
                3
              ],
              "kernel_regularizer": null,
              "kernel_constraint": null,
              "bias_initializer": {
                "config": {
                  "dtype": "float32"
                },
                "class_name": "Zeros"
              },
              "trainable": true,
              "activation": "linear",
              "data_format": "channels_last",
              "bias_regularizer": null,
              "filters": 256,
              "name": "res4f_branch2b",
              "dilation_rate": [
                1,
                1
              ],
              "activity_regularizer": null,
              "padding": "same",
              "use_bias": true,
              "dtype": "float32"
            },
            "inbound_nodes": [
              [
                [
                  "activation_37",
                  0,
                  0,
                  {}
                ]
              ]
            ],
            "name": "res4f_branch2b",
            "class_name": "Conv2D"
          },
          {
            "config": {
              "moving_variance_initializer": {
                "config": {
                  "dtype": "float32"
                },
                "class_name": "Ones"
              },
              "momentum": 0.99,
              "axis": [
                3
              ],
              "center": true,
              "moving_mean_initializer": {
                "config": {
                  "dtype": "float32"
                },
                "class_name": "Zeros"
              },
              "gamma_regularizer": null,
              "epsilon": 0.001,
              "beta_constraint": null,
              "scale": true,
              "beta_initializer": {
                "config": {
                  "dtype": "float32"
                },
                "class_name": "Zeros"
              },
              "gamma_constraint": null,
              "name": "bn4f_branch2b",
              "trainable": true,
              "beta_regularizer": null,
              "gamma_initializer": {
                "config": {
                  "dtype": "float32"
                },
                "class_name": "Ones"
              },
              "dtype": "float32"
            },
            "inbound_nodes": [
              [
                [
                  "res4f_branch2b",
                  0,
                  0,
                  {}
                ]
              ]
            ],
            "name": "bn4f_branch2b",
            "class_name": "BatchNormalization"
          },
          {
            "config": {
              "dtype": "float32",
              "activation": "relu",
              "name": "activation_38",
              "trainable": true
            },
            "inbound_nodes": [
              [
                [
                  "bn4f_branch2b",
                  0,
                  0,
                  {}
                ]
              ]
            ],
            "name": "activation_38",
            "class_name": "Activation"
          },
          {
            "config": {
              "bias_constraint": null,
              "strides": [
                1,
                1
              ],
              "kernel_initializer": {
                "config": {
                  "mode": "fan_in",
                  "distribution": "normal",
                  "scale": 2.0,
                  "seed": null,
                  "dtype": "float32"
                },
                "class_name": "VarianceScaling"
              },
              "kernel_size": [
                1,
                1
              ],
              "kernel_regularizer": null,
              "kernel_constraint": null,
              "bias_initializer": {
                "config": {
                  "dtype": "float32"
                },
                "class_name": "Zeros"
              },
              "trainable": true,
              "activation": "linear",
              "data_format": "channels_last",
              "bias_regularizer": null,
              "filters": 1024,
              "name": "res4f_branch2c",
              "dilation_rate": [
                1,
                1
              ],
              "activity_regularizer": null,
              "padding": "valid",
              "use_bias": true,
              "dtype": "float32"
            },
            "inbound_nodes": [
              [
                [
                  "activation_38",
                  0,
                  0,
                  {}
                ]
              ]
            ],
            "name": "res4f_branch2c",
            "class_name": "Conv2D"
          },
          {
            "config": {
              "moving_variance_initializer": {
                "config": {
                  "dtype": "float32"
                },
                "class_name": "Ones"
              },
              "momentum": 0.99,
              "axis": [
                3
              ],
              "center": true,
              "moving_mean_initializer": {
                "config": {
                  "dtype": "float32"
                },
                "class_name": "Zeros"
              },
              "gamma_regularizer": null,
              "epsilon": 0.001,
              "beta_constraint": null,
              "scale": true,
              "beta_initializer": {
                "config": {
                  "dtype": "float32"
                },
                "class_name": "Zeros"
              },
              "gamma_constraint": null,
              "name": "bn4f_branch2c",
              "trainable": true,
              "beta_regularizer": null,
              "gamma_initializer": {
                "config": {
                  "dtype": "float32"
                },
                "class_name": "Ones"
              },
              "dtype": "float32"
            },
            "inbound_nodes": [
              [
                [
                  "res4f_branch2c",
                  0,
                  0,
                  {}
                ]
              ]
            ],
            "name": "bn4f_branch2c",
            "class_name": "BatchNormalization"
          },
          {
            "config": {
              "dtype": "float32",
              "name": "add_12",
              "trainable": true
            },
            "inbound_nodes": [
              [
                [
                  "bn4f_branch2c",
                  0,
                  0,
                  {}
                ],
                [
                  "activation_36",
                  0,
                  0,
                  {}
                ]
              ]
            ],
            "name": "add_12",
            "class_name": "Add"
          },
          {
            "config": {
              "dtype": "float32",
              "activation": "relu",
              "name": "activation_39",
              "trainable": true
            },
            "inbound_nodes": [
              [
                [
                  "add_12",
                  0,
                  0,
                  {}
                ]
              ]
            ],
            "name": "activation_39",
            "class_name": "Activation"
          },
          {
            "config": {
              "bias_constraint": null,
              "strides": [
                2,
                2
              ],
              "kernel_initializer": {
                "config": {
                  "mode": "fan_in",
                  "distribution": "normal",
                  "scale": 2.0,
                  "seed": null,
                  "dtype": "float32"
                },
                "class_name": "VarianceScaling"
              },
              "kernel_size": [
                1,
                1
              ],
              "kernel_regularizer": null,
              "kernel_constraint": null,
              "bias_initializer": {
                "config": {
                  "dtype": "float32"
                },
                "class_name": "Zeros"
              },
              "trainable": true,
              "activation": "linear",
              "data_format": "channels_last",
              "bias_regularizer": null,
              "filters": 512,
              "name": "res5a_branch2a",
              "dilation_rate": [
                1,
                1
              ],
              "activity_regularizer": null,
              "padding": "valid",
              "use_bias": true,
              "dtype": "float32"
            },
            "inbound_nodes": [
              [
                [
                  "activation_39",
                  0,
                  0,
                  {}
                ]
              ]
            ],
            "name": "res5a_branch2a",
            "class_name": "Conv2D"
          },
          {
            "config": {
              "moving_variance_initializer": {
                "config": {
                  "dtype": "float32"
                },
                "class_name": "Ones"
              },
              "momentum": 0.99,
              "axis": [
                3
              ],
              "center": true,
              "moving_mean_initializer": {
                "config": {
                  "dtype": "float32"
                },
                "class_name": "Zeros"
              },
              "gamma_regularizer": null,
              "epsilon": 0.001,
              "beta_constraint": null,
              "scale": true,
              "beta_initializer": {
                "config": {
                  "dtype": "float32"
                },
                "class_name": "Zeros"
              },
              "gamma_constraint": null,
              "name": "bn5a_branch2a",
              "trainable": true,
              "beta_regularizer": null,
              "gamma_initializer": {
                "config": {
                  "dtype": "float32"
                },
                "class_name": "Ones"
              },
              "dtype": "float32"
            },
            "inbound_nodes": [
              [
                [
                  "res5a_branch2a",
                  0,
                  0,
                  {}
                ]
              ]
            ],
            "name": "bn5a_branch2a",
            "class_name": "BatchNormalization"
          },
          {
            "config": {
              "dtype": "float32",
              "activation": "relu",
              "name": "activation_40",
              "trainable": true
            },
            "inbound_nodes": [
              [
                [
                  "bn5a_branch2a",
                  0,
                  0,
                  {}
                ]
              ]
            ],
            "name": "activation_40",
            "class_name": "Activation"
          },
          {
            "config": {
              "bias_constraint": null,
              "strides": [
                1,
                1
              ],
              "kernel_initializer": {
                "config": {
                  "mode": "fan_in",
                  "distribution": "normal",
                  "scale": 2.0,
                  "seed": null,
                  "dtype": "float32"
                },
                "class_name": "VarianceScaling"
              },
              "kernel_size": [
                3,
                3
              ],
              "kernel_regularizer": null,
              "kernel_constraint": null,
              "bias_initializer": {
                "config": {
                  "dtype": "float32"
                },
                "class_name": "Zeros"
              },
              "trainable": true,
              "activation": "linear",
              "data_format": "channels_last",
              "bias_regularizer": null,
              "filters": 512,
              "name": "res5a_branch2b",
              "dilation_rate": [
                1,
                1
              ],
              "activity_regularizer": null,
              "padding": "same",
              "use_bias": true,
              "dtype": "float32"
            },
            "inbound_nodes": [
              [
                [
                  "activation_40",
                  0,
                  0,
                  {}
                ]
              ]
            ],
            "name": "res5a_branch2b",
            "class_name": "Conv2D"
          },
          {
            "config": {
              "moving_variance_initializer": {
                "config": {
                  "dtype": "float32"
                },
                "class_name": "Ones"
              },
              "momentum": 0.99,
              "axis": [
                3
              ],
              "center": true,
              "moving_mean_initializer": {
                "config": {
                  "dtype": "float32"
                },
                "class_name": "Zeros"
              },
              "gamma_regularizer": null,
              "epsilon": 0.001,
              "beta_constraint": null,
              "scale": true,
              "beta_initializer": {
                "config": {
                  "dtype": "float32"
                },
                "class_name": "Zeros"
              },
              "gamma_constraint": null,
              "name": "bn5a_branch2b",
              "trainable": true,
              "beta_regularizer": null,
              "gamma_initializer": {
                "config": {
                  "dtype": "float32"
                },
                "class_name": "Ones"
              },
              "dtype": "float32"
            },
            "inbound_nodes": [
              [
                [
                  "res5a_branch2b",
                  0,
                  0,
                  {}
                ]
              ]
            ],
            "name": "bn5a_branch2b",
            "class_name": "BatchNormalization"
          },
          {
            "config": {
              "dtype": "float32",
              "activation": "relu",
              "name": "activation_41",
              "trainable": true
            },
            "inbound_nodes": [
              [
                [
                  "bn5a_branch2b",
                  0,
                  0,
                  {}
                ]
              ]
            ],
            "name": "activation_41",
            "class_name": "Activation"
          },
          {
            "config": {
              "bias_constraint": null,
              "strides": [
                1,
                1
              ],
              "kernel_initializer": {
                "config": {
                  "mode": "fan_in",
                  "distribution": "normal",
                  "scale": 2.0,
                  "seed": null,
                  "dtype": "float32"
                },
                "class_name": "VarianceScaling"
              },
              "kernel_size": [
                1,
                1
              ],
              "kernel_regularizer": null,
              "kernel_constraint": null,
              "bias_initializer": {
                "config": {
                  "dtype": "float32"
                },
                "class_name": "Zeros"
              },
              "trainable": true,
              "activation": "linear",
              "data_format": "channels_last",
              "bias_regularizer": null,
              "filters": 2048,
              "name": "res5a_branch2c",
              "dilation_rate": [
                1,
                1
              ],
              "activity_regularizer": null,
              "padding": "valid",
              "use_bias": true,
              "dtype": "float32"
            },
            "inbound_nodes": [
              [
                [
                  "activation_41",
                  0,
                  0,
                  {}
                ]
              ]
            ],
            "name": "res5a_branch2c",
            "class_name": "Conv2D"
          },
          {
            "config": {
              "bias_constraint": null,
              "strides": [
                2,
                2
              ],
              "kernel_initializer": {
                "config": {
                  "mode": "fan_in",
                  "distribution": "normal",
                  "scale": 2.0,
                  "seed": null,
                  "dtype": "float32"
                },
                "class_name": "VarianceScaling"
              },
              "kernel_size": [
                1,
                1
              ],
              "kernel_regularizer": null,
              "kernel_constraint": null,
              "bias_initializer": {
                "config": {
                  "dtype": "float32"
                },
                "class_name": "Zeros"
              },
              "trainable": true,
              "activation": "linear",
              "data_format": "channels_last",
              "bias_regularizer": null,
              "filters": 2048,
              "name": "res5a_branch1",
              "dilation_rate": [
                1,
                1
              ],
              "activity_regularizer": null,
              "padding": "valid",
              "use_bias": true,
              "dtype": "float32"
            },
            "inbound_nodes": [
              [
                [
                  "activation_39",
                  0,
                  0,
                  {}
                ]
              ]
            ],
            "name": "res5a_branch1",
            "class_name": "Conv2D"
          },
          {
            "config": {
              "moving_variance_initializer": {
                "config": {
                  "dtype": "float32"
                },
                "class_name": "Ones"
              },
              "momentum": 0.99,
              "axis": [
                3
              ],
              "center": true,
              "moving_mean_initializer": {
                "config": {
                  "dtype": "float32"
                },
                "class_name": "Zeros"
              },
              "gamma_regularizer": null,
              "epsilon": 0.001,
              "beta_constraint": null,
              "scale": true,
              "beta_initializer": {
                "config": {
                  "dtype": "float32"
                },
                "class_name": "Zeros"
              },
              "gamma_constraint": null,
              "name": "bn5a_branch2c",
              "trainable": true,
              "beta_regularizer": null,
              "gamma_initializer": {
                "config": {
                  "dtype": "float32"
                },
                "class_name": "Ones"
              },
              "dtype": "float32"
            },
            "inbound_nodes": [
              [
                [
                  "res5a_branch2c",
                  0,
                  0,
                  {}
                ]
              ]
            ],
            "name": "bn5a_branch2c",
            "class_name": "BatchNormalization"
          },
          {
            "config": {
              "moving_variance_initializer": {
                "config": {
                  "dtype": "float32"
                },
                "class_name": "Ones"
              },
              "momentum": 0.99,
              "axis": [
                3
              ],
              "center": true,
              "moving_mean_initializer": {
                "config": {
                  "dtype": "float32"
                },
                "class_name": "Zeros"
              },
              "gamma_regularizer": null,
              "epsilon": 0.001,
              "beta_constraint": null,
              "scale": true,
              "beta_initializer": {
                "config": {
                  "dtype": "float32"
                },
                "class_name": "Zeros"
              },
              "gamma_constraint": null,
              "name": "bn5a_branch1",
              "trainable": true,
              "beta_regularizer": null,
              "gamma_initializer": {
                "config": {
                  "dtype": "float32"
                },
                "class_name": "Ones"
              },
              "dtype": "float32"
            },
            "inbound_nodes": [
              [
                [
                  "res5a_branch1",
                  0,
                  0,
                  {}
                ]
              ]
            ],
            "name": "bn5a_branch1",
            "class_name": "BatchNormalization"
          },
          {
            "config": {
              "dtype": "float32",
              "name": "add_13",
              "trainable": true
            },
            "inbound_nodes": [
              [
                [
                  "bn5a_branch2c",
                  0,
                  0,
                  {}
                ],
                [
                  "bn5a_branch1",
                  0,
                  0,
                  {}
                ]
              ]
            ],
            "name": "add_13",
            "class_name": "Add"
          },
          {
            "config": {
              "dtype": "float32",
              "activation": "relu",
              "name": "activation_42",
              "trainable": true
            },
            "inbound_nodes": [
              [
                [
                  "add_13",
                  0,
                  0,
                  {}
                ]
              ]
            ],
            "name": "activation_42",
            "class_name": "Activation"
          },
          {
            "config": {
              "bias_constraint": null,
              "strides": [
                1,
                1
              ],
              "kernel_initializer": {
                "config": {
                  "mode": "fan_in",
                  "distribution": "normal",
                  "scale": 2.0,
                  "seed": null,
                  "dtype": "float32"
                },
                "class_name": "VarianceScaling"
              },
              "kernel_size": [
                1,
                1
              ],
              "kernel_regularizer": null,
              "kernel_constraint": null,
              "bias_initializer": {
                "config": {
                  "dtype": "float32"
                },
                "class_name": "Zeros"
              },
              "trainable": true,
              "activation": "linear",
              "data_format": "channels_last",
              "bias_regularizer": null,
              "filters": 512,
              "name": "res5b_branch2a",
              "dilation_rate": [
                1,
                1
              ],
              "activity_regularizer": null,
              "padding": "valid",
              "use_bias": true,
              "dtype": "float32"
            },
            "inbound_nodes": [
              [
                [
                  "activation_42",
                  0,
                  0,
                  {}
                ]
              ]
            ],
            "name": "res5b_branch2a",
            "class_name": "Conv2D"
          },
          {
            "config": {
              "moving_variance_initializer": {
                "config": {
                  "dtype": "float32"
                },
                "class_name": "Ones"
              },
              "momentum": 0.99,
              "axis": [
                3
              ],
              "center": true,
              "moving_mean_initializer": {
                "config": {
                  "dtype": "float32"
                },
                "class_name": "Zeros"
              },
              "gamma_regularizer": null,
              "epsilon": 0.001,
              "beta_constraint": null,
              "scale": true,
              "beta_initializer": {
                "config": {
                  "dtype": "float32"
                },
                "class_name": "Zeros"
              },
              "gamma_constraint": null,
              "name": "bn5b_branch2a",
              "trainable": true,
              "beta_regularizer": null,
              "gamma_initializer": {
                "config": {
                  "dtype": "float32"
                },
                "class_name": "Ones"
              },
              "dtype": "float32"
            },
            "inbound_nodes": [
              [
                [
                  "res5b_branch2a",
                  0,
                  0,
                  {}
                ]
              ]
            ],
            "name": "bn5b_branch2a",
            "class_name": "BatchNormalization"
          },
          {
            "config": {
              "dtype": "float32",
              "activation": "relu",
              "name": "activation_43",
              "trainable": true
            },
            "inbound_nodes": [
              [
                [
                  "bn5b_branch2a",
                  0,
                  0,
                  {}
                ]
              ]
            ],
            "name": "activation_43",
            "class_name": "Activation"
          },
          {
            "config": {
              "bias_constraint": null,
              "strides": [
                1,
                1
              ],
              "kernel_initializer": {
                "config": {
                  "mode": "fan_in",
                  "distribution": "normal",
                  "scale": 2.0,
                  "seed": null,
                  "dtype": "float32"
                },
                "class_name": "VarianceScaling"
              },
              "kernel_size": [
                3,
                3
              ],
              "kernel_regularizer": null,
              "kernel_constraint": null,
              "bias_initializer": {
                "config": {
                  "dtype": "float32"
                },
                "class_name": "Zeros"
              },
              "trainable": true,
              "activation": "linear",
              "data_format": "channels_last",
              "bias_regularizer": null,
              "filters": 512,
              "name": "res5b_branch2b",
              "dilation_rate": [
                1,
                1
              ],
              "activity_regularizer": null,
              "padding": "same",
              "use_bias": true,
              "dtype": "float32"
            },
            "inbound_nodes": [
              [
                [
                  "activation_43",
                  0,
                  0,
                  {}
                ]
              ]
            ],
            "name": "res5b_branch2b",
            "class_name": "Conv2D"
          },
          {
            "config": {
              "moving_variance_initializer": {
                "config": {
                  "dtype": "float32"
                },
                "class_name": "Ones"
              },
              "momentum": 0.99,
              "axis": [
                3
              ],
              "center": true,
              "moving_mean_initializer": {
                "config": {
                  "dtype": "float32"
                },
                "class_name": "Zeros"
              },
              "gamma_regularizer": null,
              "epsilon": 0.001,
              "beta_constraint": null,
              "scale": true,
              "beta_initializer": {
                "config": {
                  "dtype": "float32"
                },
                "class_name": "Zeros"
              },
              "gamma_constraint": null,
              "name": "bn5b_branch2b",
              "trainable": true,
              "beta_regularizer": null,
              "gamma_initializer": {
                "config": {
                  "dtype": "float32"
                },
                "class_name": "Ones"
              },
              "dtype": "float32"
            },
            "inbound_nodes": [
              [
                [
                  "res5b_branch2b",
                  0,
                  0,
                  {}
                ]
              ]
            ],
            "name": "bn5b_branch2b",
            "class_name": "BatchNormalization"
          },
          {
            "config": {
              "dtype": "float32",
              "activation": "relu",
              "name": "activation_44",
              "trainable": true
            },
            "inbound_nodes": [
              [
                [
                  "bn5b_branch2b",
                  0,
                  0,
                  {}
                ]
              ]
            ],
            "name": "activation_44",
            "class_name": "Activation"
          },
          {
            "config": {
              "bias_constraint": null,
              "strides": [
                1,
                1
              ],
              "kernel_initializer": {
                "config": {
                  "mode": "fan_in",
                  "distribution": "normal",
                  "scale": 2.0,
                  "seed": null,
                  "dtype": "float32"
                },
                "class_name": "VarianceScaling"
              },
              "kernel_size": [
                1,
                1
              ],
              "kernel_regularizer": null,
              "kernel_constraint": null,
              "bias_initializer": {
                "config": {
                  "dtype": "float32"
                },
                "class_name": "Zeros"
              },
              "trainable": true,
              "activation": "linear",
              "data_format": "channels_last",
              "bias_regularizer": null,
              "filters": 2048,
              "name": "res5b_branch2c",
              "dilation_rate": [
                1,
                1
              ],
              "activity_regularizer": null,
              "padding": "valid",
              "use_bias": true,
              "dtype": "float32"
            },
            "inbound_nodes": [
              [
                [
                  "activation_44",
                  0,
                  0,
                  {}
                ]
              ]
            ],
            "name": "res5b_branch2c",
            "class_name": "Conv2D"
          },
          {
            "config": {
              "moving_variance_initializer": {
                "config": {
                  "dtype": "float32"
                },
                "class_name": "Ones"
              },
              "momentum": 0.99,
              "axis": [
                3
              ],
              "center": true,
              "moving_mean_initializer": {
                "config": {
                  "dtype": "float32"
                },
                "class_name": "Zeros"
              },
              "gamma_regularizer": null,
              "epsilon": 0.001,
              "beta_constraint": null,
              "scale": true,
              "beta_initializer": {
                "config": {
                  "dtype": "float32"
                },
                "class_name": "Zeros"
              },
              "gamma_constraint": null,
              "name": "bn5b_branch2c",
              "trainable": true,
              "beta_regularizer": null,
              "gamma_initializer": {
                "config": {
                  "dtype": "float32"
                },
                "class_name": "Ones"
              },
              "dtype": "float32"
            },
            "inbound_nodes": [
              [
                [
                  "res5b_branch2c",
                  0,
                  0,
                  {}
                ]
              ]
            ],
            "name": "bn5b_branch2c",
            "class_name": "BatchNormalization"
          },
          {
            "config": {
              "dtype": "float32",
              "name": "add_14",
              "trainable": true
            },
            "inbound_nodes": [
              [
                [
                  "bn5b_branch2c",
                  0,
                  0,
                  {}
                ],
                [
                  "activation_42",
                  0,
                  0,
                  {}
                ]
              ]
            ],
            "name": "add_14",
            "class_name": "Add"
          },
          {
            "config": {
              "dtype": "float32",
              "activation": "relu",
              "name": "activation_45",
              "trainable": true
            },
            "inbound_nodes": [
              [
                [
                  "add_14",
                  0,
                  0,
                  {}
                ]
              ]
            ],
            "name": "activation_45",
            "class_name": "Activation"
          },
          {
            "config": {
              "bias_constraint": null,
              "strides": [
                1,
                1
              ],
              "kernel_initializer": {
                "config": {
                  "mode": "fan_in",
                  "distribution": "normal",
                  "scale": 2.0,
                  "seed": null,
                  "dtype": "float32"
                },
                "class_name": "VarianceScaling"
              },
              "kernel_size": [
                1,
                1
              ],
              "kernel_regularizer": null,
              "kernel_constraint": null,
              "bias_initializer": {
                "config": {
                  "dtype": "float32"
                },
                "class_name": "Zeros"
              },
              "trainable": true,
              "activation": "linear",
              "data_format": "channels_last",
              "bias_regularizer": null,
              "filters": 512,
              "name": "res5c_branch2a",
              "dilation_rate": [
                1,
                1
              ],
              "activity_regularizer": null,
              "padding": "valid",
              "use_bias": true,
              "dtype": "float32"
            },
            "inbound_nodes": [
              [
                [
                  "activation_45",
                  0,
                  0,
                  {}
                ]
              ]
            ],
            "name": "res5c_branch2a",
            "class_name": "Conv2D"
          },
          {
            "config": {
              "moving_variance_initializer": {
                "config": {
                  "dtype": "float32"
                },
                "class_name": "Ones"
              },
              "momentum": 0.99,
              "axis": [
                3
              ],
              "center": true,
              "moving_mean_initializer": {
                "config": {
                  "dtype": "float32"
                },
                "class_name": "Zeros"
              },
              "gamma_regularizer": null,
              "epsilon": 0.001,
              "beta_constraint": null,
              "scale": true,
              "beta_initializer": {
                "config": {
                  "dtype": "float32"
                },
                "class_name": "Zeros"
              },
              "gamma_constraint": null,
              "name": "bn5c_branch2a",
              "trainable": true,
              "beta_regularizer": null,
              "gamma_initializer": {
                "config": {
                  "dtype": "float32"
                },
                "class_name": "Ones"
              },
              "dtype": "float32"
            },
            "inbound_nodes": [
              [
                [
                  "res5c_branch2a",
                  0,
                  0,
                  {}
                ]
              ]
            ],
            "name": "bn5c_branch2a",
            "class_name": "BatchNormalization"
          },
          {
            "config": {
              "dtype": "float32",
              "activation": "relu",
              "name": "activation_46",
              "trainable": true
            },
            "inbound_nodes": [
              [
                [
                  "bn5c_branch2a",
                  0,
                  0,
                  {}
                ]
              ]
            ],
            "name": "activation_46",
            "class_name": "Activation"
          },
          {
            "config": {
              "bias_constraint": null,
              "strides": [
                1,
                1
              ],
              "kernel_initializer": {
                "config": {
                  "mode": "fan_in",
                  "distribution": "normal",
                  "scale": 2.0,
                  "seed": null,
                  "dtype": "float32"
                },
                "class_name": "VarianceScaling"
              },
              "kernel_size": [
                3,
                3
              ],
              "kernel_regularizer": null,
              "kernel_constraint": null,
              "bias_initializer": {
                "config": {
                  "dtype": "float32"
                },
                "class_name": "Zeros"
              },
              "trainable": true,
              "activation": "linear",
              "data_format": "channels_last",
              "bias_regularizer": null,
              "filters": 512,
              "name": "res5c_branch2b",
              "dilation_rate": [
                1,
                1
              ],
              "activity_regularizer": null,
              "padding": "same",
              "use_bias": true,
              "dtype": "float32"
            },
            "inbound_nodes": [
              [
                [
                  "activation_46",
                  0,
                  0,
                  {}
                ]
              ]
            ],
            "name": "res5c_branch2b",
            "class_name": "Conv2D"
          },
          {
            "config": {
              "moving_variance_initializer": {
                "config": {
                  "dtype": "float32"
                },
                "class_name": "Ones"
              },
              "momentum": 0.99,
              "axis": [
                3
              ],
              "center": true,
              "moving_mean_initializer": {
                "config": {
                  "dtype": "float32"
                },
                "class_name": "Zeros"
              },
              "gamma_regularizer": null,
              "epsilon": 0.001,
              "beta_constraint": null,
              "scale": true,
              "beta_initializer": {
                "config": {
                  "dtype": "float32"
                },
                "class_name": "Zeros"
              },
              "gamma_constraint": null,
              "name": "bn5c_branch2b",
              "trainable": true,
              "beta_regularizer": null,
              "gamma_initializer": {
                "config": {
                  "dtype": "float32"
                },
                "class_name": "Ones"
              },
              "dtype": "float32"
            },
            "inbound_nodes": [
              [
                [
                  "res5c_branch2b",
                  0,
                  0,
                  {}
                ]
              ]
            ],
            "name": "bn5c_branch2b",
            "class_name": "BatchNormalization"
          },
          {
            "config": {
              "dtype": "float32",
              "activation": "relu",
              "name": "activation_47",
              "trainable": true
            },
            "inbound_nodes": [
              [
                [
                  "bn5c_branch2b",
                  0,
                  0,
                  {}
                ]
              ]
            ],
            "name": "activation_47",
            "class_name": "Activation"
          },
          {
            "config": {
              "bias_constraint": null,
              "strides": [
                1,
                1
              ],
              "kernel_initializer": {
                "config": {
                  "mode": "fan_in",
                  "distribution": "normal",
                  "scale": 2.0,
                  "seed": null,
                  "dtype": "float32"
                },
                "class_name": "VarianceScaling"
              },
              "kernel_size": [
                1,
                1
              ],
              "kernel_regularizer": null,
              "kernel_constraint": null,
              "bias_initializer": {
                "config": {
                  "dtype": "float32"
                },
                "class_name": "Zeros"
              },
              "trainable": true,
              "activation": "linear",
              "data_format": "channels_last",
              "bias_regularizer": null,
              "filters": 2048,
              "name": "res5c_branch2c",
              "dilation_rate": [
                1,
                1
              ],
              "activity_regularizer": null,
              "padding": "valid",
              "use_bias": true,
              "dtype": "float32"
            },
            "inbound_nodes": [
              [
                [
                  "activation_47",
                  0,
                  0,
                  {}
                ]
              ]
            ],
            "name": "res5c_branch2c",
            "class_name": "Conv2D"
          },
          {
            "config": {
              "moving_variance_initializer": {
                "config": {
                  "dtype": "float32"
                },
                "class_name": "Ones"
              },
              "momentum": 0.99,
              "axis": [
                3
              ],
              "center": true,
              "moving_mean_initializer": {
                "config": {
                  "dtype": "float32"
                },
                "class_name": "Zeros"
              },
              "gamma_regularizer": null,
              "epsilon": 0.001,
              "beta_constraint": null,
              "scale": true,
              "beta_initializer": {
                "config": {
                  "dtype": "float32"
                },
                "class_name": "Zeros"
              },
              "gamma_constraint": null,
              "name": "bn5c_branch2c",
              "trainable": true,
              "beta_regularizer": null,
              "gamma_initializer": {
                "config": {
                  "dtype": "float32"
                },
                "class_name": "Ones"
              },
              "dtype": "float32"
            },
            "inbound_nodes": [
              [
                [
                  "res5c_branch2c",
                  0,
                  0,
                  {}
                ]
              ]
            ],
            "name": "bn5c_branch2c",
            "class_name": "BatchNormalization"
          },
          {
            "config": {
              "dtype": "float32",
              "name": "add_15",
              "trainable": true
            },
            "inbound_nodes": [
              [
                [
                  "bn5c_branch2c",
                  0,
                  0,
                  {}
                ],
                [
                  "activation_45",
                  0,
                  0,
                  {}
                ]
              ]
            ],
            "name": "add_15",
            "class_name": "Add"
          },
          {
            "config": {
              "dtype": "float32",
              "activation": "relu",
              "name": "activation_48",
              "trainable": true
            },
            "inbound_nodes": [
              [
                [
                  "add_15",
                  0,
                  0,
                  {}
                ]
              ]
            ],
            "name": "activation_48",
            "class_name": "Activation"
          },
          {
            "config": {
              "data_format": "channels_last",
              "dtype": "float32",
              "name": "avg_pool",
              "trainable": true
            },
            "inbound_nodes": [
              [
                [
                  "activation_48",
                  0,
                  0,
                  {}
                ]
              ]
            ],
            "name": "avg_pool",
            "class_name": "GlobalAveragePooling2D"
          },
          {
            "config": {
              "bias_constraint": null,
              "kernel_regularizer": null,
              "bias_initializer": {
                "config": {
                  "dtype": "float32"
                },
                "class_name": "Zeros"
              },
              "kernel_initializer": {
                "config": {
                  "mode": "fan_avg",
                  "distribution": "uniform",
                  "scale": 1.0,
                  "seed": null,
                  "dtype": "float32"
                },
                "class_name": "VarianceScaling"
              },
              "kernel_constraint": null,
              "bias_regularizer": null,
              "name": "fc1000",
              "trainable": true,
              "activity_regularizer": null,
              "units": 1000,
              "use_bias": true,
              "dtype": "float32"
            },
            "inbound_nodes": [
              [
                [
                  "avg_pool",
                  0,
                  0,
                  {}
                ]
              ]
            ],
            "name": "fc1000",
            "class_name": "Dense"
          }
        ],
        "input_layers": [
          [
            "input_1",
            0,
            0
          ]
        ]
      },
      "class_name": "Model"
    },
    "keras_version": "2.1.6-tf"
  }
}