{
  "format": "layers-model",
  "generatedBy": "keras v2.2.4",
  "convertedBy": "TensorFlow.js Converter v1.0.1",
  "modelTopology": {
    "keras_version": "2.2.4",
    "backend": "tensorflow",
    "model_config": {
      "class_name": "Model",
      "config": {
        "name": "resnet50",
        "layers": [
          {
            "name": "input_5",
            "class_name": "InputLayer",
            "config": {
              "batch_input_shape": [
                null,
                224,
                224,
                3
              ],
              "dtype": "float32",
              "sparse": false,
              "name": "input_5"
            },
            "inbound_nodes": []
          },
          {
            "name": "conv1_pad",
            "class_name": "ZeroPadding2D",
            "config": {
              "name": "conv1_pad",
              "trainable": true,
              "padding": [
                [
                  3,
                  3
                ],
                [
                  3,
                  3
                ]
              ],
              "data_format": "channels_last"
            },
            "inbound_nodes": [
              [
                [
                  "input_5",
                  0,
                  0,
                  {}
                ]
              ]
            ]
          },
          {
            "name": "conv1",
            "class_name": "Conv2D",
            "config": {
              "name": "conv1",
              "trainable": true,
              "filters": 64,
              "kernel_size": [
                7,
                7
              ],
              "strides": [
                2,
                2
              ],
              "padding": "valid",
              "data_format": "channels_last",
              "dilation_rate": [
                1,
                1
              ],
              "activation": "linear",
              "use_bias": true,
              "kernel_initializer": {
                "class_name": "VarianceScaling",
                "config": {
                  "scale": 2.0,
                  "mode": "fan_in",
                  "distribution": "normal",
                  "seed": null
                }
              },
              "bias_initializer": {
                "class_name": "Zeros",
                "config": {}
              },
              "kernel_regularizer": null,
              "bias_regularizer": null,
              "activity_regularizer": null,
              "kernel_constraint": null,
              "bias_constraint": null
            },
            "inbound_nodes": [
              [
                [
                  "conv1_pad",
                  0,
                  0,
                  {}
                ]
              ]
            ]
          },
          {
            "name": "bn_conv1",
            "class_name": "BatchNormalization",
            "config": {
              "name": "bn_conv1",
              "trainable": true,
              "axis": 3,
              "momentum": 0.99,
              "epsilon": 0.001,
              "center": true,
              "scale": true,
              "beta_initializer": {
                "class_name": "Zeros",
                "config": {}
              },
              "gamma_initializer": {
                "class_name": "Ones",
                "config": {}
              },
              "moving_mean_initializer": {
                "class_name": "Zeros",
                "config": {}
              },
              "moving_variance_initializer": {
                "class_name": "Ones",
                "config": {}
              },
              "beta_regularizer": null,
              "gamma_regularizer": null,
              "beta_constraint": null,
              "gamma_constraint": null
            },
            "inbound_nodes": [
              [
                [
                  "conv1",
                  0,
                  0,
                  {}
                ]
              ]
            ]
          },
          {
            "name": "activation_283",
            "class_name": "Activation",
            "config": {
              "name": "activation_283",
              "trainable": true,
              "activation": "relu"
            },
            "inbound_nodes": [
              [
                [
                  "bn_conv1",
                  0,
                  0,
                  {}
                ]
              ]
            ]
          },
          {
            "name": "pool1_pad",
            "class_name": "ZeroPadding2D",
            "config": {
              "name": "pool1_pad",
              "trainable": true,
              "padding": [
                [
                  1,
                  1
                ],
                [
                  1,
                  1
                ]
              ],
              "data_format": "channels_last"
            },
            "inbound_nodes": [
              [
                [
                  "activation_283",
                  0,
                  0,
                  {}
                ]
              ]
            ]
          },
          {
            "name": "max_pooling2d_5",
            "class_name": "MaxPooling2D",
            "config": {
              "name": "max_pooling2d_5",
              "trainable": true,
              "pool_size": [
                3,
                3
              ],
              "padding": "valid",
              "strides": [
                2,
                2
              ],
              "data_format": "channels_last"
            },
            "inbound_nodes": [
              [
                [
                  "pool1_pad",
                  0,
                  0,
                  {}
                ]
              ]
            ]
          },
          {
            "name": "res2a_branch2a",
            "class_name": "Conv2D",
            "config": {
              "name": "res2a_branch2a",
              "trainable": true,
              "filters": 64,
              "kernel_size": [
                1,
                1
              ],
              "strides": [
                1,
                1
              ],
              "padding": "valid",
              "data_format": "channels_last",
              "dilation_rate": [
                1,
                1
              ],
              "activation": "linear",
              "use_bias": true,
              "kernel_initializer": {
                "class_name": "VarianceScaling",
                "config": {
                  "scale": 2.0,
                  "mode": "fan_in",
                  "distribution": "normal",
                  "seed": null
                }
              },
              "bias_initializer": {
                "class_name": "Zeros",
                "config": {}
              },
              "kernel_regularizer": null,
              "bias_regularizer": null,
              "activity_regularizer": null,
              "kernel_constraint": null,
              "bias_constraint": null
            },
            "inbound_nodes": [
              [
                [
                  "max_pooling2d_5",
                  0,
                  0,
                  {}
                ]
              ]
            ]
          },
          {
            "name": "bn2a_branch2a",
            "class_name": "BatchNormalization",
            "config": {
              "name": "bn2a_branch2a",
              "trainable": true,
              "axis": 3,
              "momentum": 0.99,
              "epsilon": 0.001,
              "center": true,
              "scale": true,
              "beta_initializer": {
                "class_name": "Zeros",
                "config": {}
              },
              "gamma_initializer": {
                "class_name": "Ones",
                "config": {}
              },
              "moving_mean_initializer": {
                "class_name": "Zeros",
                "config": {}
              },
              "moving_variance_initializer": {
                "class_name": "Ones",
                "config": {}
              },
              "beta_regularizer": null,
              "gamma_regularizer": null,
              "beta_constraint": null,
              "gamma_constraint": null
            },
            "inbound_nodes": [
              [
                [
                  "res2a_branch2a",
                  0,
                  0,
                  {}
                ]
              ]
            ]
          },
          {
            "name": "activation_284",
            "class_name": "Activation",
            "config": {
              "name": "activation_284",
              "trainable": true,
              "activation": "relu"
            },
            "inbound_nodes": [
              [
                [
                  "bn2a_branch2a",
                  0,
                  0,
                  {}
                ]
              ]
            ]
          },
          {
            "name": "res2a_branch2b",
            "class_name": "Conv2D",
            "config": {
              "name": "res2a_branch2b",
              "trainable": true,
              "filters": 64,
              "kernel_size": [
                3,
                3
              ],
              "strides": [
                1,
                1
              ],
              "padding": "same",
              "data_format": "channels_last",
              "dilation_rate": [
                1,
                1
              ],
              "activation": "linear",
              "use_bias": true,
              "kernel_initializer": {
                "class_name": "VarianceScaling",
                "config": {
                  "scale": 2.0,
                  "mode": "fan_in",
                  "distribution": "normal",
                  "seed": null
                }
              },
              "bias_initializer": {
                "class_name": "Zeros",
                "config": {}
              },
              "kernel_regularizer": null,
              "bias_regularizer": null,
              "activity_regularizer": null,
              "kernel_constraint": null,
              "bias_constraint": null
            },
            "inbound_nodes": [
              [
                [
                  "activation_284",
                  0,
                  0,
                  {}
                ]
              ]
            ]
          },
          {
            "name": "bn2a_branch2b",
            "class_name": "BatchNormalization",
            "config": {
              "name": "bn2a_branch2b",
              "trainable": true,
              "axis": 3,
              "momentum": 0.99,
              "epsilon": 0.001,
              "center": true,
              "scale": true,
              "beta_initializer": {
                "class_name": "Zeros",
                "config": {}
              },
              "gamma_initializer": {
                "class_name": "Ones",
                "config": {}
              },
              "moving_mean_initializer": {
                "class_name": "Zeros",
                "config": {}
              },
              "moving_variance_initializer": {
                "class_name": "Ones",
                "config": {}
              },
              "beta_regularizer": null,
              "gamma_regularizer": null,
              "beta_constraint": null,
              "gamma_constraint": null
            },
            "inbound_nodes": [
              [
                [
                  "res2a_branch2b",
                  0,
                  0,
                  {}
                ]
              ]
            ]
          },
          {
            "name": "activation_285",
            "class_name": "Activation",
            "config": {
              "name": "activation_285",
              "trainable": true,
              "activation": "relu"
            },
            "inbound_nodes": [
              [
                [
                  "bn2a_branch2b",
                  0,
                  0,
                  {}
                ]
              ]
            ]
          },
          {
            "name": "res2a_branch2c",
            "class_name": "Conv2D",
            "config": {
              "name": "res2a_branch2c",
              "trainable": true,
              "filters": 256,
              "kernel_size": [
                1,
                1
              ],
              "strides": [
                1,
                1
              ],
              "padding": "valid",
              "data_format": "channels_last",
              "dilation_rate": [
                1,
                1
              ],
              "activation": "linear",
              "use_bias": true,
              "kernel_initializer": {
                "class_name": "VarianceScaling",
                "config": {
                  "scale": 2.0,
                  "mode": "fan_in",
                  "distribution": "normal",
                  "seed": null
                }
              },
              "bias_initializer": {
                "class_name": "Zeros",
                "config": {}
              },
              "kernel_regularizer": null,
              "bias_regularizer": null,
              "activity_regularizer": null,
              "kernel_constraint": null,
              "bias_constraint": null
            },
            "inbound_nodes": [
              [
                [
                  "activation_285",
                  0,
                  0,
                  {}
                ]
              ]
            ]
          },
          {
            "name": "res2a_branch1",
            "class_name": "Conv2D",
            "config": {
              "name": "res2a_branch1",
              "trainable": true,
              "filters": 256,
              "kernel_size": [
                1,
                1
              ],
              "strides": [
                1,
                1
              ],
              "padding": "valid",
              "data_format": "channels_last",
              "dilation_rate": [
                1,
                1
              ],
              "activation": "linear",
              "use_bias": true,
              "kernel_initializer": {
                "class_name": "VarianceScaling",
                "config": {
                  "scale": 2.0,
                  "mode": "fan_in",
                  "distribution": "normal",
                  "seed": null
                }
              },
              "bias_initializer": {
                "class_name": "Zeros",
                "config": {}
              },
              "kernel_regularizer": null,
              "bias_regularizer": null,
              "activity_regularizer": null,
              "kernel_constraint": null,
              "bias_constraint": null
            },
            "inbound_nodes": [
              [
                [
                  "max_pooling2d_5",
                  0,
                  0,
                  {}
                ]
              ]
            ]
          },
          {
            "name": "bn2a_branch2c",
            "class_name": "BatchNormalization",
            "config": {
              "name": "bn2a_branch2c",
              "trainable": true,
              "axis": 3,
              "momentum": 0.99,
              "epsilon": 0.001,
              "center": true,
              "scale": true,
              "beta_initializer": {
                "class_name": "Zeros",
                "config": {}
              },
              "gamma_initializer": {
                "class_name": "Ones",
                "config": {}
              },
              "moving_mean_initializer": {
                "class_name": "Zeros",
                "config": {}
              },
              "moving_variance_initializer": {
                "class_name": "Ones",
                "config": {}
              },
              "beta_regularizer": null,
              "gamma_regularizer": null,
              "beta_constraint": null,
              "gamma_constraint": null
            },
            "inbound_nodes": [
              [
                [
                  "res2a_branch2c",
                  0,
                  0,
                  {}
                ]
              ]
            ]
          },
          {
            "name": "bn2a_branch1",
            "class_name": "BatchNormalization",
            "config": {
              "name": "bn2a_branch1",
              "trainable": true,
              "axis": 3,
              "momentum": 0.99,
              "epsilon": 0.001,
              "center": true,
              "scale": true,
              "beta_initializer": {
                "class_name": "Zeros",
                "config": {}
              },
              "gamma_initializer": {
                "class_name": "Ones",
                "config": {}
              },
              "moving_mean_initializer": {
                "class_name": "Zeros",
                "config": {}
              },
              "moving_variance_initializer": {
                "class_name": "Ones",
                "config": {}
              },
              "beta_regularizer": null,
              "gamma_regularizer": null,
              "beta_constraint": null,
              "gamma_constraint": null
            },
            "inbound_nodes": [
              [
                [
                  "res2a_branch1",
                  0,
                  0,
                  {}
                ]
              ]
            ]
          },
          {
            "name": "add_5",
            "class_name": "Add",
            "config": {
              "name": "add_5",
              "trainable": true
            },
            "inbound_nodes": [
              [
                [
                  "bn2a_branch2c",
                  0,
                  0,
                  {}
                ],
                [
                  "bn2a_branch1",
                  0,
                  0,
                  {}
                ]
              ]
            ]
          },
          {
            "name": "activation_286",
            "class_name": "Activation",
            "config": {
              "name": "activation_286",
              "trainable": true,
              "activation": "relu"
            },
            "inbound_nodes": [
              [
                [
                  "add_5",
                  0,
                  0,
                  {}
                ]
              ]
            ]
          },
          {
            "name": "res2b_branch2a",
            "class_name": "Conv2D",
            "config": {
              "name": "res2b_branch2a",
              "trainable": true,
              "filters": 64,
              "kernel_size": [
                1,
                1
              ],
              "strides": [
                1,
                1
              ],
              "padding": "valid",
              "data_format": "channels_last",
              "dilation_rate": [
                1,
                1
              ],
              "activation": "linear",
              "use_bias": true,
              "kernel_initializer": {
                "class_name": "VarianceScaling",
                "config": {
                  "scale": 2.0,
                  "mode": "fan_in",
                  "distribution": "normal",
                  "seed": null
                }
              },
              "bias_initializer": {
                "class_name": "Zeros",
                "config": {}
              },
              "kernel_regularizer": null,
              "bias_regularizer": null,
              "activity_regularizer": null,
              "kernel_constraint": null,
              "bias_constraint": null
            },
            "inbound_nodes": [
              [
                [
                  "activation_286",
                  0,
                  0,
                  {}
                ]
              ]
            ]
          },
          {
            "name": "bn2b_branch2a",
            "class_name": "BatchNormalization",
            "config": {
              "name": "bn2b_branch2a",
              "trainable": true,
              "axis": 3,
              "momentum": 0.99,
              "epsilon": 0.001,
              "center": true,
              "scale": true,
              "beta_initializer": {
                "class_name": "Zeros",
                "config": {}
              },
              "gamma_initializer": {
                "class_name": "Ones",
                "config": {}
              },
              "moving_mean_initializer": {
                "class_name": "Zeros",
                "config": {}
              },
              "moving_variance_initializer": {
                "class_name": "Ones",
                "config": {}
              },
              "beta_regularizer": null,
              "gamma_regularizer": null,
              "beta_constraint": null,
              "gamma_constraint": null
            },
            "inbound_nodes": [
              [
                [
                  "res2b_branch2a",
                  0,
                  0,
                  {}
                ]
              ]
            ]
          },
          {
            "name": "activation_287",
            "class_name": "Activation",
            "config": {
              "name": "activation_287",
              "trainable": true,
              "activation": "relu"
            },
            "inbound_nodes": [
              [
                [
                  "bn2b_branch2a",
                  0,
                  0,
                  {}
                ]
              ]
            ]
          },
          {
            "name": "res2b_branch2b",
            "class_name": "Conv2D",
            "config": {
              "name": "res2b_branch2b",
              "trainable": true,
              "filters": 64,
              "kernel_size": [
                3,
                3
              ],
              "strides": [
                1,
                1
              ],
              "padding": "same",
              "data_format": "channels_last",
              "dilation_rate": [
                1,
                1
              ],
              "activation": "linear",
              "use_bias": true,
              "kernel_initializer": {
                "class_name": "VarianceScaling",
                "config": {
                  "scale": 2.0,
                  "mode": "fan_in",
                  "distribution": "normal",
                  "seed": null
                }
              },
              "bias_initializer": {
                "class_name": "Zeros",
                "config": {}
              },
              "kernel_regularizer": null,
              "bias_regularizer": null,
              "activity_regularizer": null,
              "kernel_constraint": null,
              "bias_constraint": null
            },
            "inbound_nodes": [
              [
                [
                  "activation_287",
                  0,
                  0,
                  {}
                ]
              ]
            ]
          },
          {
            "name": "bn2b_branch2b",
            "class_name": "BatchNormalization",
            "config": {
              "name": "bn2b_branch2b",
              "trainable": true,
              "axis": 3,
              "momentum": 0.99,
              "epsilon": 0.001,
              "center": true,
              "scale": true,
              "beta_initializer": {
                "class_name": "Zeros",
                "config": {}
              },
              "gamma_initializer": {
                "class_name": "Ones",
                "config": {}
              },
              "moving_mean_initializer": {
                "class_name": "Zeros",
                "config": {}
              },
              "moving_variance_initializer": {
                "class_name": "Ones",
                "config": {}
              },
              "beta_regularizer": null,
              "gamma_regularizer": null,
              "beta_constraint": null,
              "gamma_constraint": null
            },
            "inbound_nodes": [
              [
                [
                  "res2b_branch2b",
                  0,
                  0,
                  {}
                ]
              ]
            ]
          },
          {
            "name": "activation_288",
            "class_name": "Activation",
            "config": {
              "name": "activation_288",
              "trainable": true,
              "activation": "relu"
            },
            "inbound_nodes": [
              [
                [
                  "bn2b_branch2b",
                  0,
                  0,
                  {}
                ]
              ]
            ]
          },
          {
            "name": "res2b_branch2c",
            "class_name": "Conv2D",
            "config": {
              "name": "res2b_branch2c",
              "trainable": true,
              "filters": 256,
              "kernel_size": [
                1,
                1
              ],
              "strides": [
                1,
                1
              ],
              "padding": "valid",
              "data_format": "channels_last",
              "dilation_rate": [
                1,
                1
              ],
              "activation": "linear",
              "use_bias": true,
              "kernel_initializer": {
                "class_name": "VarianceScaling",
                "config": {
                  "scale": 2.0,
                  "mode": "fan_in",
                  "distribution": "normal",
                  "seed": null
                }
              },
              "bias_initializer": {
                "class_name": "Zeros",
                "config": {}
              },
              "kernel_regularizer": null,
              "bias_regularizer": null,
              "activity_regularizer": null,
              "kernel_constraint": null,
              "bias_constraint": null
            },
            "inbound_nodes": [
              [
                [
                  "activation_288",
                  0,
                  0,
                  {}
                ]
              ]
            ]
          },
          {
            "name": "bn2b_branch2c",
            "class_name": "BatchNormalization",
            "config": {
              "name": "bn2b_branch2c",
              "trainable": true,
              "axis": 3,
              "momentum": 0.99,
              "epsilon": 0.001,
              "center": true,
              "scale": true,
              "beta_initializer": {
                "class_name": "Zeros",
                "config": {}
              },
              "gamma_initializer": {
                "class_name": "Ones",
                "config": {}
              },
              "moving_mean_initializer": {
                "class_name": "Zeros",
                "config": {}
              },
              "moving_variance_initializer": {
                "class_name": "Ones",
                "config": {}
              },
              "beta_regularizer": null,
              "gamma_regularizer": null,
              "beta_constraint": null,
              "gamma_constraint": null
            },
            "inbound_nodes": [
              [
                [
                  "res2b_branch2c",
                  0,
                  0,
                  {}
                ]
              ]
            ]
          },
          {
            "name": "add_6",
            "class_name": "Add",
            "config": {
              "name": "add_6",
              "trainable": true
            },
            "inbound_nodes": [
              [
                [
                  "bn2b_branch2c",
                  0,
                  0,
                  {}
                ],
                [
                  "activation_286",
                  0,
                  0,
                  {}
                ]
              ]
            ]
          },
          {
            "name": "activation_289",
            "class_name": "Activation",
            "config": {
              "name": "activation_289",
              "trainable": true,
              "activation": "relu"
            },
            "inbound_nodes": [
              [
                [
                  "add_6",
                  0,
                  0,
                  {}
                ]
              ]
            ]
          },
          {
            "name": "res2c_branch2a",
            "class_name": "Conv2D",
            "config": {
              "name": "res2c_branch2a",
              "trainable": true,
              "filters": 64,
              "kernel_size": [
                1,
                1
              ],
              "strides": [
                1,
                1
              ],
              "padding": "valid",
              "data_format": "channels_last",
              "dilation_rate": [
                1,
                1
              ],
              "activation": "linear",
              "use_bias": true,
              "kernel_initializer": {
                "class_name": "VarianceScaling",
                "config": {
                  "scale": 2.0,
                  "mode": "fan_in",
                  "distribution": "normal",
                  "seed": null
                }
              },
              "bias_initializer": {
                "class_name": "Zeros",
                "config": {}
              },
              "kernel_regularizer": null,
              "bias_regularizer": null,
              "activity_regularizer": null,
              "kernel_constraint": null,
              "bias_constraint": null
            },
            "inbound_nodes": [
              [
                [
                  "activation_289",
                  0,
                  0,
                  {}
                ]
              ]
            ]
          },
          {
            "name": "bn2c_branch2a",
            "class_name": "BatchNormalization",
            "config": {
              "name": "bn2c_branch2a",
              "trainable": true,
              "axis": 3,
              "momentum": 0.99,
              "epsilon": 0.001,
              "center": true,
              "scale": true,
              "beta_initializer": {
                "class_name": "Zeros",
                "config": {}
              },
              "gamma_initializer": {
                "class_name": "Ones",
                "config": {}
              },
              "moving_mean_initializer": {
                "class_name": "Zeros",
                "config": {}
              },
              "moving_variance_initializer": {
                "class_name": "Ones",
                "config": {}
              },
              "beta_regularizer": null,
              "gamma_regularizer": null,
              "beta_constraint": null,
              "gamma_constraint": null
            },
            "inbound_nodes": [
              [
                [
                  "res2c_branch2a",
                  0,
                  0,
                  {}
                ]
              ]
            ]
          },
          {
            "name": "activation_290",
            "class_name": "Activation",
            "config": {
              "name": "activation_290",
              "trainable": true,
              "activation": "relu"
            },
            "inbound_nodes": [
              [
                [
                  "bn2c_branch2a",
                  0,
                  0,
                  {}
                ]
              ]
            ]
          },
          {
            "name": "res2c_branch2b",
            "class_name": "Conv2D",
            "config": {
              "name": "res2c_branch2b",
              "trainable": true,
              "filters": 64,
              "kernel_size": [
                3,
                3
              ],
              "strides": [
                1,
                1
              ],
              "padding": "same",
              "data_format": "channels_last",
              "dilation_rate": [
                1,
                1
              ],
              "activation": "linear",
              "use_bias": true,
              "kernel_initializer": {
                "class_name": "VarianceScaling",
                "config": {
                  "scale": 2.0,
                  "mode": "fan_in",
                  "distribution": "normal",
                  "seed": null
                }
              },
              "bias_initializer": {
                "class_name": "Zeros",
                "config": {}
              },
              "kernel_regularizer": null,
              "bias_regularizer": null,
              "activity_regularizer": null,
              "kernel_constraint": null,
              "bias_constraint": null
            },
            "inbound_nodes": [
              [
                [
                  "activation_290",
                  0,
                  0,
                  {}
                ]
              ]
            ]
          },
          {
            "name": "bn2c_branch2b",
            "class_name": "BatchNormalization",
            "config": {
              "name": "bn2c_branch2b",
              "trainable": true,
              "axis": 3,
              "momentum": 0.99,
              "epsilon": 0.001,
              "center": true,
              "scale": true,
              "beta_initializer": {
                "class_name": "Zeros",
                "config": {}
              },
              "gamma_initializer": {
                "class_name": "Ones",
                "config": {}
              },
              "moving_mean_initializer": {
                "class_name": "Zeros",
                "config": {}
              },
              "moving_variance_initializer": {
                "class_name": "Ones",
                "config": {}
              },
              "beta_regularizer": null,
              "gamma_regularizer": null,
              "beta_constraint": null,
              "gamma_constraint": null
            },
            "inbound_nodes": [
              [
                [
                  "res2c_branch2b",
                  0,
                  0,
                  {}
                ]
              ]
            ]
          },
          {
            "name": "activation_291",
            "class_name": "Activation",
            "config": {
              "name": "activation_291",
              "trainable": true,
              "activation": "relu"
            },
            "inbound_nodes": [
              [
                [
                  "bn2c_branch2b",
                  0,
                  0,
                  {}
                ]
              ]
            ]
          },
          {
            "name": "res2c_branch2c",
            "class_name": "Conv2D",
            "config": {
              "name": "res2c_branch2c",
              "trainable": true,
              "filters": 256,
              "kernel_size": [
                1,
                1
              ],
              "strides": [
                1,
                1
              ],
              "padding": "valid",
              "data_format": "channels_last",
              "dilation_rate": [
                1,
                1
              ],
              "activation": "linear",
              "use_bias": true,
              "kernel_initializer": {
                "class_name": "VarianceScaling",
                "config": {
                  "scale": 2.0,
                  "mode": "fan_in",
                  "distribution": "normal",
                  "seed": null
                }
              },
              "bias_initializer": {
                "class_name": "Zeros",
                "config": {}
              },
              "kernel_regularizer": null,
              "bias_regularizer": null,
              "activity_regularizer": null,
              "kernel_constraint": null,
              "bias_constraint": null
            },
            "inbound_nodes": [
              [
                [
                  "activation_291",
                  0,
                  0,
                  {}
                ]
              ]
            ]
          },
          {
            "name": "bn2c_branch2c",
            "class_name": "BatchNormalization",
            "config": {
              "name": "bn2c_branch2c",
              "trainable": true,
              "axis": 3,
              "momentum": 0.99,
              "epsilon": 0.001,
              "center": true,
              "scale": true,
              "beta_initializer": {
                "class_name": "Zeros",
                "config": {}
              },
              "gamma_initializer": {
                "class_name": "Ones",
                "config": {}
              },
              "moving_mean_initializer": {
                "class_name": "Zeros",
                "config": {}
              },
              "moving_variance_initializer": {
                "class_name": "Ones",
                "config": {}
              },
              "beta_regularizer": null,
              "gamma_regularizer": null,
              "beta_constraint": null,
              "gamma_constraint": null
            },
            "inbound_nodes": [
              [
                [
                  "res2c_branch2c",
                  0,
                  0,
                  {}
                ]
              ]
            ]
          },
          {
            "name": "add_7",
            "class_name": "Add",
            "config": {
              "name": "add_7",
              "trainable": true
            },
            "inbound_nodes": [
              [
                [
                  "bn2c_branch2c",
                  0,
                  0,
                  {}
                ],
                [
                  "activation_289",
                  0,
                  0,
                  {}
                ]
              ]
            ]
          },
          {
            "name": "activation_292",
            "class_name": "Activation",
            "config": {
              "name": "activation_292",
              "trainable": true,
              "activation": "relu"
            },
            "inbound_nodes": [
              [
                [
                  "add_7",
                  0,
                  0,
                  {}
                ]
              ]
            ]
          },
          {
            "name": "res3a_branch2a",
            "class_name": "Conv2D",
            "config": {
              "name": "res3a_branch2a",
              "trainable": true,
              "filters": 128,
              "kernel_size": [
                1,
                1
              ],
              "strides": [
                2,
                2
              ],
              "padding": "valid",
              "data_format": "channels_last",
              "dilation_rate": [
                1,
                1
              ],
              "activation": "linear",
              "use_bias": true,
              "kernel_initializer": {
                "class_name": "VarianceScaling",
                "config": {
                  "scale": 2.0,
                  "mode": "fan_in",
                  "distribution": "normal",
                  "seed": null
                }
              },
              "bias_initializer": {
                "class_name": "Zeros",
                "config": {}
              },
              "kernel_regularizer": null,
              "bias_regularizer": null,
              "activity_regularizer": null,
              "kernel_constraint": null,
              "bias_constraint": null
            },
            "inbound_nodes": [
              [
                [
                  "activation_292",
                  0,
                  0,
                  {}
                ]
              ]
            ]
          },
          {
            "name": "bn3a_branch2a",
            "class_name": "BatchNormalization",
            "config": {
              "name": "bn3a_branch2a",
              "trainable": true,
              "axis": 3,
              "momentum": 0.99,
              "epsilon": 0.001,
              "center": true,
              "scale": true,
              "beta_initializer": {
                "class_name": "Zeros",
                "config": {}
              },
              "gamma_initializer": {
                "class_name": "Ones",
                "config": {}
              },
              "moving_mean_initializer": {
                "class_name": "Zeros",
                "config": {}
              },
              "moving_variance_initializer": {
                "class_name": "Ones",
                "config": {}
              },
              "beta_regularizer": null,
              "gamma_regularizer": null,
              "beta_constraint": null,
              "gamma_constraint": null
            },
            "inbound_nodes": [
              [
                [
                  "res3a_branch2a",
                  0,
                  0,
                  {}
                ]
              ]
            ]
          },
          {
            "name": "activation_293",
            "class_name": "Activation",
            "config": {
              "name": "activation_293",
              "trainable": true,
              "activation": "relu"
            },
            "inbound_nodes": [
              [
                [
                  "bn3a_branch2a",
                  0,
                  0,
                  {}
                ]
              ]
            ]
          },
          {
            "name": "res3a_branch2b",
            "class_name": "Conv2D",
            "config": {
              "name": "res3a_branch2b",
              "trainable": true,
              "filters": 128,
              "kernel_size": [
                3,
                3
              ],
              "strides": [
                1,
                1
              ],
              "padding": "same",
              "data_format": "channels_last",
              "dilation_rate": [
                1,
                1
              ],
              "activation": "linear",
              "use_bias": true,
              "kernel_initializer": {
                "class_name": "VarianceScaling",
                "config": {
                  "scale": 2.0,
                  "mode": "fan_in",
                  "distribution": "normal",
                  "seed": null
                }
              },
              "bias_initializer": {
                "class_name": "Zeros",
                "config": {}
              },
              "kernel_regularizer": null,
              "bias_regularizer": null,
              "activity_regularizer": null,
              "kernel_constraint": null,
              "bias_constraint": null
            },
            "inbound_nodes": [
              [
                [
                  "activation_293",
                  0,
                  0,
                  {}
                ]
              ]
            ]
          },
          {
            "name": "bn3a_branch2b",
            "class_name": "BatchNormalization",
            "config": {
              "name": "bn3a_branch2b",
              "trainable": true,
              "axis": 3,
              "momentum": 0.99,
              "epsilon": 0.001,
              "center": true,
              "scale": true,
              "beta_initializer": {
                "class_name": "Zeros",
                "config": {}
              },
              "gamma_initializer": {
                "class_name": "Ones",
                "config": {}
              },
              "moving_mean_initializer": {
                "class_name": "Zeros",
                "config": {}
              },
              "moving_variance_initializer": {
                "class_name": "Ones",
                "config": {}
              },
              "beta_regularizer": null,
              "gamma_regularizer": null,
              "beta_constraint": null,
              "gamma_constraint": null
            },
            "inbound_nodes": [
              [
                [
                  "res3a_branch2b",
                  0,
                  0,
                  {}
                ]
              ]
            ]
          },
          {
            "name": "activation_294",
            "class_name": "Activation",
            "config": {
              "name": "activation_294",
              "trainable": true,
              "activation": "relu"
            },
            "inbound_nodes": [
              [
                [
                  "bn3a_branch2b",
                  0,
                  0,
                  {}
                ]
              ]
            ]
          },
          {
            "name": "res3a_branch2c",
            "class_name": "Conv2D",
            "config": {
              "name": "res3a_branch2c",
              "trainable": true,
              "filters": 512,
              "kernel_size": [
                1,
                1
              ],
              "strides": [
                1,
                1
              ],
              "padding": "valid",
              "data_format": "channels_last",
              "dilation_rate": [
                1,
                1
              ],
              "activation": "linear",
              "use_bias": true,
              "kernel_initializer": {
                "class_name": "VarianceScaling",
                "config": {
                  "scale": 2.0,
                  "mode": "fan_in",
                  "distribution": "normal",
                  "seed": null
                }
              },
              "bias_initializer": {
                "class_name": "Zeros",
                "config": {}
              },
              "kernel_regularizer": null,
              "bias_regularizer": null,
              "activity_regularizer": null,
              "kernel_constraint": null,
              "bias_constraint": null
            },
            "inbound_nodes": [
              [
                [
                  "activation_294",
                  0,
                  0,
                  {}
                ]
              ]
            ]
          },
          {
            "name": "res3a_branch1",
            "class_name": "Conv2D",
            "config": {
              "name": "res3a_branch1",
              "trainable": true,
              "filters": 512,
              "kernel_size": [
                1,
                1
              ],
              "strides": [
                2,
                2
              ],
              "padding": "valid",
              "data_format": "channels_last",
              "dilation_rate": [
                1,
                1
              ],
              "activation": "linear",
              "use_bias": true,
              "kernel_initializer": {
                "class_name": "VarianceScaling",
                "config": {
                  "scale": 2.0,
                  "mode": "fan_in",
                  "distribution": "normal",
                  "seed": null
                }
              },
              "bias_initializer": {
                "class_name": "Zeros",
                "config": {}
              },
              "kernel_regularizer": null,
              "bias_regularizer": null,
              "activity_regularizer": null,
              "kernel_constraint": null,
              "bias_constraint": null
            },
            "inbound_nodes": [
              [
                [
                  "activation_292",
                  0,
                  0,
                  {}
                ]
              ]
            ]
          },
          {
            "name": "bn3a_branch2c",
            "class_name": "BatchNormalization",
            "config": {
              "name": "bn3a_branch2c",
              "trainable": true,
              "axis": 3,
              "momentum": 0.99,
              "epsilon": 0.001,
              "center": true,
              "scale": true,
              "beta_initializer": {
                "class_name": "Zeros",
                "config": {}
              },
              "gamma_initializer": {
                "class_name": "Ones",
                "config": {}
              },
              "moving_mean_initializer": {
                "class_name": "Zeros",
                "config": {}
              },
              "moving_variance_initializer": {
                "class_name": "Ones",
                "config": {}
              },
              "beta_regularizer": null,
              "gamma_regularizer": null,
              "beta_constraint": null,
              "gamma_constraint": null
            },
            "inbound_nodes": [
              [
                [
                  "res3a_branch2c",
                  0,
                  0,
                  {}
                ]
              ]
            ]
          },
          {
            "name": "bn3a_branch1",
            "class_name": "BatchNormalization",
            "config": {
              "name": "bn3a_branch1",
              "trainable": true,
              "axis": 3,
              "momentum": 0.99,
              "epsilon": 0.001,
              "center": true,
              "scale": true,
              "beta_initializer": {
                "class_name": "Zeros",
                "config": {}
              },
              "gamma_initializer": {
                "class_name": "Ones",
                "config": {}
              },
              "moving_mean_initializer": {
                "class_name": "Zeros",
                "config": {}
              },
              "moving_variance_initializer": {
                "class_name": "Ones",
                "config": {}
              },
              "beta_regularizer": null,
              "gamma_regularizer": null,
              "beta_constraint": null,
              "gamma_constraint": null
            },
            "inbound_nodes": [
              [
                [
                  "res3a_branch1",
                  0,
                  0,
                  {}
                ]
              ]
            ]
          },
          {
            "name": "add_8",
            "class_name": "Add",
            "config": {
              "name": "add_8",
              "trainable": true
            },
            "inbound_nodes": [
              [
                [
                  "bn3a_branch2c",
                  0,
                  0,
                  {}
                ],
                [
                  "bn3a_branch1",
                  0,
                  0,
                  {}
                ]
              ]
            ]
          },
          {
            "name": "activation_295",
            "class_name": "Activation",
            "config": {
              "name": "activation_295",
              "trainable": true,
              "activation": "relu"
            },
            "inbound_nodes": [
              [
                [
                  "add_8",
                  0,
                  0,
                  {}
                ]
              ]
            ]
          },
          {
            "name": "res3b_branch2a",
            "class_name": "Conv2D",
            "config": {
              "name": "res3b_branch2a",
              "trainable": true,
              "filters": 128,
              "kernel_size": [
                1,
                1
              ],
              "strides": [
                1,
                1
              ],
              "padding": "valid",
              "data_format": "channels_last",
              "dilation_rate": [
                1,
                1
              ],
              "activation": "linear",
              "use_bias": true,
              "kernel_initializer": {
                "class_name": "VarianceScaling",
                "config": {
                  "scale": 2.0,
                  "mode": "fan_in",
                  "distribution": "normal",
                  "seed": null
                }
              },
              "bias_initializer": {
                "class_name": "Zeros",
                "config": {}
              },
              "kernel_regularizer": null,
              "bias_regularizer": null,
              "activity_regularizer": null,
              "kernel_constraint": null,
              "bias_constraint": null
            },
            "inbound_nodes": [
              [
                [
                  "activation_295",
                  0,
                  0,
                  {}
                ]
              ]
            ]
          },
          {
            "name": "bn3b_branch2a",
            "class_name": "BatchNormalization",
            "config": {
              "name": "bn3b_branch2a",
              "trainable": true,
              "axis": 3,
              "momentum": 0.99,
              "epsilon": 0.001,
              "center": true,
              "scale": true,
              "beta_initializer": {
                "class_name": "Zeros",
                "config": {}
              },
              "gamma_initializer": {
                "class_name": "Ones",
                "config": {}
              },
              "moving_mean_initializer": {
                "class_name": "Zeros",
                "config": {}
              },
              "moving_variance_initializer": {
                "class_name": "Ones",
                "config": {}
              },
              "beta_regularizer": null,
              "gamma_regularizer": null,
              "beta_constraint": null,
              "gamma_constraint": null
            },
            "inbound_nodes": [
              [
                [
                  "res3b_branch2a",
                  0,
                  0,
                  {}
                ]
              ]
            ]
          },
          {
            "name": "activation_296",
            "class_name": "Activation",
            "config": {
              "name": "activation_296",
              "trainable": true,
              "activation": "relu"
            },
            "inbound_nodes": [
              [
                [
                  "bn3b_branch2a",
                  0,
                  0,
                  {}
                ]
              ]
            ]
          },
          {
            "name": "res3b_branch2b",
            "class_name": "Conv2D",
            "config": {
              "name": "res3b_branch2b",
              "trainable": true,
              "filters": 128,
              "kernel_size": [
                3,
                3
              ],
              "strides": [
                1,
                1
              ],
              "padding": "same",
              "data_format": "channels_last",
              "dilation_rate": [
                1,
                1
              ],
              "activation": "linear",
              "use_bias": true,
              "kernel_initializer": {
                "class_name": "VarianceScaling",
                "config": {
                  "scale": 2.0,
                  "mode": "fan_in",
                  "distribution": "normal",
                  "seed": null
                }
              },
              "bias_initializer": {
                "class_name": "Zeros",
                "config": {}
              },
              "kernel_regularizer": null,
              "bias_regularizer": null,
              "activity_regularizer": null,
              "kernel_constraint": null,
              "bias_constraint": null
            },
            "inbound_nodes": [
              [
                [
                  "activation_296",
                  0,
                  0,
                  {}
                ]
              ]
            ]
          },
          {
            "name": "bn3b_branch2b",
            "class_name": "BatchNormalization",
            "config": {
              "name": "bn3b_branch2b",
              "trainable": true,
              "axis": 3,
              "momentum": 0.99,
              "epsilon": 0.001,
              "center": true,
              "scale": true,
              "beta_initializer": {
                "class_name": "Zeros",
                "config": {}
              },
              "gamma_initializer": {
                "class_name": "Ones",
                "config": {}
              },
              "moving_mean_initializer": {
                "class_name": "Zeros",
                "config": {}
              },
              "moving_variance_initializer": {
                "class_name": "Ones",
                "config": {}
              },
              "beta_regularizer": null,
              "gamma_regularizer": null,
              "beta_constraint": null,
              "gamma_constraint": null
            },
            "inbound_nodes": [
              [
                [
                  "res3b_branch2b",
                  0,
                  0,
                  {}
                ]
              ]
            ]
          },
          {
            "name": "activation_297",
            "class_name": "Activation",
            "config": {
              "name": "activation_297",
              "trainable": true,
              "activation": "relu"
            },
            "inbound_nodes": [
              [
                [
                  "bn3b_branch2b",
                  0,
                  0,
                  {}
                ]
              ]
            ]
          },
          {
            "name": "res3b_branch2c",
            "class_name": "Conv2D",
            "config": {
              "name": "res3b_branch2c",
              "trainable": true,
              "filters": 512,
              "kernel_size": [
                1,
                1
              ],
              "strides": [
                1,
                1
              ],
              "padding": "valid",
              "data_format": "channels_last",
              "dilation_rate": [
                1,
                1
              ],
              "activation": "linear",
              "use_bias": true,
              "kernel_initializer": {
                "class_name": "VarianceScaling",
                "config": {
                  "scale": 2.0,
                  "mode": "fan_in",
                  "distribution": "normal",
                  "seed": null
                }
              },
              "bias_initializer": {
                "class_name": "Zeros",
                "config": {}
              },
              "kernel_regularizer": null,
              "bias_regularizer": null,
              "activity_regularizer": null,
              "kernel_constraint": null,
              "bias_constraint": null
            },
            "inbound_nodes": [
              [
                [
                  "activation_297",
                  0,
                  0,
                  {}
                ]
              ]
            ]
          },
          {
            "name": "bn3b_branch2c",
            "class_name": "BatchNormalization",
            "config": {
              "name": "bn3b_branch2c",
              "trainable": true,
              "axis": 3,
              "momentum": 0.99,
              "epsilon": 0.001,
              "center": true,
              "scale": true,
              "beta_initializer": {
                "class_name": "Zeros",
                "config": {}
              },
              "gamma_initializer": {
                "class_name": "Ones",
                "config": {}
              },
              "moving_mean_initializer": {
                "class_name": "Zeros",
                "config": {}
              },
              "moving_variance_initializer": {
                "class_name": "Ones",
                "config": {}
              },
              "beta_regularizer": null,
              "gamma_regularizer": null,
              "beta_constraint": null,
              "gamma_constraint": null
            },
            "inbound_nodes": [
              [
                [
                  "res3b_branch2c",
                  0,
                  0,
                  {}
                ]
              ]
            ]
          },
          {
            "name": "add_9",
            "class_name": "Add",
            "config": {
              "name": "add_9",
              "trainable": true
            },
            "inbound_nodes": [
              [
                [
                  "bn3b_branch2c",
                  0,
                  0,
                  {}
                ],
                [
                  "activation_295",
                  0,
                  0,
                  {}
                ]
              ]
            ]
          },
          {
            "name": "activation_298",
            "class_name": "Activation",
            "config": {
              "name": "activation_298",
              "trainable": true,
              "activation": "relu"
            },
            "inbound_nodes": [
              [
                [
                  "add_9",
                  0,
                  0,
                  {}
                ]
              ]
            ]
          },
          {
            "name": "res3c_branch2a",
            "class_name": "Conv2D",
            "config": {
              "name": "res3c_branch2a",
              "trainable": true,
              "filters": 128,
              "kernel_size": [
                1,
                1
              ],
              "strides": [
                1,
                1
              ],
              "padding": "valid",
              "data_format": "channels_last",
              "dilation_rate": [
                1,
                1
              ],
              "activation": "linear",
              "use_bias": true,
              "kernel_initializer": {
                "class_name": "VarianceScaling",
                "config": {
                  "scale": 2.0,
                  "mode": "fan_in",
                  "distribution": "normal",
                  "seed": null
                }
              },
              "bias_initializer": {
                "class_name": "Zeros",
                "config": {}
              },
              "kernel_regularizer": null,
              "bias_regularizer": null,
              "activity_regularizer": null,
              "kernel_constraint": null,
              "bias_constraint": null
            },
            "inbound_nodes": [
              [
                [
                  "activation_298",
                  0,
                  0,
                  {}
                ]
              ]
            ]
          },
          {
            "name": "bn3c_branch2a",
            "class_name": "BatchNormalization",
            "config": {
              "name": "bn3c_branch2a",
              "trainable": true,
              "axis": 3,
              "momentum": 0.99,
              "epsilon": 0.001,
              "center": true,
              "scale": true,
              "beta_initializer": {
                "class_name": "Zeros",
                "config": {}
              },
              "gamma_initializer": {
                "class_name": "Ones",
                "config": {}
              },
              "moving_mean_initializer": {
                "class_name": "Zeros",
                "config": {}
              },
              "moving_variance_initializer": {
                "class_name": "Ones",
                "config": {}
              },
              "beta_regularizer": null,
              "gamma_regularizer": null,
              "beta_constraint": null,
              "gamma_constraint": null
            },
            "inbound_nodes": [
              [
                [
                  "res3c_branch2a",
                  0,
                  0,
                  {}
                ]
              ]
            ]
          },
          {
            "name": "activation_299",
            "class_name": "Activation",
            "config": {
              "name": "activation_299",
              "trainable": true,
              "activation": "relu"
            },
            "inbound_nodes": [
              [
                [
                  "bn3c_branch2a",
                  0,
                  0,
                  {}
                ]
              ]
            ]
          },
          {
            "name": "res3c_branch2b",
            "class_name": "Conv2D",
            "config": {
              "name": "res3c_branch2b",
              "trainable": true,
              "filters": 128,
              "kernel_size": [
                3,
                3
              ],
              "strides": [
                1,
                1
              ],
              "padding": "same",
              "data_format": "channels_last",
              "dilation_rate": [
                1,
                1
              ],
              "activation": "linear",
              "use_bias": true,
              "kernel_initializer": {
                "class_name": "VarianceScaling",
                "config": {
                  "scale": 2.0,
                  "mode": "fan_in",
                  "distribution": "normal",
                  "seed": null
                }
              },
              "bias_initializer": {
                "class_name": "Zeros",
                "config": {}
              },
              "kernel_regularizer": null,
              "bias_regularizer": null,
              "activity_regularizer": null,
              "kernel_constraint": null,
              "bias_constraint": null
            },
            "inbound_nodes": [
              [
                [
                  "activation_299",
                  0,
                  0,
                  {}
                ]
              ]
            ]
          },
          {
            "name": "bn3c_branch2b",
            "class_name": "BatchNormalization",
            "config": {
              "name": "bn3c_branch2b",
              "trainable": true,
              "axis": 3,
              "momentum": 0.99,
              "epsilon": 0.001,
              "center": true,
              "scale": true,
              "beta_initializer": {
                "class_name": "Zeros",
                "config": {}
              },
              "gamma_initializer": {
                "class_name": "Ones",
                "config": {}
              },
              "moving_mean_initializer": {
                "class_name": "Zeros",
                "config": {}
              },
              "moving_variance_initializer": {
                "class_name": "Ones",
                "config": {}
              },
              "beta_regularizer": null,
              "gamma_regularizer": null,
              "beta_constraint": null,
              "gamma_constraint": null
            },
            "inbound_nodes": [
              [
                [
                  "res3c_branch2b",
                  0,
                  0,
                  {}
                ]
              ]
            ]
          },
          {
            "name": "activation_300",
            "class_name": "Activation",
            "config": {
              "name": "activation_300",
              "trainable": true,
              "activation": "relu"
            },
            "inbound_nodes": [
              [
                [
                  "bn3c_branch2b",
                  0,
                  0,
                  {}
                ]
              ]
            ]
          },
          {
            "name": "res3c_branch2c",
            "class_name": "Conv2D",
            "config": {
              "name": "res3c_branch2c",
              "trainable": true,
              "filters": 512,
              "kernel_size": [
                1,
                1
              ],
              "strides": [
                1,
                1
              ],
              "padding": "valid",
              "data_format": "channels_last",
              "dilation_rate": [
                1,
                1
              ],
              "activation": "linear",
              "use_bias": true,
              "kernel_initializer": {
                "class_name": "VarianceScaling",
                "config": {
                  "scale": 2.0,
                  "mode": "fan_in",
                  "distribution": "normal",
                  "seed": null
                }
              },
              "bias_initializer": {
                "class_name": "Zeros",
                "config": {}
              },
              "kernel_regularizer": null,
              "bias_regularizer": null,
              "activity_regularizer": null,
              "kernel_constraint": null,
              "bias_constraint": null
            },
            "inbound_nodes": [
              [
                [
                  "activation_300",
                  0,
                  0,
                  {}
                ]
              ]
            ]
          },
          {
            "name": "bn3c_branch2c",
            "class_name": "BatchNormalization",
            "config": {
              "name": "bn3c_branch2c",
              "trainable": true,
              "axis": 3,
              "momentum": 0.99,
              "epsilon": 0.001,
              "center": true,
              "scale": true,
              "beta_initializer": {
                "class_name": "Zeros",
                "config": {}
              },
              "gamma_initializer": {
                "class_name": "Ones",
                "config": {}
              },
              "moving_mean_initializer": {
                "class_name": "Zeros",
                "config": {}
              },
              "moving_variance_initializer": {
                "class_name": "Ones",
                "config": {}
              },
              "beta_regularizer": null,
              "gamma_regularizer": null,
              "beta_constraint": null,
              "gamma_constraint": null
            },
            "inbound_nodes": [
              [
                [
                  "res3c_branch2c",
                  0,
                  0,
                  {}
                ]
              ]
            ]
          },
          {
            "name": "add_10",
            "class_name": "Add",
            "config": {
              "name": "add_10",
              "trainable": true
            },
            "inbound_nodes": [
              [
                [
                  "bn3c_branch2c",
                  0,
                  0,
                  {}
                ],
                [
                  "activation_298",
                  0,
                  0,
                  {}
                ]
              ]
            ]
          },
          {
            "name": "activation_301",
            "class_name": "Activation",
            "config": {
              "name": "activation_301",
              "trainable": true,
              "activation": "relu"
            },
            "inbound_nodes": [
              [
                [
                  "add_10",
                  0,
                  0,
                  {}
                ]
              ]
            ]
          },
          {
            "name": "res3d_branch2a",
            "class_name": "Conv2D",
            "config": {
              "name": "res3d_branch2a",
              "trainable": true,
              "filters": 128,
              "kernel_size": [
                1,
                1
              ],
              "strides": [
                1,
                1
              ],
              "padding": "valid",
              "data_format": "channels_last",
              "dilation_rate": [
                1,
                1
              ],
              "activation": "linear",
              "use_bias": true,
              "kernel_initializer": {
                "class_name": "VarianceScaling",
                "config": {
                  "scale": 2.0,
                  "mode": "fan_in",
                  "distribution": "normal",
                  "seed": null
                }
              },
              "bias_initializer": {
                "class_name": "Zeros",
                "config": {}
              },
              "kernel_regularizer": null,
              "bias_regularizer": null,
              "activity_regularizer": null,
              "kernel_constraint": null,
              "bias_constraint": null
            },
            "inbound_nodes": [
              [
                [
                  "activation_301",
                  0,
                  0,
                  {}
                ]
              ]
            ]
          },
          {
            "name": "bn3d_branch2a",
            "class_name": "BatchNormalization",
            "config": {
              "name": "bn3d_branch2a",
              "trainable": true,
              "axis": 3,
              "momentum": 0.99,
              "epsilon": 0.001,
              "center": true,
              "scale": true,
              "beta_initializer": {
                "class_name": "Zeros",
                "config": {}
              },
              "gamma_initializer": {
                "class_name": "Ones",
                "config": {}
              },
              "moving_mean_initializer": {
                "class_name": "Zeros",
                "config": {}
              },
              "moving_variance_initializer": {
                "class_name": "Ones",
                "config": {}
              },
              "beta_regularizer": null,
              "gamma_regularizer": null,
              "beta_constraint": null,
              "gamma_constraint": null
            },
            "inbound_nodes": [
              [
                [
                  "res3d_branch2a",
                  0,
                  0,
                  {}
                ]
              ]
            ]
          },
          {
            "name": "activation_302",
            "class_name": "Activation",
            "config": {
              "name": "activation_302",
              "trainable": true,
              "activation": "relu"
            },
            "inbound_nodes": [
              [
                [
                  "bn3d_branch2a",
                  0,
                  0,
                  {}
                ]
              ]
            ]
          },
          {
            "name": "res3d_branch2b",
            "class_name": "Conv2D",
            "config": {
              "name": "res3d_branch2b",
              "trainable": true,
              "filters": 128,
              "kernel_size": [
                3,
                3
              ],
              "strides": [
                1,
                1
              ],
              "padding": "same",
              "data_format": "channels_last",
              "dilation_rate": [
                1,
                1
              ],
              "activation": "linear",
              "use_bias": true,
              "kernel_initializer": {
                "class_name": "VarianceScaling",
                "config": {
                  "scale": 2.0,
                  "mode": "fan_in",
                  "distribution": "normal",
                  "seed": null
                }
              },
              "bias_initializer": {
                "class_name": "Zeros",
                "config": {}
              },
              "kernel_regularizer": null,
              "bias_regularizer": null,
              "activity_regularizer": null,
              "kernel_constraint": null,
              "bias_constraint": null
            },
            "inbound_nodes": [
              [
                [
                  "activation_302",
                  0,
                  0,
                  {}
                ]
              ]
            ]
          },
          {
            "name": "bn3d_branch2b",
            "class_name": "BatchNormalization",
            "config": {
              "name": "bn3d_branch2b",
              "trainable": true,
              "axis": 3,
              "momentum": 0.99,
              "epsilon": 0.001,
              "center": true,
              "scale": true,
              "beta_initializer": {
                "class_name": "Zeros",
                "config": {}
              },
              "gamma_initializer": {
                "class_name": "Ones",
                "config": {}
              },
              "moving_mean_initializer": {
                "class_name": "Zeros",
                "config": {}
              },
              "moving_variance_initializer": {
                "class_name": "Ones",
                "config": {}
              },
              "beta_regularizer": null,
              "gamma_regularizer": null,
              "beta_constraint": null,
              "gamma_constraint": null
            },
            "inbound_nodes": [
              [
                [
                  "res3d_branch2b",
                  0,
                  0,
                  {}
                ]
              ]
            ]
          },
          {
            "name": "activation_303",
            "class_name": "Activation",
            "config": {
              "name": "activation_303",
              "trainable": true,
              "activation": "relu"
            },
            "inbound_nodes": [
              [
                [
                  "bn3d_branch2b",
                  0,
                  0,
                  {}
                ]
              ]
            ]
          },
          {
            "name": "res3d_branch2c",
            "class_name": "Conv2D",
            "config": {
              "name": "res3d_branch2c",
              "trainable": true,
              "filters": 512,
              "kernel_size": [
                1,
                1
              ],
              "strides": [
                1,
                1
              ],
              "padding": "valid",
              "data_format": "channels_last",
              "dilation_rate": [
                1,
                1
              ],
              "activation": "linear",
              "use_bias": true,
              "kernel_initializer": {
                "class_name": "VarianceScaling",
                "config": {
                  "scale": 2.0,
                  "mode": "fan_in",
                  "distribution": "normal",
                  "seed": null
                }
              },
              "bias_initializer": {
                "class_name": "Zeros",
                "config": {}
              },
              "kernel_regularizer": null,
              "bias_regularizer": null,
              "activity_regularizer": null,
              "kernel_constraint": null,
              "bias_constraint": null
            },
            "inbound_nodes": [
              [
                [
                  "activation_303",
                  0,
                  0,
                  {}
                ]
              ]
            ]
          },
          {
            "name": "bn3d_branch2c",
            "class_name": "BatchNormalization",
            "config": {
              "name": "bn3d_branch2c",
              "trainable": true,
              "axis": 3,
              "momentum": 0.99,
              "epsilon": 0.001,
              "center": true,
              "scale": true,
              "beta_initializer": {
                "class_name": "Zeros",
                "config": {}
              },
              "gamma_initializer": {
                "class_name": "Ones",
                "config": {}
              },
              "moving_mean_initializer": {
                "class_name": "Zeros",
                "config": {}
              },
              "moving_variance_initializer": {
                "class_name": "Ones",
                "config": {}
              },
              "beta_regularizer": null,
              "gamma_regularizer": null,
              "beta_constraint": null,
              "gamma_constraint": null
            },
            "inbound_nodes": [
              [
                [
                  "res3d_branch2c",
                  0,
                  0,
                  {}
                ]
              ]
            ]
          },
          {
            "name": "add_11",
            "class_name": "Add",
            "config": {
              "name": "add_11",
              "trainable": true
            },
            "inbound_nodes": [
              [
                [
                  "bn3d_branch2c",
                  0,
                  0,
                  {}
                ],
                [
                  "activation_301",
                  0,
                  0,
                  {}
                ]
              ]
            ]
          },
          {
            "name": "activation_304",
            "class_name": "Activation",
            "config": {
              "name": "activation_304",
              "trainable": true,
              "activation": "relu"
            },
            "inbound_nodes": [
              [
                [
                  "add_11",
                  0,
                  0,
                  {}
                ]
              ]
            ]
          },
          {
            "name": "res4a_branch2a",
            "class_name": "Conv2D",
            "config": {
              "name": "res4a_branch2a",
              "trainable": true,
              "filters": 256,
              "kernel_size": [
                1,
                1
              ],
              "strides": [
                2,
                2
              ],
              "padding": "valid",
              "data_format": "channels_last",
              "dilation_rate": [
                1,
                1
              ],
              "activation": "linear",
              "use_bias": true,
              "kernel_initializer": {
                "class_name": "VarianceScaling",
                "config": {
                  "scale": 2.0,
                  "mode": "fan_in",
                  "distribution": "normal",
                  "seed": null
                }
              },
              "bias_initializer": {
                "class_name": "Zeros",
                "config": {}
              },
              "kernel_regularizer": null,
              "bias_regularizer": null,
              "activity_regularizer": null,
              "kernel_constraint": null,
              "bias_constraint": null
            },
            "inbound_nodes": [
              [
                [
                  "activation_304",
                  0,
                  0,
                  {}
                ]
              ]
            ]
          },
          {
            "name": "bn4a_branch2a",
            "class_name": "BatchNormalization",
            "config": {
              "name": "bn4a_branch2a",
              "trainable": true,
              "axis": 3,
              "momentum": 0.99,
              "epsilon": 0.001,
              "center": true,
              "scale": true,
              "beta_initializer": {
                "class_name": "Zeros",
                "config": {}
              },
              "gamma_initializer": {
                "class_name": "Ones",
                "config": {}
              },
              "moving_mean_initializer": {
                "class_name": "Zeros",
                "config": {}
              },
              "moving_variance_initializer": {
                "class_name": "Ones",
                "config": {}
              },
              "beta_regularizer": null,
              "gamma_regularizer": null,
              "beta_constraint": null,
              "gamma_constraint": null
            },
            "inbound_nodes": [
              [
                [
                  "res4a_branch2a",
                  0,
                  0,
                  {}
                ]
              ]
            ]
          },
          {
            "name": "activation_305",
            "class_name": "Activation",
            "config": {
              "name": "activation_305",
              "trainable": true,
              "activation": "relu"
            },
            "inbound_nodes": [
              [
                [
                  "bn4a_branch2a",
                  0,
                  0,
                  {}
                ]
              ]
            ]
          },
          {
            "name": "res4a_branch2b",
            "class_name": "Conv2D",
            "config": {
              "name": "res4a_branch2b",
              "trainable": true,
              "filters": 256,
              "kernel_size": [
                3,
                3
              ],
              "strides": [
                1,
                1
              ],
              "padding": "same",
              "data_format": "channels_last",
              "dilation_rate": [
                1,
                1
              ],
              "activation": "linear",
              "use_bias": true,
              "kernel_initializer": {
                "class_name": "VarianceScaling",
                "config": {
                  "scale": 2.0,
                  "mode": "fan_in",
                  "distribution": "normal",
                  "seed": null
                }
              },
              "bias_initializer": {
                "class_name": "Zeros",
                "config": {}
              },
              "kernel_regularizer": null,
              "bias_regularizer": null,
              "activity_regularizer": null,
              "kernel_constraint": null,
              "bias_constraint": null
            },
            "inbound_nodes": [
              [
                [
                  "activation_305",
                  0,
                  0,
                  {}
                ]
              ]
            ]
          },
          {
            "name": "bn4a_branch2b",
            "class_name": "BatchNormalization",
            "config": {
              "name": "bn4a_branch2b",
              "trainable": true,
              "axis": 3,
              "momentum": 0.99,
              "epsilon": 0.001,
              "center": true,
              "scale": true,
              "beta_initializer": {
                "class_name": "Zeros",
                "config": {}
              },
              "gamma_initializer": {
                "class_name": "Ones",
                "config": {}
              },
              "moving_mean_initializer": {
                "class_name": "Zeros",
                "config": {}
              },
              "moving_variance_initializer": {
                "class_name": "Ones",
                "config": {}
              },
              "beta_regularizer": null,
              "gamma_regularizer": null,
              "beta_constraint": null,
              "gamma_constraint": null
            },
            "inbound_nodes": [
              [
                [
                  "res4a_branch2b",
                  0,
                  0,
                  {}
                ]
              ]
            ]
          },
          {
            "name": "activation_306",
            "class_name": "Activation",
            "config": {
              "name": "activation_306",
              "trainable": true,
              "activation": "relu"
            },
            "inbound_nodes": [
              [
                [
                  "bn4a_branch2b",
                  0,
                  0,
                  {}
                ]
              ]
            ]
          },
          {
            "name": "res4a_branch2c",
            "class_name": "Conv2D",
            "config": {
              "name": "res4a_branch2c",
              "trainable": true,
              "filters": 1024,
              "kernel_size": [
                1,
                1
              ],
              "strides": [
                1,
                1
              ],
              "padding": "valid",
              "data_format": "channels_last",
              "dilation_rate": [
                1,
                1
              ],
              "activation": "linear",
              "use_bias": true,
              "kernel_initializer": {
                "class_name": "VarianceScaling",
                "config": {
                  "scale": 2.0,
                  "mode": "fan_in",
                  "distribution": "normal",
                  "seed": null
                }
              },
              "bias_initializer": {
                "class_name": "Zeros",
                "config": {}
              },
              "kernel_regularizer": null,
              "bias_regularizer": null,
              "activity_regularizer": null,
              "kernel_constraint": null,
              "bias_constraint": null
            },
            "inbound_nodes": [
              [
                [
                  "activation_306",
                  0,
                  0,
                  {}
                ]
              ]
            ]
          },
          {
            "name": "res4a_branch1",
            "class_name": "Conv2D",
            "config": {
              "name": "res4a_branch1",
              "trainable": true,
              "filters": 1024,
              "kernel_size": [
                1,
                1
              ],
              "strides": [
                2,
                2
              ],
              "padding": "valid",
              "data_format": "channels_last",
              "dilation_rate": [
                1,
                1
              ],
              "activation": "linear",
              "use_bias": true,
              "kernel_initializer": {
                "class_name": "VarianceScaling",
                "config": {
                  "scale": 2.0,
                  "mode": "fan_in",
                  "distribution": "normal",
                  "seed": null
                }
              },
              "bias_initializer": {
                "class_name": "Zeros",
                "config": {}
              },
              "kernel_regularizer": null,
              "bias_regularizer": null,
              "activity_regularizer": null,
              "kernel_constraint": null,
              "bias_constraint": null
            },
            "inbound_nodes": [
              [
                [
                  "activation_304",
                  0,
                  0,
                  {}
                ]
              ]
            ]
          },
          {
            "name": "bn4a_branch2c",
            "class_name": "BatchNormalization",
            "config": {
              "name": "bn4a_branch2c",
              "trainable": true,
              "axis": 3,
              "momentum": 0.99,
              "epsilon": 0.001,
              "center": true,
              "scale": true,
              "beta_initializer": {
                "class_name": "Zeros",
                "config": {}
              },
              "gamma_initializer": {
                "class_name": "Ones",
                "config": {}
              },
              "moving_mean_initializer": {
                "class_name": "Zeros",
                "config": {}
              },
              "moving_variance_initializer": {
                "class_name": "Ones",
                "config": {}
              },
              "beta_regularizer": null,
              "gamma_regularizer": null,
              "beta_constraint": null,
              "gamma_constraint": null
            },
            "inbound_nodes": [
              [
                [
                  "res4a_branch2c",
                  0,
                  0,
                  {}
                ]
              ]
            ]
          },
          {
            "name": "bn4a_branch1",
            "class_name": "BatchNormalization",
            "config": {
              "name": "bn4a_branch1",
              "trainable": true,
              "axis": 3,
              "momentum": 0.99,
              "epsilon": 0.001,
              "center": true,
              "scale": true,
              "beta_initializer": {
                "class_name": "Zeros",
                "config": {}
              },
              "gamma_initializer": {
                "class_name": "Ones",
                "config": {}
              },
              "moving_mean_initializer": {
                "class_name": "Zeros",
                "config": {}
              },
              "moving_variance_initializer": {
                "class_name": "Ones",
                "config": {}
              },
              "beta_regularizer": null,
              "gamma_regularizer": null,
              "beta_constraint": null,
              "gamma_constraint": null
            },
            "inbound_nodes": [
              [
                [
                  "res4a_branch1",
                  0,
                  0,
                  {}
                ]
              ]
            ]
          },
          {
            "name": "add_12",
            "class_name": "Add",
            "config": {
              "name": "add_12",
              "trainable": true
            },
            "inbound_nodes": [
              [
                [
                  "bn4a_branch2c",
                  0,
                  0,
                  {}
                ],
                [
                  "bn4a_branch1",
                  0,
                  0,
                  {}
                ]
              ]
            ]
          },
          {
            "name": "activation_307",
            "class_name": "Activation",
            "config": {
              "name": "activation_307",
              "trainable": true,
              "activation": "relu"
            },
            "inbound_nodes": [
              [
                [
                  "add_12",
                  0,
                  0,
                  {}
                ]
              ]
            ]
          },
          {
            "name": "res4b_branch2a",
            "class_name": "Conv2D",
            "config": {
              "name": "res4b_branch2a",
              "trainable": true,
              "filters": 256,
              "kernel_size": [
                1,
                1
              ],
              "strides": [
                1,
                1
              ],
              "padding": "valid",
              "data_format": "channels_last",
              "dilation_rate": [
                1,
                1
              ],
              "activation": "linear",
              "use_bias": true,
              "kernel_initializer": {
                "class_name": "VarianceScaling",
                "config": {
                  "scale": 2.0,
                  "mode": "fan_in",
                  "distribution": "normal",
                  "seed": null
                }
              },
              "bias_initializer": {
                "class_name": "Zeros",
                "config": {}
              },
              "kernel_regularizer": null,
              "bias_regularizer": null,
              "activity_regularizer": null,
              "kernel_constraint": null,
              "bias_constraint": null
            },
            "inbound_nodes": [
              [
                [
                  "activation_307",
                  0,
                  0,
                  {}
                ]
              ]
            ]
          },
          {
            "name": "bn4b_branch2a",
            "class_name": "BatchNormalization",
            "config": {
              "name": "bn4b_branch2a",
              "trainable": true,
              "axis": 3,
              "momentum": 0.99,
              "epsilon": 0.001,
              "center": true,
              "scale": true,
              "beta_initializer": {
                "class_name": "Zeros",
                "config": {}
              },
              "gamma_initializer": {
                "class_name": "Ones",
                "config": {}
              },
              "moving_mean_initializer": {
                "class_name": "Zeros",
                "config": {}
              },
              "moving_variance_initializer": {
                "class_name": "Ones",
                "config": {}
              },
              "beta_regularizer": null,
              "gamma_regularizer": null,
              "beta_constraint": null,
              "gamma_constraint": null
            },
            "inbound_nodes": [
              [
                [
                  "res4b_branch2a",
                  0,
                  0,
                  {}
                ]
              ]
            ]
          },
          {
            "name": "activation_308",
            "class_name": "Activation",
            "config": {
              "name": "activation_308",
              "trainable": true,
              "activation": "relu"
            },
            "inbound_nodes": [
              [
                [
                  "bn4b_branch2a",
                  0,
                  0,
                  {}
                ]
              ]
            ]
          },
          {
            "name": "res4b_branch2b",
            "class_name": "Conv2D",
            "config": {
              "name": "res4b_branch2b",
              "trainable": true,
              "filters": 256,
              "kernel_size": [
                3,
                3
              ],
              "strides": [
                1,
                1
              ],
              "padding": "same",
              "data_format": "channels_last",
              "dilation_rate": [
                1,
                1
              ],
              "activation": "linear",
              "use_bias": true,
              "kernel_initializer": {
                "class_name": "VarianceScaling",
                "config": {
                  "scale": 2.0,
                  "mode": "fan_in",
                  "distribution": "normal",
                  "seed": null
                }
              },
              "bias_initializer": {
                "class_name": "Zeros",
                "config": {}
              },
              "kernel_regularizer": null,
              "bias_regularizer": null,
              "activity_regularizer": null,
              "kernel_constraint": null,
              "bias_constraint": null
            },
            "inbound_nodes": [
              [
                [
                  "activation_308",
                  0,
                  0,
                  {}
                ]
              ]
            ]
          },
          {
            "name": "bn4b_branch2b",
            "class_name": "BatchNormalization",
            "config": {
              "name": "bn4b_branch2b",
              "trainable": true,
              "axis": 3,
              "momentum": 0.99,
              "epsilon": 0.001,
              "center": true,
              "scale": true,
              "beta_initializer": {
                "class_name": "Zeros",
                "config": {}
              },
              "gamma_initializer": {
                "class_name": "Ones",
                "config": {}
              },
              "moving_mean_initializer": {
                "class_name": "Zeros",
                "config": {}
              },
              "moving_variance_initializer": {
                "class_name": "Ones",
                "config": {}
              },
              "beta_regularizer": null,
              "gamma_regularizer": null,
              "beta_constraint": null,
              "gamma_constraint": null
            },
            "inbound_nodes": [
              [
                [
                  "res4b_branch2b",
                  0,
                  0,
                  {}
                ]
              ]
            ]
          },
          {
            "name": "activation_309",
            "class_name": "Activation",
            "config": {
              "name": "activation_309",
              "trainable": true,
              "activation": "relu"
            },
            "inbound_nodes": [
              [
                [
                  "bn4b_branch2b",
                  0,
                  0,
                  {}
                ]
              ]
            ]
          },
          {
            "name": "res4b_branch2c",
            "class_name": "Conv2D",
            "config": {
              "name": "res4b_branch2c",
              "trainable": true,
              "filters": 1024,
              "kernel_size": [
                1,
                1
              ],
              "strides": [
                1,
                1
              ],
              "padding": "valid",
              "data_format": "channels_last",
              "dilation_rate": [
                1,
                1
              ],
              "activation": "linear",
              "use_bias": true,
              "kernel_initializer": {
                "class_name": "VarianceScaling",
                "config": {
                  "scale": 2.0,
                  "mode": "fan_in",
                  "distribution": "normal",
                  "seed": null
                }
              },
              "bias_initializer": {
                "class_name": "Zeros",
                "config": {}
              },
              "kernel_regularizer": null,
              "bias_regularizer": null,
              "activity_regularizer": null,
              "kernel_constraint": null,
              "bias_constraint": null
            },
            "inbound_nodes": [
              [
                [
                  "activation_309",
                  0,
                  0,
                  {}
                ]
              ]
            ]
          },
          {
            "name": "bn4b_branch2c",
            "class_name": "BatchNormalization",
            "config": {
              "name": "bn4b_branch2c",
              "trainable": true,
              "axis": 3,
              "momentum": 0.99,
              "epsilon": 0.001,
              "center": true,
              "scale": true,
              "beta_initializer": {
                "class_name": "Zeros",
                "config": {}
              },
              "gamma_initializer": {
                "class_name": "Ones",
                "config": {}
              },
              "moving_mean_initializer": {
                "class_name": "Zeros",
                "config": {}
              },
              "moving_variance_initializer": {
                "class_name": "Ones",
                "config": {}
              },
              "beta_regularizer": null,
              "gamma_regularizer": null,
              "beta_constraint": null,
              "gamma_constraint": null
            },
            "inbound_nodes": [
              [
                [
                  "res4b_branch2c",
                  0,
                  0,
                  {}
                ]
              ]
            ]
          },
          {
            "name": "add_13",
            "class_name": "Add",
            "config": {
              "name": "add_13",
              "trainable": true
            },
            "inbound_nodes": [
              [
                [
                  "bn4b_branch2c",
                  0,
                  0,
                  {}
                ],
                [
                  "activation_307",
                  0,
                  0,
                  {}
                ]
              ]
            ]
          },
          {
            "name": "activation_310",
            "class_name": "Activation",
            "config": {
              "name": "activation_310",
              "trainable": true,
              "activation": "relu"
            },
            "inbound_nodes": [
              [
                [
                  "add_13",
                  0,
                  0,
                  {}
                ]
              ]
            ]
          },
          {
            "name": "res4c_branch2a",
            "class_name": "Conv2D",
            "config": {
              "name": "res4c_branch2a",
              "trainable": true,
              "filters": 256,
              "kernel_size": [
                1,
                1
              ],
              "strides": [
                1,
                1
              ],
              "padding": "valid",
              "data_format": "channels_last",
              "dilation_rate": [
                1,
                1
              ],
              "activation": "linear",
              "use_bias": true,
              "kernel_initializer": {
                "class_name": "VarianceScaling",
                "config": {
                  "scale": 2.0,
                  "mode": "fan_in",
                  "distribution": "normal",
                  "seed": null
                }
              },
              "bias_initializer": {
                "class_name": "Zeros",
                "config": {}
              },
              "kernel_regularizer": null,
              "bias_regularizer": null,
              "activity_regularizer": null,
              "kernel_constraint": null,
              "bias_constraint": null
            },
            "inbound_nodes": [
              [
                [
                  "activation_310",
                  0,
                  0,
                  {}
                ]
              ]
            ]
          },
          {
            "name": "bn4c_branch2a",
            "class_name": "BatchNormalization",
            "config": {
              "name": "bn4c_branch2a",
              "trainable": true,
              "axis": 3,
              "momentum": 0.99,
              "epsilon": 0.001,
              "center": true,
              "scale": true,
              "beta_initializer": {
                "class_name": "Zeros",
                "config": {}
              },
              "gamma_initializer": {
                "class_name": "Ones",
                "config": {}
              },
              "moving_mean_initializer": {
                "class_name": "Zeros",
                "config": {}
              },
              "moving_variance_initializer": {
                "class_name": "Ones",
                "config": {}
              },
              "beta_regularizer": null,
              "gamma_regularizer": null,
              "beta_constraint": null,
              "gamma_constraint": null
            },
            "inbound_nodes": [
              [
                [
                  "res4c_branch2a",
                  0,
                  0,
                  {}
                ]
              ]
            ]
          },
          {
            "name": "activation_311",
            "class_name": "Activation",
            "config": {
              "name": "activation_311",
              "trainable": true,
              "activation": "relu"
            },
            "inbound_nodes": [
              [
                [
                  "bn4c_branch2a",
                  0,
                  0,
                  {}
                ]
              ]
            ]
          },
          {
            "name": "res4c_branch2b",
            "class_name": "Conv2D",
            "config": {
              "name": "res4c_branch2b",
              "trainable": true,
              "filters": 256,
              "kernel_size": [
                3,
                3
              ],
              "strides": [
                1,
                1
              ],
              "padding": "same",
              "data_format": "channels_last",
              "dilation_rate": [
                1,
                1
              ],
              "activation": "linear",
              "use_bias": true,
              "kernel_initializer": {
                "class_name": "VarianceScaling",
                "config": {
                  "scale": 2.0,
                  "mode": "fan_in",
                  "distribution": "normal",
                  "seed": null
                }
              },
              "bias_initializer": {
                "class_name": "Zeros",
                "config": {}
              },
              "kernel_regularizer": null,
              "bias_regularizer": null,
              "activity_regularizer": null,
              "kernel_constraint": null,
              "bias_constraint": null
            },
            "inbound_nodes": [
              [
                [
                  "activation_311",
                  0,
                  0,
                  {}
                ]
              ]
            ]
          },
          {
            "name": "bn4c_branch2b",
            "class_name": "BatchNormalization",
            "config": {
              "name": "bn4c_branch2b",
              "trainable": true,
              "axis": 3,
              "momentum": 0.99,
              "epsilon": 0.001,
              "center": true,
              "scale": true,
              "beta_initializer": {
                "class_name": "Zeros",
                "config": {}
              },
              "gamma_initializer": {
                "class_name": "Ones",
                "config": {}
              },
              "moving_mean_initializer": {
                "class_name": "Zeros",
                "config": {}
              },
              "moving_variance_initializer": {
                "class_name": "Ones",
                "config": {}
              },
              "beta_regularizer": null,
              "gamma_regularizer": null,
              "beta_constraint": null,
              "gamma_constraint": null
            },
            "inbound_nodes": [
              [
                [
                  "res4c_branch2b",
                  0,
                  0,
                  {}
                ]
              ]
            ]
          },
          {
            "name": "activation_312",
            "class_name": "Activation",
            "config": {
              "name": "activation_312",
              "trainable": true,
              "activation": "relu"
            },
            "inbound_nodes": [
              [
                [
                  "bn4c_branch2b",
                  0,
                  0,
                  {}
                ]
              ]
            ]
          },
          {
            "name": "res4c_branch2c",
            "class_name": "Conv2D",
            "config": {
              "name": "res4c_branch2c",
              "trainable": true,
              "filters": 1024,
              "kernel_size": [
                1,
                1
              ],
              "strides": [
                1,
                1
              ],
              "padding": "valid",
              "data_format": "channels_last",
              "dilation_rate": [
                1,
                1
              ],
              "activation": "linear",
              "use_bias": true,
              "kernel_initializer": {
                "class_name": "VarianceScaling",
                "config": {
                  "scale": 2.0,
                  "mode": "fan_in",
                  "distribution": "normal",
                  "seed": null
                }
              },
              "bias_initializer": {
                "class_name": "Zeros",
                "config": {}
              },
              "kernel_regularizer": null,
              "bias_regularizer": null,
              "activity_regularizer": null,
              "kernel_constraint": null,
              "bias_constraint": null
            },
            "inbound_nodes": [
              [
                [
                  "activation_312",
                  0,
                  0,
                  {}
                ]
              ]
            ]
          },
          {
            "name": "bn4c_branch2c",
            "class_name": "BatchNormalization",
            "config": {
              "name": "bn4c_branch2c",
              "trainable": true,
              "axis": 3,
              "momentum": 0.99,
              "epsilon": 0.001,
              "center": true,
              "scale": true,
              "beta_initializer": {
                "class_name": "Zeros",
                "config": {}
              },
              "gamma_initializer": {
                "class_name": "Ones",
                "config": {}
              },
              "moving_mean_initializer": {
                "class_name": "Zeros",
                "config": {}
              },
              "moving_variance_initializer": {
                "class_name": "Ones",
                "config": {}
              },
              "beta_regularizer": null,
              "gamma_regularizer": null,
              "beta_constraint": null,
              "gamma_constraint": null
            },
            "inbound_nodes": [
              [
                [
                  "res4c_branch2c",
                  0,
                  0,
                  {}
                ]
              ]
            ]
          },
          {
            "name": "add_14",
            "class_name": "Add",
            "config": {
              "name": "add_14",
              "trainable": true
            },
            "inbound_nodes": [
              [
                [
                  "bn4c_branch2c",
                  0,
                  0,
                  {}
                ],
                [
                  "activation_310",
                  0,
                  0,
                  {}
                ]
              ]
            ]
          },
          {
            "name": "activation_313",
            "class_name": "Activation",
            "config": {
              "name": "activation_313",
              "trainable": true,
              "activation": "relu"
            },
            "inbound_nodes": [
              [
                [
                  "add_14",
                  0,
                  0,
                  {}
                ]
              ]
            ]
          },
          {
            "name": "res4d_branch2a",
            "class_name": "Conv2D",
            "config": {
              "name": "res4d_branch2a",
              "trainable": true,
              "filters": 256,
              "kernel_size": [
                1,
                1
              ],
              "strides": [
                1,
                1
              ],
              "padding": "valid",
              "data_format": "channels_last",
              "dilation_rate": [
                1,
                1
              ],
              "activation": "linear",
              "use_bias": true,
              "kernel_initializer": {
                "class_name": "VarianceScaling",
                "config": {
                  "scale": 2.0,
                  "mode": "fan_in",
                  "distribution": "normal",
                  "seed": null
                }
              },
              "bias_initializer": {
                "class_name": "Zeros",
                "config": {}
              },
              "kernel_regularizer": null,
              "bias_regularizer": null,
              "activity_regularizer": null,
              "kernel_constraint": null,
              "bias_constraint": null
            },
            "inbound_nodes": [
              [
                [
                  "activation_313",
                  0,
                  0,
                  {}
                ]
              ]
            ]
          },
          {
            "name": "bn4d_branch2a",
            "class_name": "BatchNormalization",
            "config": {
              "name": "bn4d_branch2a",
              "trainable": true,
              "axis": 3,
              "momentum": 0.99,
              "epsilon": 0.001,
              "center": true,
              "scale": true,
              "beta_initializer": {
                "class_name": "Zeros",
                "config": {}
              },
              "gamma_initializer": {
                "class_name": "Ones",
                "config": {}
              },
              "moving_mean_initializer": {
                "class_name": "Zeros",
                "config": {}
              },
              "moving_variance_initializer": {
                "class_name": "Ones",
                "config": {}
              },
              "beta_regularizer": null,
              "gamma_regularizer": null,
              "beta_constraint": null,
              "gamma_constraint": null
            },
            "inbound_nodes": [
              [
                [
                  "res4d_branch2a",
                  0,
                  0,
                  {}
                ]
              ]
            ]
          },
          {
            "name": "activation_314",
            "class_name": "Activation",
            "config": {
              "name": "activation_314",
              "trainable": true,
              "activation": "relu"
            },
            "inbound_nodes": [
              [
                [
                  "bn4d_branch2a",
                  0,
                  0,
                  {}
                ]
              ]
            ]
          },
          {
            "name": "res4d_branch2b",
            "class_name": "Conv2D",
            "config": {
              "name": "res4d_branch2b",
              "trainable": true,
              "filters": 256,
              "kernel_size": [
                3,
                3
              ],
              "strides": [
                1,
                1
              ],
              "padding": "same",
              "data_format": "channels_last",
              "dilation_rate": [
                1,
                1
              ],
              "activation": "linear",
              "use_bias": true,
              "kernel_initializer": {
                "class_name": "VarianceScaling",
                "config": {
                  "scale": 2.0,
                  "mode": "fan_in",
                  "distribution": "normal",
                  "seed": null
                }
              },
              "bias_initializer": {
                "class_name": "Zeros",
                "config": {}
              },
              "kernel_regularizer": null,
              "bias_regularizer": null,
              "activity_regularizer": null,
              "kernel_constraint": null,
              "bias_constraint": null
            },
            "inbound_nodes": [
              [
                [
                  "activation_314",
                  0,
                  0,
                  {}
                ]
              ]
            ]
          },
          {
            "name": "bn4d_branch2b",
            "class_name": "BatchNormalization",
            "config": {
              "name": "bn4d_branch2b",
              "trainable": true,
              "axis": 3,
              "momentum": 0.99,
              "epsilon": 0.001,
              "center": true,
              "scale": true,
              "beta_initializer": {
                "class_name": "Zeros",
                "config": {}
              },
              "gamma_initializer": {
                "class_name": "Ones",
                "config": {}
              },
              "moving_mean_initializer": {
                "class_name": "Zeros",
                "config": {}
              },
              "moving_variance_initializer": {
                "class_name": "Ones",
                "config": {}
              },
              "beta_regularizer": null,
              "gamma_regularizer": null,
              "beta_constraint": null,
              "gamma_constraint": null
            },
            "inbound_nodes": [
              [
                [
                  "res4d_branch2b",
                  0,
                  0,
                  {}
                ]
              ]
            ]
          },
          {
            "name": "activation_315",
            "class_name": "Activation",
            "config": {
              "name": "activation_315",
              "trainable": true,
              "activation": "relu"
            },
            "inbound_nodes": [
              [
                [
                  "bn4d_branch2b",
                  0,
                  0,
                  {}
                ]
              ]
            ]
          },
          {
            "name": "res4d_branch2c",
            "class_name": "Conv2D",
            "config": {
              "name": "res4d_branch2c",
              "trainable": true,
              "filters": 1024,
              "kernel_size": [
                1,
                1
              ],
              "strides": [
                1,
                1
              ],
              "padding": "valid",
              "data_format": "channels_last",
              "dilation_rate": [
                1,
                1
              ],
              "activation": "linear",
              "use_bias": true,
              "kernel_initializer": {
                "class_name": "VarianceScaling",
                "config": {
                  "scale": 2.0,
                  "mode": "fan_in",
                  "distribution": "normal",
                  "seed": null
                }
              },
              "bias_initializer": {
                "class_name": "Zeros",
                "config": {}
              },
              "kernel_regularizer": null,
              "bias_regularizer": null,
              "activity_regularizer": null,
              "kernel_constraint": null,
              "bias_constraint": null
            },
            "inbound_nodes": [
              [
                [
                  "activation_315",
                  0,
                  0,
                  {}
                ]
              ]
            ]
          },
          {
            "name": "bn4d_branch2c",
            "class_name": "BatchNormalization",
            "config": {
              "name": "bn4d_branch2c",
              "trainable": true,
              "axis": 3,
              "momentum": 0.99,
              "epsilon": 0.001,
              "center": true,
              "scale": true,
              "beta_initializer": {
                "class_name": "Zeros",
                "config": {}
              },
              "gamma_initializer": {
                "class_name": "Ones",
                "config": {}
              },
              "moving_mean_initializer": {
                "class_name": "Zeros",
                "config": {}
              },
              "moving_variance_initializer": {
                "class_name": "Ones",
                "config": {}
              },
              "beta_regularizer": null,
              "gamma_regularizer": null,
              "beta_constraint": null,
              "gamma_constraint": null
            },
            "inbound_nodes": [
              [
                [
                  "res4d_branch2c",
                  0,
                  0,
                  {}
                ]
              ]
            ]
          },
          {
            "name": "add_15",
            "class_name": "Add",
            "config": {
              "name": "add_15",
              "trainable": true
            },
            "inbound_nodes": [
              [
                [
                  "bn4d_branch2c",
                  0,
                  0,
                  {}
                ],
                [
                  "activation_313",
                  0,
                  0,
                  {}
                ]
              ]
            ]
          },
          {
            "name": "activation_316",
            "class_name": "Activation",
            "config": {
              "name": "activation_316",
              "trainable": true,
              "activation": "relu"
            },
            "inbound_nodes": [
              [
                [
                  "add_15",
                  0,
                  0,
                  {}
                ]
              ]
            ]
          },
          {
            "name": "res4e_branch2a",
            "class_name": "Conv2D",
            "config": {
              "name": "res4e_branch2a",
              "trainable": true,
              "filters": 256,
              "kernel_size": [
                1,
                1
              ],
              "strides": [
                1,
                1
              ],
              "padding": "valid",
              "data_format": "channels_last",
              "dilation_rate": [
                1,
                1
              ],
              "activation": "linear",
              "use_bias": true,
              "kernel_initializer": {
                "class_name": "VarianceScaling",
                "config": {
                  "scale": 2.0,
                  "mode": "fan_in",
                  "distribution": "normal",
                  "seed": null
                }
              },
              "bias_initializer": {
                "class_name": "Zeros",
                "config": {}
              },
              "kernel_regularizer": null,
              "bias_regularizer": null,
              "activity_regularizer": null,
              "kernel_constraint": null,
              "bias_constraint": null
            },
            "inbound_nodes": [
              [
                [
                  "activation_316",
                  0,
                  0,
                  {}
                ]
              ]
            ]
          },
          {
            "name": "bn4e_branch2a",
            "class_name": "BatchNormalization",
            "config": {
              "name": "bn4e_branch2a",
              "trainable": true,
              "axis": 3,
              "momentum": 0.99,
              "epsilon": 0.001,
              "center": true,
              "scale": true,
              "beta_initializer": {
                "class_name": "Zeros",
                "config": {}
              },
              "gamma_initializer": {
                "class_name": "Ones",
                "config": {}
              },
              "moving_mean_initializer": {
                "class_name": "Zeros",
                "config": {}
              },
              "moving_variance_initializer": {
                "class_name": "Ones",
                "config": {}
              },
              "beta_regularizer": null,
              "gamma_regularizer": null,
              "beta_constraint": null,
              "gamma_constraint": null
            },
            "inbound_nodes": [
              [
                [
                  "res4e_branch2a",
                  0,
                  0,
                  {}
                ]
              ]
            ]
          },
          {
            "name": "activation_317",
            "class_name": "Activation",
            "config": {
              "name": "activation_317",
              "trainable": true,
              "activation": "relu"
            },
            "inbound_nodes": [
              [
                [
                  "bn4e_branch2a",
                  0,
                  0,
                  {}
                ]
              ]
            ]
          },
          {
            "name": "res4e_branch2b",
            "class_name": "Conv2D",
            "config": {
              "name": "res4e_branch2b",
              "trainable": true,
              "filters": 256,
              "kernel_size": [
                3,
                3
              ],
              "strides": [
                1,
                1
              ],
              "padding": "same",
              "data_format": "channels_last",
              "dilation_rate": [
                1,
                1
              ],
              "activation": "linear",
              "use_bias": true,
              "kernel_initializer": {
                "class_name": "VarianceScaling",
                "config": {
                  "scale": 2.0,
                  "mode": "fan_in",
                  "distribution": "normal",
                  "seed": null
                }
              },
              "bias_initializer": {
                "class_name": "Zeros",
                "config": {}
              },
              "kernel_regularizer": null,
              "bias_regularizer": null,
              "activity_regularizer": null,
              "kernel_constraint": null,
              "bias_constraint": null
            },
            "inbound_nodes": [
              [
                [
                  "activation_317",
                  0,
                  0,
                  {}
                ]
              ]
            ]
          },
          {
            "name": "bn4e_branch2b",
            "class_name": "BatchNormalization",
            "config": {
              "name": "bn4e_branch2b",
              "trainable": true,
              "axis": 3,
              "momentum": 0.99,
              "epsilon": 0.001,
              "center": true,
              "scale": true,
              "beta_initializer": {
                "class_name": "Zeros",
                "config": {}
              },
              "gamma_initializer": {
                "class_name": "Ones",
                "config": {}
              },
              "moving_mean_initializer": {
                "class_name": "Zeros",
                "config": {}
              },
              "moving_variance_initializer": {
                "class_name": "Ones",
                "config": {}
              },
              "beta_regularizer": null,
              "gamma_regularizer": null,
              "beta_constraint": null,
              "gamma_constraint": null
            },
            "inbound_nodes": [
              [
                [
                  "res4e_branch2b",
                  0,
                  0,
                  {}
                ]
              ]
            ]
          },
          {
            "name": "activation_318",
            "class_name": "Activation",
            "config": {
              "name": "activation_318",
              "trainable": true,
              "activation": "relu"
            },
            "inbound_nodes": [
              [
                [
                  "bn4e_branch2b",
                  0,
                  0,
                  {}
                ]
              ]
            ]
          },
          {
            "name": "res4e_branch2c",
            "class_name": "Conv2D",
            "config": {
              "name": "res4e_branch2c",
              "trainable": true,
              "filters": 1024,
              "kernel_size": [
                1,
                1
              ],
              "strides": [
                1,
                1
              ],
              "padding": "valid",
              "data_format": "channels_last",
              "dilation_rate": [
                1,
                1
              ],
              "activation": "linear",
              "use_bias": true,
              "kernel_initializer": {
                "class_name": "VarianceScaling",
                "config": {
                  "scale": 2.0,
                  "mode": "fan_in",
                  "distribution": "normal",
                  "seed": null
                }
              },
              "bias_initializer": {
                "class_name": "Zeros",
                "config": {}
              },
              "kernel_regularizer": null,
              "bias_regularizer": null,
              "activity_regularizer": null,
              "kernel_constraint": null,
              "bias_constraint": null
            },
            "inbound_nodes": [
              [
                [
                  "activation_318",
                  0,
                  0,
                  {}
                ]
              ]
            ]
          },
          {
            "name": "bn4e_branch2c",
            "class_name": "BatchNormalization",
            "config": {
              "name": "bn4e_branch2c",
              "trainable": true,
              "axis": 3,
              "momentum": 0.99,
              "epsilon": 0.001,
              "center": true,
              "scale": true,
              "beta_initializer": {
                "class_name": "Zeros",
                "config": {}
              },
              "gamma_initializer": {
                "class_name": "Ones",
                "config": {}
              },
              "moving_mean_initializer": {
                "class_name": "Zeros",
                "config": {}
              },
              "moving_variance_initializer": {
                "class_name": "Ones",
                "config": {}
              },
              "beta_regularizer": null,
              "gamma_regularizer": null,
              "beta_constraint": null,
              "gamma_constraint": null
            },
            "inbound_nodes": [
              [
                [
                  "res4e_branch2c",
                  0,
                  0,
                  {}
                ]
              ]
            ]
          },
          {
            "name": "add_16",
            "class_name": "Add",
            "config": {
              "name": "add_16",
              "trainable": true
            },
            "inbound_nodes": [
              [
                [
                  "bn4e_branch2c",
                  0,
                  0,
                  {}
                ],
                [
                  "activation_316",
                  0,
                  0,
                  {}
                ]
              ]
            ]
          },
          {
            "name": "activation_319",
            "class_name": "Activation",
            "config": {
              "name": "activation_319",
              "trainable": true,
              "activation": "relu"
            },
            "inbound_nodes": [
              [
                [
                  "add_16",
                  0,
                  0,
                  {}
                ]
              ]
            ]
          },
          {
            "name": "res4f_branch2a",
            "class_name": "Conv2D",
            "config": {
              "name": "res4f_branch2a",
              "trainable": true,
              "filters": 256,
              "kernel_size": [
                1,
                1
              ],
              "strides": [
                1,
                1
              ],
              "padding": "valid",
              "data_format": "channels_last",
              "dilation_rate": [
                1,
                1
              ],
              "activation": "linear",
              "use_bias": true,
              "kernel_initializer": {
                "class_name": "VarianceScaling",
                "config": {
                  "scale": 2.0,
                  "mode": "fan_in",
                  "distribution": "normal",
                  "seed": null
                }
              },
              "bias_initializer": {
                "class_name": "Zeros",
                "config": {}
              },
              "kernel_regularizer": null,
              "bias_regularizer": null,
              "activity_regularizer": null,
              "kernel_constraint": null,
              "bias_constraint": null
            },
            "inbound_nodes": [
              [
                [
                  "activation_319",
                  0,
                  0,
                  {}
                ]
              ]
            ]
          },
          {
            "name": "bn4f_branch2a",
            "class_name": "BatchNormalization",
            "config": {
              "name": "bn4f_branch2a",
              "trainable": true,
              "axis": 3,
              "momentum": 0.99,
              "epsilon": 0.001,
              "center": true,
              "scale": true,
              "beta_initializer": {
                "class_name": "Zeros",
                "config": {}
              },
              "gamma_initializer": {
                "class_name": "Ones",
                "config": {}
              },
              "moving_mean_initializer": {
                "class_name": "Zeros",
                "config": {}
              },
              "moving_variance_initializer": {
                "class_name": "Ones",
                "config": {}
              },
              "beta_regularizer": null,
              "gamma_regularizer": null,
              "beta_constraint": null,
              "gamma_constraint": null
            },
            "inbound_nodes": [
              [
                [
                  "res4f_branch2a",
                  0,
                  0,
                  {}
                ]
              ]
            ]
          },
          {
            "name": "activation_320",
            "class_name": "Activation",
            "config": {
              "name": "activation_320",
              "trainable": true,
              "activation": "relu"
            },
            "inbound_nodes": [
              [
                [
                  "bn4f_branch2a",
                  0,
                  0,
                  {}
                ]
              ]
            ]
          },
          {
            "name": "res4f_branch2b",
            "class_name": "Conv2D",
            "config": {
              "name": "res4f_branch2b",
              "trainable": true,
              "filters": 256,
              "kernel_size": [
                3,
                3
              ],
              "strides": [
                1,
                1
              ],
              "padding": "same",
              "data_format": "channels_last",
              "dilation_rate": [
                1,
                1
              ],
              "activation": "linear",
              "use_bias": true,
              "kernel_initializer": {
                "class_name": "VarianceScaling",
                "config": {
                  "scale": 2.0,
                  "mode": "fan_in",
                  "distribution": "normal",
                  "seed": null
                }
              },
              "bias_initializer": {
                "class_name": "Zeros",
                "config": {}
              },
              "kernel_regularizer": null,
              "bias_regularizer": null,
              "activity_regularizer": null,
              "kernel_constraint": null,
              "bias_constraint": null
            },
            "inbound_nodes": [
              [
                [
                  "activation_320",
                  0,
                  0,
                  {}
                ]
              ]
            ]
          },
          {
            "name": "bn4f_branch2b",
            "class_name": "BatchNormalization",
            "config": {
              "name": "bn4f_branch2b",
              "trainable": true,
              "axis": 3,
              "momentum": 0.99,
              "epsilon": 0.001,
              "center": true,
              "scale": true,
              "beta_initializer": {
                "class_name": "Zeros",
                "config": {}
              },
              "gamma_initializer": {
                "class_name": "Ones",
                "config": {}
              },
              "moving_mean_initializer": {
                "class_name": "Zeros",
                "config": {}
              },
              "moving_variance_initializer": {
                "class_name": "Ones",
                "config": {}
              },
              "beta_regularizer": null,
              "gamma_regularizer": null,
              "beta_constraint": null,
              "gamma_constraint": null
            },
            "inbound_nodes": [
              [
                [
                  "res4f_branch2b",
                  0,
                  0,
                  {}
                ]
              ]
            ]
          },
          {
            "name": "activation_321",
            "class_name": "Activation",
            "config": {
              "name": "activation_321",
              "trainable": true,
              "activation": "relu"
            },
            "inbound_nodes": [
              [
                [
                  "bn4f_branch2b",
                  0,
                  0,
                  {}
                ]
              ]
            ]
          },
          {
            "name": "res4f_branch2c",
            "class_name": "Conv2D",
            "config": {
              "name": "res4f_branch2c",
              "trainable": true,
              "filters": 1024,
              "kernel_size": [
                1,
                1
              ],
              "strides": [
                1,
                1
              ],
              "padding": "valid",
              "data_format": "channels_last",
              "dilation_rate": [
                1,
                1
              ],
              "activation": "linear",
              "use_bias": true,
              "kernel_initializer": {
                "class_name": "VarianceScaling",
                "config": {
                  "scale": 2.0,
                  "mode": "fan_in",
                  "distribution": "normal",
                  "seed": null
                }
              },
              "bias_initializer": {
                "class_name": "Zeros",
                "config": {}
              },
              "kernel_regularizer": null,
              "bias_regularizer": null,
              "activity_regularizer": null,
              "kernel_constraint": null,
              "bias_constraint": null
            },
            "inbound_nodes": [
              [
                [
                  "activation_321",
                  0,
                  0,
                  {}
                ]
              ]
            ]
          },
          {
            "name": "bn4f_branch2c",
            "class_name": "BatchNormalization",
            "config": {
              "name": "bn4f_branch2c",
              "trainable": true,
              "axis": 3,
              "momentum": 0.99,
              "epsilon": 0.001,
              "center": true,
              "scale": true,
              "beta_initializer": {
                "class_name": "Zeros",
                "config": {}
              },
              "gamma_initializer": {
                "class_name": "Ones",
                "config": {}
              },
              "moving_mean_initializer": {
                "class_name": "Zeros",
                "config": {}
              },
              "moving_variance_initializer": {
                "class_name": "Ones",
                "config": {}
              },
              "beta_regularizer": null,
              "gamma_regularizer": null,
              "beta_constraint": null,
              "gamma_constraint": null
            },
            "inbound_nodes": [
              [
                [
                  "res4f_branch2c",
                  0,
                  0,
                  {}
                ]
              ]
            ]
          },
          {
            "name": "add_17",
            "class_name": "Add",
            "config": {
              "name": "add_17",
              "trainable": true
            },
            "inbound_nodes": [
              [
                [
                  "bn4f_branch2c",
                  0,
                  0,
                  {}
                ],
                [
                  "activation_319",
                  0,
                  0,
                  {}
                ]
              ]
            ]
          },
          {
            "name": "activation_322",
            "class_name": "Activation",
            "config": {
              "name": "activation_322",
              "trainable": true,
              "activation": "relu"
            },
            "inbound_nodes": [
              [
                [
                  "add_17",
                  0,
                  0,
                  {}
                ]
              ]
            ]
          },
          {
            "name": "res5a_branch2a",
            "class_name": "Conv2D",
            "config": {
              "name": "res5a_branch2a",
              "trainable": true,
              "filters": 512,
              "kernel_size": [
                1,
                1
              ],
              "strides": [
                2,
                2
              ],
              "padding": "valid",
              "data_format": "channels_last",
              "dilation_rate": [
                1,
                1
              ],
              "activation": "linear",
              "use_bias": true,
              "kernel_initializer": {
                "class_name": "VarianceScaling",
                "config": {
                  "scale": 2.0,
                  "mode": "fan_in",
                  "distribution": "normal",
                  "seed": null
                }
              },
              "bias_initializer": {
                "class_name": "Zeros",
                "config": {}
              },
              "kernel_regularizer": null,
              "bias_regularizer": null,
              "activity_regularizer": null,
              "kernel_constraint": null,
              "bias_constraint": null
            },
            "inbound_nodes": [
              [
                [
                  "activation_322",
                  0,
                  0,
                  {}
                ]
              ]
            ]
          },
          {
            "name": "bn5a_branch2a",
            "class_name": "BatchNormalization",
            "config": {
              "name": "bn5a_branch2a",
              "trainable": true,
              "axis": 3,
              "momentum": 0.99,
              "epsilon": 0.001,
              "center": true,
              "scale": true,
              "beta_initializer": {
                "class_name": "Zeros",
                "config": {}
              },
              "gamma_initializer": {
                "class_name": "Ones",
                "config": {}
              },
              "moving_mean_initializer": {
                "class_name": "Zeros",
                "config": {}
              },
              "moving_variance_initializer": {
                "class_name": "Ones",
                "config": {}
              },
              "beta_regularizer": null,
              "gamma_regularizer": null,
              "beta_constraint": null,
              "gamma_constraint": null
            },
            "inbound_nodes": [
              [
                [
                  "res5a_branch2a",
                  0,
                  0,
                  {}
                ]
              ]
            ]
          },
          {
            "name": "activation_323",
            "class_name": "Activation",
            "config": {
              "name": "activation_323",
              "trainable": true,
              "activation": "relu"
            },
            "inbound_nodes": [
              [
                [
                  "bn5a_branch2a",
                  0,
                  0,
                  {}
                ]
              ]
            ]
          },
          {
            "name": "res5a_branch2b",
            "class_name": "Conv2D",
            "config": {
              "name": "res5a_branch2b",
              "trainable": true,
              "filters": 512,
              "kernel_size": [
                3,
                3
              ],
              "strides": [
                1,
                1
              ],
              "padding": "same",
              "data_format": "channels_last",
              "dilation_rate": [
                1,
                1
              ],
              "activation": "linear",
              "use_bias": true,
              "kernel_initializer": {
                "class_name": "VarianceScaling",
                "config": {
                  "scale": 2.0,
                  "mode": "fan_in",
                  "distribution": "normal",
                  "seed": null
                }
              },
              "bias_initializer": {
                "class_name": "Zeros",
                "config": {}
              },
              "kernel_regularizer": null,
              "bias_regularizer": null,
              "activity_regularizer": null,
              "kernel_constraint": null,
              "bias_constraint": null
            },
            "inbound_nodes": [
              [
                [
                  "activation_323",
                  0,
                  0,
                  {}
                ]
              ]
            ]
          },
          {
            "name": "bn5a_branch2b",
            "class_name": "BatchNormalization",
            "config": {
              "name": "bn5a_branch2b",
              "trainable": true,
              "axis": 3,
              "momentum": 0.99,
              "epsilon": 0.001,
              "center": true,
              "scale": true,
              "beta_initializer": {
                "class_name": "Zeros",
                "config": {}
              },
              "gamma_initializer": {
                "class_name": "Ones",
                "config": {}
              },
…
              "activity_regularizer": null,
              "kernel_constraint": null,
              "bias_constraint": null
            },
            "inbound_nodes": [
              [
                [
                  "avg_pool",
                  0,
                  0,
                  {}
                ]
              ]
            ]
          }
        ],
        "input_layers": [
          [
            "input_5",
            0,
            0
          ]
        ],
        "output_layers": [
          [
            "fc1000",
            0,
            0
          ]
        ]
      }
    }
  },
  "weightsManifest": [
    {
      "paths": [
        "group1-shard1of25.bin",
        "group1-shard2of25.bin",
        "group1-shard3of25.bin",
        "group1-shard4of25.bin",
        "group1-shard5of25.bin",
        "group1-shard6of25.bin",
        "group1-shard7of25.bin",
        "group1-shard8of25.bin",
        "group1-shard9of25.bin",
        "group1-shard10of25.bin",
        "group1-shard11of25.bin",
        "group1-shard12of25.bin",
        "group1-shard13of25.bin",
        "group1-shard14of25.bin",
        "group1-shard15of25.bin",
        "group1-shard16of25.bin",
        "group1-shard17of25.bin",
        "group1-shard18of25.bin",
        "group1-shard19of25.bin",
        "group1-shard20of25.bin",
        "group1-shard21of25.bin",
        "group1-shard22of25.bin",
        "group1-shard23of25.bin",
        "group1-shard24of25.bin",
        "group1-shard25of25.bin"
      ],
      "weights": [
        {
          "name": "bn2a_branch1/gamma",
          "shape": [
            256
          ],
          "dtype": "float32"
        },
        {
          "name": "bn2a_branch1/beta",
          "shape": [
            256
          ],
          "dtype": "float32"
        },
        {
          "name": "bn2a_branch1/moving_mean",
          "shape": [
            256
          ],
          "dtype": "float32"
        },
        {
          "name": "bn2a_branch1/moving_variance",
          "shape": [
            256
          ],
          "dtype": "float32"
        },
        {
          "name": "bn2a_branch2a/gamma",
          "shape": [
            64
          ],
          "dtype": "float32"
        },
        {
          "name": "bn2a_branch2a/beta",
          "shape": [
            64
          ],
          "dtype": "float32"
        },
        {
          "name": "bn2a_branch2a/moving_mean",
          "shape": [
            64
          ],
          "dtype": "float32"
        },
        {
          "name": "bn2a_branch2a/moving_variance",
          "shape": [
            64
          ],
          "dtype": "float32"
        },
        {
          "name": "bn2a_branch2b/gamma",
          "shape": [
            64
          ],
          "dtype": "float32"
        },
        {
          "name": "bn2a_branch2b/beta",
          "shape": [
            64
          ],
          "dtype": "float32"
        },
        {
          "name": "bn2a_branch2b/moving_mean",
          "shape": [
            64
          ],
          "dtype": "float32"
        },
        {
          "name": "bn2a_branch2b/moving_variance",
          "shape": [
            64
          ],
          "dtype": "float32"
        },
        {
          "name": "bn2a_branch2c/gamma",
          "shape": [
            256
          ],
          "dtype": "float32"
        },
        {
          "name": "bn2a_branch2c/beta",
          "shape": [
            256
          ],
          "dtype": "float32"
        },
        {
          "name": "bn2a_branch2c/moving_mean",
          "shape": [
            256
          ],
          "dtype": "float32"
        },
        {
          "name": "bn2a_branch2c/moving_variance",
          "shape": [
            256
          ],
          "dtype": "float32"
        },
        {
          "name": "bn2b_branch2a/gamma",
          "shape": [
            64
          ],
          "dtype": "float32"
        },
        {
          "name": "bn2b_branch2a/beta",
          "shape": [
            64
          ],
          "dtype": "float32"
        },
        {
          "name": "bn2b_branch2a/moving_mean",
          "shape": [
            64
          ],
          "dtype": "float32"
        },
        {
          "name": "bn2b_branch2a/moving_variance",
          "shape": [
            64
          ],
          "dtype": "float32"
        },
        {
          "name": "bn2b_branch2b/gamma",
          "shape": [
            64
          ],
          "dtype": "float32"
        },
        {
          "name": "bn2b_branch2b/beta",
          "shape": [
            64
          ],
          "dtype": "float32"
        },
        {
          "name": "bn2b_branch2b/moving_mean",
          "shape": [
            64
          ],
          "dtype": "float32"
        },
        {
          "name": "bn2b_branch2b/moving_variance",
          "shape": [
            64
          ],
          "dtype": "float32"
        },
        {
          "name": "bn2b_branch2c/gamma",
          "shape": [
            256
          ],
          "dtype": "float32"
        },
        {
          "name": "bn2b_branch2c/beta",
          "shape": [
            256
          ],
          "dtype": "float32"
        },
        {
          "name": "bn2b_branch2c/moving_mean",
          "shape": [
            256
          ],
          "dtype": "float32"
        },
        {
          "name": "bn2b_branch2c/moving_variance",
          "shape": [
            256
          ],
          "dtype": "float32"
        },
        {
          "name": "bn2c_branch2a/gamma",
          "shape": [
            64
          ],
          "dtype": "float32"
        },
        {
          "name": "bn2c_branch2a/beta",
          "shape": [
            64
          ],
          "dtype": "float32"
        },
        {
          "name": "bn2c_branch2a/moving_mean",
          "shape": [
            64
          ],
          "dtype": "float32"
        },
        {
          "name": "bn2c_branch2a/moving_variance",
          "shape": [
            64
          ],
          "dtype": "float32"
        },
        {
          "name": "bn2c_branch2b/gamma",
          "shape": [
            64
          ],
          "dtype": "float32"
        },
        {
          "name": "bn2c_branch2b/beta",
          "shape": [
            64
          ],
          "dtype": "float32"
        },
        {
          "name": "bn2c_branch2b/moving_mean",
          "shape": [
            64
          ],
          "dtype": "float32"
        },
        {
          "name": "bn2c_branch2b/moving_variance",
          "shape": [
            64
          ],
          "dtype": "float32"
        },
        {
          "name": "bn2c_branch2c/gamma",
          "shape": [
            256
          ],
          "dtype": "float32"
        },
        {
          "name": "bn2c_branch2c/beta",
          "shape": [
            256
          ],
          "dtype": "float32"
        },
        {
          "name": "bn2c_branch2c/moving_mean",
          "shape": [
            256
          ],
          "dtype": "float32"
        },
        {
          "name": "bn2c_branch2c/moving_variance",
          "shape": [
            256
          ],
          "dtype": "float32"
        },
        {
          "name": "bn3a_branch1/gamma",
          "shape": [
            512
          ],
          "dtype": "float32"
        },
        {
          "name": "bn3a_branch1/beta",
          "shape": [
            512
          ],
          "dtype": "float32"
        },
        {
          "name": "bn3a_branch1/moving_mean",
          "shape": [
            512
          ],
          "dtype": "float32"
        },
        {
          "name": "bn3a_branch1/moving_variance",
          "shape": [
            512
          ],
          "dtype": "float32"
        },
        {
          "name": "bn3a_branch2a/gamma",
          "shape": [
            128
          ],
          "dtype": "float32"
        },
        {
          "name": "bn3a_branch2a/beta",
          "shape": [
            128
          ],
          "dtype": "float32"
        },
        {
          "name": "bn3a_branch2a/moving_mean",
          "shape": [
            128
          ],
          "dtype": "float32"
        },
        {
          "name": "bn3a_branch2a/moving_variance",
          "shape": [
            128
          ],
          "dtype": "float32"
        },
        {
          "name": "bn3a_branch2b/gamma",
          "shape": [
            128
          ],
          "dtype": "float32"
        },
        {
          "name": "bn3a_branch2b/beta",
          "shape": [
            128
          ],
          "dtype": "float32"
        },
        {
          "name": "bn3a_branch2b/moving_mean",
          "shape": [
            128
          ],
          "dtype": "float32"
        },
        {
          "name": "bn3a_branch2b/moving_variance",
          "shape": [
            128
          ],
          "dtype": "float32"
        },
        {
          "name": "bn3a_branch2c/gamma",
          "shape": [
            512
          ],
          "dtype": "float32"
        },
        {
          "name": "bn3a_branch2c/beta",
          "shape": [
            512
          ],
          "dtype": "float32"
        },
        {
          "name": "bn3a_branch2c/moving_mean",
          "shape": [
            512
          ],
          "dtype": "float32"
        },
        {
          "name": "bn3a_branch2c/moving_variance",
          "shape": [
            512
          ],
          "dtype": "float32"
        },
        {
          "name": "bn3b_branch2a/gamma",
          "shape": [
            128
          ],
          "dtype": "float32"
        },
        {
          "name": "bn3b_branch2a/beta",
          "shape": [
            128
          ],
          "dtype": "float32"
        },
        {
          "name": "bn3b_branch2a/moving_mean",
          "shape": [
            128
          ],
          "dtype": "float32"
        },
        {
          "name": "bn3b_branch2a/moving_variance",
          "shape": [
            128
          ],
          "dtype": "float32"
        },
        {
          "name": "bn3b_branch2b/gamma",
          "shape": [
            128
          ],
          "dtype": "float32"
        },
        {
          "name": "bn3b_branch2b/beta",
          "shape": [
            128
          ],
          "dtype": "float32"
        },
        {
          "name": "bn3b_branch2b/moving_mean",
          "shape": [
            128
          ],
          "dtype": "float32"
        },
        {
          "name": "bn3b_branch2b/moving_variance",
          "shape": [
            128
          ],
          "dtype": "float32"
        },
        {
          "name": "bn3b_branch2c/gamma",
          "shape": [
            512
          ],
          "dtype": "float32"
        },
        {
          "name": "bn3b_branch2c/beta",
          "shape": [
            512
          ],
          "dtype": "float32"
        },
        {
          "name": "bn3b_branch2c/moving_mean",
          "shape": [
            512
          ],
          "dtype": "float32"
        },
        {
          "name": "bn3b_branch2c/moving_variance",
          "shape": [
            512
          ],
          "dtype": "float32"
        },
        {
          "name": "bn3c_branch2a/gamma",
          "shape": [
            128
          ],
          "dtype": "float32"
        },
        {
          "name": "bn3c_branch2a/beta",
          "shape": [
            128
          ],
          "dtype": "float32"
        },
        {
          "name": "bn3c_branch2a/moving_mean",
          "shape": [
            128
          ],
          "dtype": "float32"
        },
        {
          "name": "bn3c_branch2a/moving_variance",
          "shape": [
            128
          ],
          "dtype": "float32"
        },
        {
          "name": "bn3c_branch2b/gamma",
          "shape": [
            128
          ],
          "dtype": "float32"
        },
        {
          "name": "bn3c_branch2b/beta",
          "shape": [
            128
          ],
          "dtype": "float32"
        },
        {
          "name": "bn3c_branch2b/moving_mean",
          "shape": [
            128
          ],
          "dtype": "float32"
        },
        {
          "name": "bn3c_branch2b/moving_variance",
          "shape": [
            128
          ],
          "dtype": "float32"
        },
        {
          "name": "bn3c_branch2c/gamma",
          "shape": [
            512
          ],
          "dtype": "float32"
        },
        {
          "name": "bn3c_branch2c/beta",
          "shape": [
            512
          ],
          "dtype": "float32"
        },
        {
          "name": "bn3c_branch2c/moving_mean",
          "shape": [
            512
          ],
          "dtype": "float32"
        },
        {
          "name": "bn3c_branch2c/moving_variance",
          "shape": [
            512
          ],
          "dtype": "float32"
        },
        {
          "name": "bn3d_branch2a/gamma",
          "shape": [
            128
          ],
          "dtype": "float32"
        },
        {
          "name": "bn3d_branch2a/beta",
          "shape": [
            128
          ],
          "dtype": "float32"
        },
        {
          "name": "bn3d_branch2a/moving_mean",
          "shape": [
            128
          ],
          "dtype": "float32"
        },
        {
          "name": "bn3d_branch2a/moving_variance",
          "shape": [
            128
          ],
          "dtype": "float32"
        },
        {
          "name": "bn3d_branch2b/gamma",
          "shape": [
            128
          ],
          "dtype": "float32"
        },
        {
          "name": "bn3d_branch2b/beta",
          "shape": [
            128
          ],
          "dtype": "float32"
        },
        {
          "name": "bn3d_branch2b/moving_mean",
          "shape": [
            128
          ],
          "dtype": "float32"
        },
        {
          "name": "bn3d_branch2b/moving_variance",
          "shape": [
            128
          ],
          "dtype": "float32"
        },
        {
          "name": "bn3d_branch2c/gamma",
          "shape": [
            512
          ],
          "dtype": "float32"
        },
        {
          "name": "bn3d_branch2c/beta",
          "shape": [
            512
          ],
          "dtype": "float32"
        },
        {
          "name": "bn3d_branch2c/moving_mean",
          "shape": [
            512
          ],
          "dtype": "float32"
        },
        {
          "name": "bn3d_branch2c/moving_variance",
          "shape": [
            512
          ],
          "dtype": "float32"
        },
        {
          "name": "bn4a_branch1/gamma",
          "shape": [
            1024
          ],
          "dtype": "float32"
        },
        {
          "name": "bn4a_branch1/beta",
          "shape": [
            1024
          ],
          "dtype": "float32"
        },
        {
          "name": "bn4a_branch1/moving_mean",
          "shape": [
            1024
          ],
          "dtype": "float32"
        },
        {
          "name": "bn4a_branch1/moving_variance",
          "shape": [
            1024
          ],
          "dtype": "float32"
        },
        {
          "name": "bn4a_branch2a/gamma",
          "shape": [
            256
          ],
          "dtype": "float32"
        },
        {
          "name": "bn4a_branch2a/beta",
          "shape": [
            256
          ],
          "dtype": "float32"
        },
        {
          "name": "bn4a_branch2a/moving_mean",
          "shape": [
            256
          ],
          "dtype": "float32"
        },
        {
          "name": "bn4a_branch2a/moving_variance",
          "shape": [
            256
          ],
          "dtype": "float32"
        },
        {
          "name": "bn4a_branch2b/gamma",
          "shape": [
            256
          ],
          "dtype": "float32"
        },
        {
          "name": "bn4a_branch2b/beta",
          "shape": [
            256
          ],
          "dtype": "float32"
        },
        {
          "name": "bn4a_branch2b/moving_mean",
          "shape": [
            256
          ],
          "dtype": "float32"
        },
        {
          "name": "bn4a_branch2b/moving_variance",
          "shape": [
            256
          ],
          "dtype": "float32"
        },
        {
          "name": "bn4a_branch2c/gamma",
          "shape": [
            1024
          ],
          "dtype": "float32"
        },
        {
          "name": "bn4a_branch2c/beta",
          "shape": [
            1024
          ],
          "dtype": "float32"
        },
        {
          "name": "bn4a_branch2c/moving_mean",
          "shape": [
            1024
          ],
          "dtype": "float32"
        },
        {
          "name": "bn4a_branch2c/moving_variance",
          "shape": [
            1024
          ],
          "dtype": "float32"
        },
        {
          "name": "bn4b_branch2a/gamma",
          "shape": [
            256
          ],
          "dtype": "float32"
        },
        {
          "name": "bn4b_branch2a/beta",
          "shape": [
            256
          ],
          "dtype": "float32"
        },
        {
          "name": "bn4b_branch2a/moving_mean",
          "shape": [
            256
          ],
          "dtype": "float32"
        },
        {
          "name": "bn4b_branch2a/moving_variance",
          "shape": [
            256
          ],
          "dtype": "float32"
        },
        {
          "name": "bn4b_branch2b/gamma",
          "shape": [
            256
          ],
          "dtype": "float32"
        },
        {
          "name": "bn4b_branch2b/beta",
          "shape": [
            256
          ],
          "dtype": "float32"
        },
        {
          "name": "bn4b_branch2b/moving_mean",
          "shape": [
            256
          ],
          "dtype": "float32"
        },
        {
          "name": "bn4b_branch2b/moving_variance",
          "shape": [
            256
          ],
          "dtype": "float32"
        },
        {
          "name": "bn4b_branch2c/gamma",
          "shape": [
            1024
          ],
          "dtype": "float32"
        },
        {
          "name": "bn4b_branch2c/beta",
          "shape": [
            1024
          ],
          "dtype": "float32"
        },
        {
          "name": "bn4b_branch2c/moving_mean",
          "shape": [
            1024
          ],
          "dtype": "float32"
        },
        {
          "name": "bn4b_branch2c/moving_variance",
          "shape": [
            1024
          ],
          "dtype": "float32"
        },
        {
          "name": "bn4c_branch2a/gamma",
          "shape": [
            256
          ],
          "dtype": "float32"
        },
        {
          "name": "bn4c_branch2a/beta",
          "shape": [
            256
          ],
          "dtype": "float32"
        },
        {
          "name": "bn4c_branch2a/moving_mean",
          "shape": [
            256
          ],
          "dtype": "float32"
        },
        {
          "name": "bn4c_branch2a/moving_variance",
          "shape": [
            256
          ],
          "dtype": "float32"
        },
        {
          "name": "bn4c_branch2b/gamma",
          "shape": [
            256
          ],
          "dtype": "float32"
        },
        {
          "name": "bn4c_branch2b/beta",
          "shape": [
            256
          ],
          "dtype": "float32"
        },
        {
          "name": "bn4c_branch2b/moving_mean",
          "shape": [
            256
          ],
          "dtype": "float32"
        },
        {
          "name": "bn4c_branch2b/moving_variance",
          "shape": [
            256
          ],
          "dtype": "float32"
        },
        {
          "name": "bn4c_branch2c/gamma",
          "shape": [
            1024
          ],
          "dtype": "float32"
        },
        {
          "name": "bn4c_branch2c/beta",
          "shape": [
            1024
          ],
          "dtype": "float32"
        },
        {
          "name": "bn4c_branch2c/moving_mean",
          "shape": [
            1024
          ],
          "dtype": "float32"
        },
        {
          "name": "bn4c_branch2c/moving_variance",
          "shape": [
            1024
          ],
          "dtype": "float32"
        },
        {
          "name": "bn4d_branch2a/gamma",
          "shape": [
            256
          ],
          "dtype": "float32"
        },
        {
          "name": "bn4d_branch2a/beta",
          "shape": [
            256
          ],
          "dtype": "float32"
        },
        {
          "name": "bn4d_branch2a/moving_mean",
          "shape": [
            256
          ],
          "dtype": "float32"
        },
        {
          "name": "bn4d_branch2a/moving_variance",
          "shape": [
            256
          ],
          "dtype": "float32"
        },
        {
          "name": "bn4d_branch2b/gamma",
          "shape": [
            256
          ],
          "dtype": "float32"
        },
        {
          "name": "bn4d_branch2b/beta",
          "shape": [
            256
          ],
          "dtype": "float32"
        },
        {
          "name": "bn4d_branch2b/moving_mean",
          "shape": [
            256
          ],
          "dtype": "float32"
        },
        {
          "name": "bn4d_branch2b/moving_variance",
          "shape": [
            256
          ],
          "dtype": "float32"
        },
        {
          "name": "bn4d_branch2c/gamma",
          "shape": [
            1024
          ],
          "dtype": "float32"
        },
        {
          "name": "bn4d_branch2c/beta",
          "shape": [
            1024
          ],
          "dtype": "float32"
        },
        {
          "name": "bn4d_branch2c/moving_mean",
          "shape": [
            1024
          ],
          "dtype": "float32"
        },
        {
          "name": "bn4d_branch2c/moving_variance",
          "shape": [
            1024
          ],
          "dtype": "float32"
        },
        {
          "name": "bn4e_branch2a/gamma",
          "shape": [
            256
          ],
          "dtype": "float32"
        },
        {
          "name": "bn4e_branch2a/beta",
          "shape": [
            256
          ],
          "dtype": "float32"
        },
        {
          "name": "bn4e_branch2a/moving_mean",
          "shape": [
            256
          ],
          "dtype": "float32"
        },
        {
          "name": "bn4e_branch2a/moving_variance",
          "shape": [
            256
          ],
          "dtype": "float32"
        },
        {
          "name": "bn4e_branch2b/gamma",
          "shape": [
            256
          ],
          "dtype": "float32"
        },
        {
          "name": "bn4e_branch2b/beta",
          "shape": [
            256
          ],
          "dtype": "float32"
        },
        {
          "name": "bn4e_branch2b/moving_mean",
          "shape": [
            256
          ],
          "dtype": "float32"
        },
        {
          "name": "bn4e_branch2b/moving_variance",
          "shape": [
            256
          ],
          "dtype": "float32"
        },
        {
          "name": "bn4e_branch2c/gamma",
          "shape": [
            1024
          ],
          "dtype": "float32"
        },
        {
          "name": "bn4e_branch2c/beta",
          "shape": [
            1024
          ],
          "dtype": "float32"
        },
        {
          "name": "bn4e_branch2c/moving_mean",
          "shape": [
            1024
          ],
          "dtype": "float32"
        },
        {
          "name": "bn4e_branch2c/moving_variance",
          "shape": [
            1024
          ],
          "dtype": "float32"
        },
        {
          "name": "bn4f_branch2a/gamma",
          "shape": [
            256
          ],
          "dtype": "float32"
        },
        {
          "name": "bn4f_branch2a/beta",
          "shape": [
            256
          ],
          "dtype": "float32"
        },
        {
          "name": "bn4f_branch2a/moving_mean",
          "shape": [
            256
          ],
          "dtype": "float32"
        },
        {
          "name": "bn4f_branch2a/moving_variance",
          "shape": [
            256
          ],
          "dtype": "float32"
        },
        {
          "name": "bn4f_branch2b/gamma",
          "shape": [
            256
          ],
          "dtype": "float32"
        },
        {
          "name": "bn4f_branch2b/beta",
          "shape": [
            256
          ],
          "dtype": "float32"
        },
        {
          "name": "bn4f_branch2b/moving_mean",
          "shape": [
            256
          ],
          "dtype": "float32"
        },
        {
          "name": "bn4f_branch2b/moving_variance",
          "shape": [
            256
          ],
          "dtype": "float32"
        },
        {
          "name": "bn4f_branch2c/gamma",
          "shape": [
            1024
          ],
          "dtype": "float32"
        },
        {
          "name": "bn4f_branch2c/beta",
          "shape": [
            1024
          ],
          "dtype": "float32"
        },
        {
          "name": "bn4f_branch2c/moving_mean",
          "shape": [
            1024
          ],
          "dtype": "float32"
        },
        {
          "name": "bn4f_branch2c/moving_variance",
          "shape": [
            1024
          ],
          "dtype": "float32"
        },
        {
          "name": "bn5a_branch1/gamma",
          "shape": [
            2048
          ],
          "dtype": "float32"
        },
        {
          "name": "bn5a_branch1/beta",
          "shape": [
            2048
          ],
          "dtype": "float32"
        },
        {
          "name": "bn5a_branch1/moving_mean",
          "shape": [
            2048
          ],
          "dtype": "float32"
        },
        {
          "name": "bn5a_branch1/moving_variance",
          "shape": [
            2048
          ],
          "dtype": "float32"
        },
        {
          "name": "bn5a_branch2a/gamma",
          "shape": [
            512
          ],
          "dtype": "float32"
        },
        {
          "name": "bn5a_branch2a/beta",
          "shape": [
            512
          ],
          "dtype": "float32"
        },
        {
          "name": "bn5a_branch2a/moving_mean",
          "shape": [
            512
          ],
          "dtype": "float32"
        },
        {
          "name": "bn5a_branch2a/moving_variance",
          "shape": [
            512
          ],
          "dtype": "float32"
        },
        {
          "name": "bn5a_branch2b/gamma",
          "shape": [
            512
          ],
          "dtype": "float32"
        },
        {
          "name": "bn5a_branch2b/beta",
          "shape": [
            512
          ],
          "dtype": "float32"
        },
        {
          "name": "bn5a_branch2b/moving_mean",
          "shape": [
            512
          ],
          "dtype": "float32"
        },
        {
          "name": "bn5a_branch2b/moving_variance",
          "shape": [
            512
          ],
          "dtype": "float32"
        },
        {
          "name": "bn5a_branch2c/gamma",
          "shape": [
            2048
          ],
          "dtype": "float32"
        },
        {
          "name": "bn5a_branch2c/beta",
          "shape": [
            2048
          ],
          "dtype": "float32"
        },
        {
          "name": "bn5a_branch2c/moving_mean",
          "shape": [
            2048
          ],
          "dtype": "float32"
        },
        {
          "name": "bn5a_branch2c/moving_variance",
          "shape": [
            2048
          ],
          "dtype": "float32"
        },
        {
          "name": "bn5b_branch2a/gamma",
          "shape": [
            512
          ],
          "dtype": "float32"
        },
        {
          "name": "bn5b_branch2a/beta",
          "shape": [
            512
          ],
          "dtype": "float32"
        },
        {
          "name": "bn5b_branch2a/moving_mean",
          "shape": [
            512
          ],
          "dtype": "float32"
        },
        {
          "name": "bn5b_branch2a/moving_variance",
          "shape": [
            512
          ],
          "dtype": "float32"
        },
        {
          "name": "bn5b_branch2b/gamma",
          "shape": [
            512
          ],
          "dtype": "float32"
        },
        {
          "name": "bn5b_branch2b/beta",
          "shape": [
            512
          ],
          "dtype": "float32"
        },
        {
          "name": "bn5b_branch2b/moving_mean",
          "shape": [
            512
          ],
          "dtype": "float32"
        },
        {
          "name": "bn5b_branch2b/moving_variance",
          "shape": [
            512
          ],
          "dtype": "float32"
        },
        {
          "name": "bn5b_branch2c/gamma",
          "shape": [
            2048
          ],
          "dtype": "float32"
        },
        {
          "name": "bn5b_branch2c/beta",
          "shape": [
            2048
          ],
          "dtype": "float32"
        },
        {
          "name": "bn5b_branch2c/moving_mean",
          "shape": [
            2048
          ],
          "dtype": "float32"
        },
        {
          "name": "bn5b_branch2c/moving_variance",
          "shape": [
            2048
          ],
          "dtype": "float32"
        },
        {
          "name": "bn5c_branch2a/gamma",
          "shape": [
            512
          ],
          "dtype": "float32"
        },
        {
          "name": "bn5c_branch2a/beta",
          "shape": [
            512
          ],
          "dtype": "float32"
        },
        {
          "name": "bn5c_branch2a/moving_mean",
          "shape": [
            512
          ],
          "dtype": "float32"
        },
        {
          "name": "bn5c_branch2a/moving_variance",
          "shape": [
            512
          ],
          "dtype": "float32"
        },
        {
          "name": "bn5c_branch2b/gamma",
          "shape": [
            512
          ],
          "dtype": "float32"
        },
        {
          "name": "bn5c_branch2b/beta",
          "shape": [
            512
          ],
          "dtype": "float32"
        },
        {
          "name": "bn5c_branch2b/moving_mean",
          "shape": [
            512
          ],
          "dtype": "float32"
        },
        {
          "name": "bn5c_branch2b/moving_variance",
          "shape": [
            512
          ],
          "dtype": "float32"
        },
        {
          "name": "bn5c_branch2c/gamma",
          "shape": [
            2048
          ],
          "dtype": "float32"
        },
        {
          "name": "bn5c_branch2c/beta",
          "shape": [
            2048
          ],
          "dtype": "float32"
        },
        {
          "name": "bn5c_branch2c/moving_mean",
          "shape": [
            2048
          ],
          "dtype": "float32"
        },
        {
          "name": "bn5c_branch2c/moving_variance",
          "shape": [
            2048
          ],
          "dtype": "float32"
        },
        {
          "name": "bn_conv1/gamma",
          "shape": [
            64
          ],
          "dtype": "float32"
        },
        {
          "name": "bn_conv1/beta",
          "shape": [
            64
          ],
          "dtype": "float32"
        },
        {
          "name": "bn_conv1/moving_mean",
          "shape": [
            64
          ],
          "dtype": "float32"
        },
        {
          "name": "bn_conv1/moving_variance",
          "shape": [
            64
          ],
          "dtype": "float32"
        },
        {
          "name": "conv1/kernel",
          "shape": [
            7,
            7,
            3,
            64
          ],
          "dtype": "float32"
        },
        {
          "name": "conv1/bias",
          "shape": [
            64
          ],
          "dtype": "float32"
        },
        {
          "name": "fc1000/kernel",
          "shape": [
            2048,
            1000
          ],
          "dtype": "float32"
        },
        {
          "name": "fc1000/bias",
          "shape": [
            1000
          ],
          "dtype": "float32"
        },
        {
          "name": "res2a_branch1/kernel",
          "shape": [
            1,
            1,
            64,
            256
          ],
          "dtype": "float32"
        },
        {
          "name": "res2a_branch1/bias",
          "shape": [
            256
          ],
          "dtype": "float32"
        },
        {
          "name": "res2a_branch2a/kernel",
          "shape": [
            1,
            1,
            64,
            64
          ],
          "dtype": "float32"
        },
        {
          "name": "res2a_branch2a/bias",
          "shape": [
            64
          ],
          "dtype": "float32"
        },
        {
          "name": "res2a_branch2b/kernel",
          "shape": [
            3,
            3,
            64,
            64
          ],
          "dtype": "float32"
        },
        {
          "name": "res2a_branch2b/bias",
          "shape": [
            64
          ],
          "dtype": "float32"
        },
        {
          "name": "res2a_branch2c/kernel",
          "shape": [
            1,
            1,
            64,
            256
          ],
          "dtype": "float32"
        },
        {
          "name": "res2a_branch2c/bias",
          "shape": [
            256
          ],
          "dtype": "float32"
        },
        {
          "name": "res2b_branch2a/kernel",
          "shape": [
            1,
            1,
            256,
            64
          ],
          "dtype": "float32"
        },
        {
          "name": "res2b_branch2a/bias",
          "shape": [
            64
          ],
          "dtype": "float32"
        },
        {
          "name": "res2b_branch2b/kernel",
          "shape": [
            3,
            3,
            64,
            64
          ],
          "dtype": "float32"
        },
        {
          "name": "res2b_branch2b/bias",
          "shape": [
            64
          ],
          "dtype": "float32"
        },
        {
          "name": "res2b_branch2c/kernel",
          "shape": [
            1,
            1,
            64,
            256
          ],
          "dtype": "float32"
        },
        {
          "name": "res2b_branch2c/bias",
          "shape": [
            256
          ],
          "dtype": "float32"
        },
        {
          "name": "res2c_branch2a/kernel",
          "shape": [
            1,
            1,
            256,
            64
          ],
          "dtype": "float32"
        },
        {
          "name": "res2c_branch2a/bias",
          "shape": [
            64
          ],
          "dtype": "float32"
        },
        {
          "name": "res2c_branch2b/kernel",
          "shape": [
            3,
            3,
            64,
            64
          ],
          "dtype": "float32"
        },
        {
          "name": "res2c_branch2b/bias",
          "shape": [
            64
          ],
          "dtype": "float32"
        },
        {
          "name": "res2c_branch2c/kernel",
          "shape": [
            1,
            1,
            64,
            256
          ],
          "dtype": "float32"
        },
        {
          "name": "res2c_branch2c/bias",
          "shape": [
            256
          ],
          "dtype": "float32"
        },
        {
          "name": "res3a_branch1/kernel",
          "shape": [
            1,
            1,
            256,
            512
          ],
          "dtype": "float32"
        },
        {
          "name": "res3a_branch1/bias",
          "shape": [
            512
          ],
          "dtype": "float32"
        },
        {
          "name": "res3a_branch2a/kernel",
          "shape": [
            1,
            1,
            256,
            128
          ],
          "dtype": "float32"
        },
        {
          "name": "res3a_branch2a/bias",
          "shape": [
            128
          ],
          "dtype": "float32"
        },
        {
          "name": "res3a_branch2b/kernel",
          "shape": [
            3,
            3,
            128,
            128
          ],
          "dtype": "float32"
        },
        {
          "name": "res3a_branch2b/bias",
          "shape": [
            128
          ],
          "dtype": "float32"
        },
        {
          "name": "res3a_branch2c/kernel",
          "shape": [
            1,
            1,
            128,
            512
          ],
          "dtype": "float32"
        },
        {
          "name": "res3a_branch2c/bias",
          "shape": [
            512
          ],
          "dtype": "float32"
        },
        {
          "name": "res3b_branch2a/kernel",
          "shape": [
            1,
            1,
            512,
            128
          ],
          "dtype": "float32"
        },
        {
          "name": "res3b_branch2a/bias",
          "shape": [
            128
          ],
          "dtype": "float32"
        },
        {
          "name": "res3b_branch2b/kernel",
          "shape": [
            3,
            3,
            128,
            128
          ],
          "dtype": "float32"
        },
        {
          "name": "res3b_branch2b/bias",
          "shape": [
            128
          ],
          "dtype": "float32"
        },
        {
          "name": "res3b_branch2c/kernel",
          "shape": [
            1,
            1,
            128,
            512
          ],
          "dtype": "float32"
        },
        {
          "name": "res3b_branch2c/bias",
          "shape": [
            512
          ],
          "dtype": "float32"
        },
        {
          "name": "res3c_branch2a/kernel",
          "shape": [
            1,
            1,
            512,
            128
          ],
          "dtype": "float32"
        },
        {
          "name": "res3c_branch2a/bias",
          "shape": [
            128
          ],
          "dtype": "float32"
        },
        {
          "name": "res3c_branch2b/kernel",
          "shape": [
            3,
            3,
            128,
            128
          ],
          "dtype": "float32"
        },
        {
          "name": "res3c_branch2b/bias",
          "shape": [
            128
          ],
          "dtype": "float32"
        },
        {
          "name": "res3c_branch2c/kernel",
          "shape": [
            1,
            1,
            128,
            512
          ],
          "dtype": "float32"
        },
        {
          "name": "res3c_branch2c/bias",
          "shape": [
            512
          ],
          "dtype": "float32"
        },
        {
          "name": "res3d_branch2a/kernel",
          "shape": [
            1,
            1,
            512,
            128
          ],
          "dtype": "float32"
        },
        {
          "name": "res3d_branch2a/bias",
          "shape": [
            128
          ],
          "dtype": "float32"
        },
        {
          "name": "res3d_branch2b/kernel",
          "shape": [
            3,
            3,
            128,
            128
          ],
          "dtype": "float32"
        },
        {
          "name": "res3d_branch2b/bias",
          "shape": [
            128
          ],
          "dtype": "float32"
        },
        {
          "name": "res3d_branch2c/kernel",
          "shape": [
            1,
            1,
            128,
            512
          ],
          "dtype": "float32"
        },
        {
          "name": "res3d_branch2c/bias",
          "shape": [
            512
          ],
          "dtype": "float32"
        },
        {
          "name": "res4a_branch1/kernel",
          "shape": [
            1,
            1,
            512,
            1024
          ],
          "dtype": "float32"
        },
        {
          "name": "res4a_branch1/bias",
          "shape": [
            1024
          ],
          "dtype": "float32"
        },
        {
          "name": "res4a_branch2a/kernel",
          "shape": [
            1,
            1,
            512,
            256
          ],
          "dtype": "float32"
        },
        {
          "name": "res4a_branch2a/bias",
          "shape": [
            256
          ],
          "dtype": "float32"
        },
        {
          "name": "res4a_branch2b/kernel",
          "shape": [
            3,
            3,
            256,
            256
          ],
          "dtype": "float32"
        },
        {
          "name": "res4a_branch2b/bias",
          "shape": [
            256
          ],
          "dtype": "float32"
        },
        {
          "name": "res4a_branch2c/kernel",
          "shape": [
            1,
            1,
            256,
            1024
          ],
          "dtype": "float32"
        },
        {
          "name": "res4a_branch2c/bias",
          "shape": [
            1024
          ],
          "dtype": "float32"
        },
        {
          "name": "res4b_branch2a/kernel",
          "shape": [
            1,
            1,
            1024,
            256
          ],
          "dtype": "float32"
        },
        {
          "name": "res4b_branch2a/bias",
          "shape": [
            256
          ],
          "dtype": "float32"
        },
        {
          "name": "res4b_branch2b/kernel",
          "shape": [
            3,
            3,
            256,
            256
          ],
          "dtype": "float32"
        },
        {
          "name": "res4b_branch2b/bias",
          "shape": [
            256
          ],
          "dtype": "float32"
        },
        {
          "name": "res4b_branch2c/kernel",
          "shape": [
            1,
            1,
            256,
            1024
          ],
          "dtype": "float32"
        },
        {
          "name": "res4b_branch2c/bias",
          "shape": [
            1024
          ],
          "dtype": "float32"
        },
        {
          "name": "res4c_branch2a/kernel",
          "shape": [
            1,
            1,
            1024,
            256
          ],
          "dtype": "float32"
        },
        {
          "name": "res4c_branch2a/bias",
          "shape": [
            256
          ],
          "dtype": "float32"
        },
        {
          "name": "res4c_branch2b/kernel",
          "shape": [
            3,
            3,
            256,
            256
          ],
          "dtype": "float32"
        },
        {
          "name": "res4c_branch2b/bias",
          "shape": [
            256
          ],
          "dtype": "float32"
        },
        {
          "name": "res4c_branch2c/kernel",
          "shape": [
            1,
            1,
            256,
            1024
          ],
          "dtype": "float32"
        },
        {
          "name": "res4c_branch2c/bias",
          "shape": [
            1024
          ],
          "dtype": "float32"
        },
        {
          "name": "res4d_branch2a/kernel",
          "shape": [
            1,
            1,
            1024,
            256
          ],
          "dtype": "float32"
        },
        {
          "name": "res4d_branch2a/bias",
          "shape": [
            256
          ],
          "dtype": "float32"
        },
        {
          "name": "res4d_branch2b/kernel",
          "shape": [
            3,
            3,
            256,
            256
          ],
          "dtype": "float32"
        },
        {
          "name": "res4d_branch2b/bias",
          "shape": [
            256
          ],
          "dtype": "float32"
        },
        {
          "name": "res4d_branch2c/kernel",
          "shape": [
            1,
            1,
            256,
            1024
          ],
          "dtype": "float32"
        },
        {
          "name": "res4d_branch2c/bias",
          "shape": [
            1024
          ],
          "dtype": "float32"
        },
        {
          "name": "res4e_branch2a/kernel",
          "shape": [
            1,
            1,
            1024,
            256
          ],
          "dtype": "float32"
        },
        {
          "name": "res4e_branch2a/bias",
          "shape": [
            256
          ],
          "dtype": "float32"
        },
        {
          "name": "res4e_branch2b/kernel",
          "shape": [
            3,
            3,
            256,
            256
          ],
          "dtype": "float32"
        },
        {
          "name": "res4e_branch2b/bias",
          "shape": [
            256
          ],
          "dtype": "float32"
        },
        {
          "name": "res4e_branch2c/kernel",
          "shape": [
            1,
            1,
            256,
            1024
          ],
          "dtype": "float32"
        },
        {
          "name": "res4e_branch2c/bias",
          "shape": [
            1024
          ],
          "dtype": "float32"
        },
        {
          "name": "res4f_branch2a/kernel",
          "shape": [
            1,
            1,
            1024,
            256
          ],
          "dtype": "float32"
        },
        {
          "name": "res4f_branch2a/bias",
          "shape": [
            256
          ],
          "dtype": "float32"
        },
        {
          "name": "res4f_branch2b/kernel",
          "shape": [
            3,
            3,
            256,
            256
          ],
          "dtype": "float32"
        },
        {
          "name": "res4f_branch2b/bias",
          "shape": [
            256
          ],
          "dtype": "float32"
        },
        {
          "name": "res4f_branch2c/kernel",
          "shape": [
            1,
            1,
            256,
            1024
          ],
          "dtype": "float32"
        },
        {
          "name": "res4f_branch2c/bias",
          "shape": [
            1024
          ],
          "dtype": "float32"
        },
        {
          "name": "res5a_branch1/kernel",
          "shape": [
            1,
            1,
            1024,
            2048
          ],
          "dtype": "float32"
        },
        {
          "name": "res5a_branch1/bias",
          "shape": [
            2048
          ],
          "dtype": "float32"
        },
        {
          "name": "res5a_branch2a/kernel",
          "shape": [
            1,
            1,
            1024,
            512
          ],
          "dtype": "float32"
        },
        {
          "name": "res5a_branch2a/bias",
          "shape": [
            512
          ],
          "dtype": "float32"
        },
        {
          "name": "res5a_branch2b/kernel",
          "shape": [
            3,
            3,
            512,
            512
          ],
          "dtype": "float32"
        },
        {
          "name": "res5a_branch2b/bias",
          "shape": [
            512
          ],
          "dtype": "float32"
        },
        {
          "name": "res5a_branch2c/kernel",
          "shape": [
            1,
            1,
            512,
            2048
          ],
          "dtype": "float32"
        },
        {
          "name": "res5a_branch2c/bias",
          "shape": [
            2048
          ],
          "dtype": "float32"
        },
        {
          "name": "res5b_branch2a/kernel",
          "shape": [
            1,
            1,
            2048,
            512
          ],
          "dtype": "float32"
        },
        {
          "name": "res5b_branch2a/bias",
          "shape": [
            512
          ],
          "dtype": "float32"
        },
        {
          "name": "res5b_branch2b/kernel",
          "shape": [
            3,
            3,
            512,
            512
          ],
          "dtype": "float32"
        },
        {
          "name": "res5b_branch2b/bias",
          "shape": [
            512
          ],
          "dtype": "float32"
        },
        {
          "name": "res5b_branch2c/kernel",
          "shape": [
            1,
            1,
            512,
            2048
          ],
          "dtype": "float32"
        },
        {
          "name": "res5b_branch2c/bias",
          "shape": [
            2048
          ],
          "dtype": "float32"
        },
        {
          "name": "res5c_branch2a/kernel",
          "shape": [
            1,
            1,
            2048,
            512
          ],
          "dtype": "float32"
        },
        {
          "name": "res5c_branch2a/bias",
          "shape": [
            512
          ],
          "dtype": "float32"
        },
        {
          "name": "res5c_branch2b/kernel",
          "shape": [
            3,
            3,
            512,
            512
          ],
          "dtype": "float32"
        },
        {
          "name": "res5c_branch2b/bias",
          "shape": [
            512
          ],
          "dtype": "float32"
        },
        {
          "name": "res5c_branch2c/kernel",
          "shape": [
            1,
            1,
            512,
            2048
          ],
          "dtype": "float32"
        },
        {
          "name": "res5c_branch2c/bias",
          "shape": [
            2048
          ],
          "dtype": "float32"
        }
      ]
    }
  ]
}