{"modelTopology": {"backend": "tensorflow", "keras_version": "2.1.6-tf", "model_config": {"config": {"output_layers": [["predictions", 0, 0]], "name": "inception_v3", "layers": [{"inbound_nodes": [], "config": {"batch_input_shape": [null, 299, 299, 3], "dtype": "float32", "name": "input_1", "sparse": false}, "name": "input_1", "class_name": "InputLayer"}, {"inbound_nodes": [[["input_1", 0, 0, {}]]], "config": {"kernel_constraint": null, "bias_constraint": null, "dilation_rate": [1, 1], "bias_initializer": {"config": {"dtype": "float32"}, "class_name": "Zeros"}, "data_format": "channels_last", "kernel_initializer": {"config": {"scale": 1.0, "distribution": "uniform", "seed": null, "mode": "fan_avg", "dtype": "float32"}, "class_name": "VarianceScaling"}, "dtype": "float32", "kernel_size": [3, 3], "kernel_regularizer": null, "activity_regularizer": null, "bias_regularizer": null, "trainable": true, "padding": "valid", "filters": 32, "name": "conv2d", "use_bias": false, "strides": [2, 2], "activation": "linear"}, "name": "conv2d", "class_name": "Conv2D"}, {"inbound_nodes": [[["conv2d", 0, 0, {}]]], "config": {"moving_variance_initializer": {"config": {"dtype": "float32"}, "class_name": "Ones"}, "beta_regularizer": null, "moving_mean_initializer": {"config": {"dtype": "float32"}, "class_name": "Zeros"}, "beta_constraint": null, "epsilon": 0.001, "axis": [3], "gamma_initializer": {"config": {"dtype": "float32"}, "class_name": "Ones"}, "beta_initializer": {"config": {"dtype": "float32"}, "class_name": "Zeros"}, "gamma_regularizer": null, "name": "batch_normalization", "gamma_constraint": null, "dtype": "float32", "trainable": true, "momentum": 0.99, "scale": false, "center": true}, "name": "batch_normalization", "class_name": "BatchNormalization"}, {"inbound_nodes": [[["batch_normalization", 0, 0, {}]]], "config": {"dtype": "float32", "name": "activation", "activation": "relu", "trainable": true}, "name": "activation", "class_name": "Activation"}, {"inbound_nodes": [[["activation", 0, 0, {}]]], "config": {"kernel_constraint": null, "bias_constraint": null, "dilation_rate": [1, 1], "bias_initializer": {"config": {"dtype": "float32"}, "class_name": "Zeros"}, "data_format": "channels_last", "kernel_initializer": {"config": {"scale": 1.0, "distribution": "uniform", "seed": null, "mode": "fan_avg", "dtype": "float32"}, "class_name": "VarianceScaling"}, "dtype": "float32", "kernel_size": [3, 3], "kernel_regularizer": null, "activity_regularizer": null, "bias_regularizer": null, "trainable": true, "padding": "valid", "filters": 32, "name": "conv2d_1", "use_bias": false, "strides": [1, 1], "activation": "linear"}, "name": "conv2d_1", "class_name": "Conv2D"}, {"inbound_nodes": [[["conv2d_1", 0, 0, {}]]], "config": {"moving_variance_initializer": {"config": {"dtype": "float32"}, "class_name": "Ones"}, "beta_regularizer": null, "moving_mean_initializer": {"config": {"dtype": "float32"}, "class_name": "Zeros"}, "beta_constraint": null, "epsilon": 0.001, "axis": [3], "gamma_initializer": {"config": {"dtype": "float32"}, "class_name": "Ones"}, "beta_initializer": {"config": {"dtype": "float32"}, "class_name": "Zeros"}, "gamma_regularizer": null, "name": "batch_normalization_1", "gamma_constraint": null, "dtype": "float32", "trainable": true, "momentum": 0.99, "scale": false, "center": true}, "name": "batch_normalization_1", "class_name": "BatchNormalization"}, {"inbound_nodes": [[["batch_normalization_1", 0, 0, {}]]], "config": {"dtype": "float32", "name": "activation_1", "activation": "relu", "trainable": true}, "name": "activation_1", "class_name": "Activation"}, {"inbound_nodes": [[["activation_1", 0, 0, {}]]], "config": {"kernel_constraint": null, "bias_constraint": null, "dilation_rate": [1, 1], "bias_initializer": {"config": {"dtype": "float32"}, "class_name": "Zeros"}, "data_format": "channels_last", "kernel_initializer": {"config": {"scale": 1.0, "distribution": "uniform", "seed": null, "mode": "fan_avg", "dtype": "float32"}, "class_name": "VarianceScaling"}, "dtype": "float32", "kernel_size": [3, 3], "kernel_regularizer": null, "activity_regularizer": null, "bias_regularizer": null, "trainable": true, "padding": "same", "filters": 64, "name": "conv2d_2", "use_bias": false, "strides": [1, 1], "activation": "linear"}, "name": "conv2d_2", "class_name": "Conv2D"}, {"inbound_nodes": [[["conv2d_2", 0, 0, {}]]], "config": {"moving_variance_initializer": {"config": {"dtype": "float32"}, "class_name": "Ones"}, "beta_regularizer": null, "moving_mean_initializer": {"config": {"dtype": "float32"}, "class_name": "Zeros"}, "beta_constraint": null, "epsilon": 0.001, "axis": [3], "gamma_initializer": {"config": {"dtype": "float32"}, "class_name": "Ones"}, "beta_initializer": {"config": {"dtype": "float32"}, "class_name": "Zeros"}, "gamma_regularizer": null, "name": "batch_normalization_2", "gamma_constraint": null, "dtype": "float32", "trainable": true, "momentum": 0.99, "scale": false, "center": true}, "name": "batch_normalization_2", "class_name": "BatchNormalization"}, {"inbound_nodes": [[["batch_normalization_2", 0, 0, {}]]], "config": {"dtype": "float32", "name": "activation_2", "activation": "relu", "trainable": true}, "name": "activation_2", "class_name": "Activation"}, {"inbound_nodes": [[["activation_2", 0, 0, {}]]], "config": {"padding": "valid", "pool_size": [3, 3], "name": "max_pooling2d", "dtype": "float32", "data_format": "channels_last", "strides": [2, 2], "trainable": true}, "name": "max_pooling2d", "class_name": "MaxPooling2D"}, {"inbound_nodes": [[["max_pooling2d", 0, 0, {}]]], "config": {"kernel_constraint": null, "bias_constraint": null, "dilation_rate": [1, 1], "bias_initializer": {"config": {"dtype": "float32"}, "class_name": "Zeros"}, "data_format": "channels_last", "kernel_initializer": {"config": {"scale": 1.0, "distribution": "uniform", "seed": null, "mode": "fan_avg", "dtype": "float32"}, "class_name": "VarianceScaling"}, "dtype": "float32", "kernel_size": [1, 1], "kernel_regularizer": null, "activity_regularizer": null, "bias_regularizer": null, "trainable": true, "padding": "valid", "filters": 80, "name": "conv2d_3", "use_bias": false, "strides": [1, 1], "activation": "linear"}, "name": "conv2d_3", "class_name": "Conv2D"}, {"inbound_nodes": [[["conv2d_3", 0, 0, {}]]], "config": {"moving_variance_initializer": {"config": {"dtype": "float32"}, "class_name": "Ones"}, "beta_regularizer": null, "moving_mean_initializer": {"config": {"dtype": "float32"}, "class_name": "Zeros"}, "beta_constraint": null, "epsilon": 0.001, "axis": [3], "gamma_initializer": {"config": {"dtype": "float32"}, "class_name": "Ones"}, "beta_initializer": {"config": {"dtype": "float32"}, "class_name": "Zeros"}, "gamma_regularizer": null, "name": "batch_normalization_3", "gamma_constraint": null, "dtype": "float32", "trainable": true, "momentum": 0.99, "scale": false, "center": true}, "name": "batch_normalization_3", "class_name": "BatchNormalization"}, {"inbound_nodes": [[["batch_normalization_3", 0, 0, {}]]], "config": {"dtype": "float32", "name": "activation_3", "activation": "relu", "trainable": true}, "name": "activation_3", "class_name": "Activation"}, {"inbound_nodes": [[["activation_3", 0, 0, {}]]], "config": {"kernel_constraint": null, "bias_constraint": null, "dilation_rate": [1, 1], "bias_initializer": {"config": {"dtype": "float32"}, "class_name": "Zeros"}, "data_format": "channels_last", "kernel_initializer": {"config": {"scale": 1.0, "distribution": "uniform", "seed": null, "mode": "fan_avg", "dtype": "float32"}, "class_name": "VarianceScaling"}, "dtype": "float32", "kernel_size": [3, 3], "kernel_regularizer": null, "activity_regularizer": null, "bias_regularizer": null, "trainable": true, "padding": "valid", "filters": 192, "name": "conv2d_4", "use_bias": false, "strides": [1, 1], "activation": "linear"}, "name": "conv2d_4", "class_name": "Conv2D"}, {"inbound_nodes": [[["conv2d_4", 0, 0, {}]]], "config": {"moving_variance_initializer": {"config": {"dtype": "float32"}, "class_name": "Ones"}, "beta_regularizer": null, "moving_mean_initializer": {"config": {"dtype": "float32"}, "class_name": "Zeros"}, "beta_constraint": null, "epsilon": 0.001, "axis": [3], "gamma_initializer": {"config": {"dtype": "float32"}, "class_name": "Ones"}, "beta_initializer": {"config": {"dtype": "float32"}, "class_name": "Zeros"}, "gamma_regularizer": null, "name": "batch_normalization_4", "gamma_constraint": null, "dtype": "float32", "trainable": true, "momentum": 0.99, "scale": false, "center": true}, "name": "batch_normalization_4", "class_name": "BatchNormalization"}, {"inbound_nodes": [[["batch_normalization_4", 0, 0, {}]]], "config": {"dtype": "float32", "name": "activation_4", "activation": "relu", "trainable": true}, "name": "activation_4", "class_name": "Activation"}, {"inbound_nodes": [[["activation_4", 0, 0, {}]]], "config": {"padding": "valid", "pool_size": [3, 3], "name": "max_pooling2d_1", "dtype": "float32", "data_format": "channels_last", "strides": [2, 2], "trainable": true}, "name": "max_pooling2d_1", "class_name": "MaxPooling2D"}, {"inbound_nodes": [[["max_pooling2d_1", 0, 0, {}]]], "config": {"kernel_constraint": null, "bias_constraint": null, "dilation_rate": [1, 1], "bias_initializer": {"config": {"dtype": "float32"}, "class_name": "Zeros"}, "data_format": "channels_last", "kernel_initializer": {"config": {"scale": 1.0, "distribution": "uniform", "seed": null, "mode": "fan_avg", "dtype": "float32"}, "class_name": "VarianceScaling"}, "dtype": "float32", "kernel_size": [1, 1], "kernel_regularizer": null, "activity_regularizer": null, "bias_regularizer": null, "trainable": true, "padding": "same", "filters": 64, "name": "conv2d_8", "use_bias": false, "strides": [1, 1], "activation": "linear"}, "name": "conv2d_8", "class_name": "Conv2D"}, {"inbound_nodes": [[["conv2d_8", 0, 0, {}]]], "config": {"moving_variance_initializer": {"config": {"dtype": "float32"}, "class_name": "Ones"}, "beta_regularizer": null, "moving_mean_initializer": {"config": {"dtype": "float32"}, "class_name": "Zeros"}, "beta_constraint": null, "epsilon": 0.001, "axis": [3], "gamma_initializer": {"config": {"dtype": "float32"}, "class_name": "Ones"}, "beta_initializer": {"config": {"dtype": "float32"}, "class_name": "Zeros"}, "gamma_regularizer": null, "name": "batch_normalization_8", "gamma_constraint": null, "dtype": "float32", "trainable": true, "momentum": 0.99, "scale": false, "center": true}, "name": "batch_normalization_8", "class_name": "BatchNormalization"}, {"inbound_nodes": [[["batch_normalization_8", 0, 0, {}]]], "config": {"dtype": "float32", "name": "activation_8", "activation": "relu", "trainable": true}, "name": "activation_8", "class_name": "Activation"}, {"inbound_nodes": [[["max_pooling2d_1", 0, 0, {}]]], "config": {"kernel_constraint": null, "bias_constraint": null, "dilation_rate": [1, 1], "bias_initializer": {"config": {"dtype": "float32"}, "class_name": "Zeros"}, "data_format": "channels_last", "kernel_initializer": {"config": {"scale": 1.0, "distribution": "uniform", "seed": null, "mode": "fan_avg", "dtype": "float32"}, "class_name": "VarianceScaling"}, "dtype": "float32", "kernel_size": [1, 1], "kernel_regularizer": null, "activity_regularizer": null, "bias_regularizer": null, "trainable": true, "padding": "same", "filters": 48, "name": "conv2d_6", "use_bias": false, "strides": [1, 1], "activation": "linear"}, "name": "conv2d_6", "class_name": "Conv2D"}, {"inbound_nodes": [[["activation_8", 0, 0, {}]]], "config": {"kernel_constraint": null, "bias_constraint": null, "dilation_rate": [1, 1], "bias_initializer": {"config": {"dtype": "float32"}, "class_name": "Zeros"}, "data_format": "channels_last", "kernel_initializer": {"config": {"scale": 1.0, "distribution": "uniform", "seed": null, "mode": "fan_avg", "dtype": "float32"}, "class_name": "VarianceScaling"}, "dtype": "float32", "kernel_size": [3, 3], "kernel_regularizer": null, "activity_regularizer": null, "bias_regularizer": null, "trainable": true, "padding": "same", "filters": 96, "name": "conv2d_9", "use_bias": false, "strides": [1, 1], "activation": "linear"}, "name": "conv2d_9", "class_name": "Conv2D"}, {"inbound_nodes": [[["conv2d_6", 0, 0, {}]]], "config": {"moving_variance_initializer": {"config": {"dtype": "float32"}, "class_name": "Ones"}, "beta_regularizer": null, "moving_mean_initializer": {"config": {"dtype": "float32"}, "class_name": "Zeros"}, "beta_constraint": null, "epsilon": 0.001, "axis": [3], "gamma_initializer": {"config": {"dtype": "float32"}, "class_name": "Ones"}, "beta_initializer": {"config": {"dtype": "float32"}, "class_name": "Zeros"}, "gamma_regularizer": null, "name": "batch_normalization_6", "gamma_constraint": null, "dtype": "float32", "trainable": true, "momentum": 0.99, "scale": false, "center": true}, "name": "batch_normalization_6", "class_name": "BatchNormalization"}, {"inbound_nodes": [[["conv2d_9", 0, 0, {}]]], "config": {"moving_variance_initializer": {"config": {"dtype": "float32"}, "class_name": "Ones"}, "beta_regularizer": null, "moving_mean_initializer": {"config": {"dtype": "float32"}, "class_name": "Zeros"}, "beta_constraint": null, "epsilon": 0.001, "axis": [3], "gamma_initializer": {"config": {"dtype": "float32"}, "class_name": "Ones"}, "beta_initializer": {"config": {"dtype": "float32"}, "class_name": "Zeros"}, "gamma_regularizer": null, "name": "batch_normalization_9", "gamma_constraint": null, "dtype": "float32", "trainable": true, "momentum": 0.99, "scale": false, "center": true}, "name": "batch_normalization_9", "class_name": "BatchNormalization"}, {"inbound_nodes": [[["batch_normalization_6", 0, 0, {}]]], "config": {"dtype": "float32", "name": "activation_6", "activation": "relu", "trainable": true}, "name": "activation_6", "class_name": "Activation"}, {"inbound_nodes": [[["batch_normalization_9", 0, 0, {}]]], "config": {"dtype": "float32", "name": "activation_9", "activation": "relu", "trainable": true}, "name": "activation_9", "class_name": "Activation"}, {"inbound_nodes": [[["max_pooling2d_1", 0, 0, {}]]], "config": {"padding": "same", "pool_size": [3, 3], "name": "average_pooling2d", "dtype": "float32", "data_format": "channels_last", "strides": [1, 1], "trainable": true}, "name": "average_pooling2d", "class_name": "AveragePooling2D"}, {"inbound_nodes": [[["max_pooling2d_1", 0, 0, {}]]], "config": {"kernel_constraint": null, "bias_constraint": null, "dilation_rate": [1, 1], "bias_initializer": {"config": {"dtype": "float32"}, "class_name": "Zeros"}, "data_format": "channels_last", "kernel_initializer": {"config": {"scale": 1.0, "distribution": "uniform", "seed": null, "mode": "fan_avg", "dtype": "float32"}, "class_name": "VarianceScaling"}, "dtype": "float32", "kernel_size": [1, 1], "kernel_regularizer": null, "activity_regularizer": null, "bias_regularizer": null, "trainable": true, "padding": "same", "filters": 64, "name": "conv2d_5", "use_bias": false, "strides": [1, 1], "activation": "linear"}, "name": "conv2d_5", "class_name": "Conv2D"}, {"inbound_nodes": [[["activation_6", 0, 0, {}]]], "config": {"kernel_constraint": null, "bias_constraint": null, "dilation_rate": [1, 1], "bias_initializer": {"config": {"dtype": "float32"}, "class_name": "Zeros"}, "data_format": "channels_last", "kernel_initializer": {"config": {"scale": 1.0, "distribution": "uniform", "seed": null, "mode": "fan_avg", "dtype": "float32"}, "class_name": "VarianceScaling"}, "dtype": "float32", "kernel_size": [5, 5], "kernel_regularizer": null, "activity_regularizer": null, "bias_regularizer": null, "trainable": true, "padding": "same", "filters": 64, "name": "conv2d_7", "use_bias": false, "strides": [1, 1], "activation": "linear"}, "name": "conv2d_7", "class_name": "Conv2D"}, {"inbound_nodes": [[["activation_9", 0, 0, {}]]], "config": {"kernel_constraint": null, "bias_constraint": null, "dilation_rate": [1, 1], "bias_initializer": {"config": {"dtype": "float32"}, "class_name": "Zeros"}, "data_format": "channels_last", "kernel_initializer": {"config": {"scale": 1.0, "distribution": "uniform", "seed": null, "mode": "fan_avg", "dtype": "float32"}, "class_name": "VarianceScaling"}, "dtype": "float32", "kernel_size": [3, 3], "kernel_regularizer": null, "activity_regularizer": null, "bias_regularizer": null, "trainable": true, "padding": "same", "filters": 96, "name": "conv2d_10", "use_bias": false, "strides": [1, 1], "activation": "linear"}, "name": "conv2d_10", "class_name": "Conv2D"}, {"inbound_nodes": [[["average_pooling2d", 0, 0, {}]]], "config": {"kernel_constraint": null, "bias_constraint": null, "dilation_rate": [1, 1], "bias_initializer": {"config": {"dtype": "float32"}, "class_name": "Zeros"}, "data_format": "channels_last", "kernel_initializer": {"config": {"scale": 1.0, "distribution": "uniform", "seed": null, "mode": "fan_avg", "dtype": "float32"}, "class_name": "VarianceScaling"}, "dtype": "float32", "kernel_size": [1, 1], "kernel_regularizer": null, "activity_regularizer": null, "bias_regularizer": null, "trainable": true, "padding": "same", "filters": 32, "name": "conv2d_11", "use_bias": false, "strides": [1, 1], "activation": "linear"}, "name": "conv2d_11", "class_name": "Conv2D"}, {"inbound_nodes": [[["conv2d_5", 0, 0, {}]]], "config": {"moving_variance_initializer": {"config": {"dtype": "float32"}, "class_name": "Ones"}, "beta_regularizer": null, "moving_mean_initializer": {"config": {"dtype": "float32"}, "class_name": "Zeros"}, "beta_constraint": null, "epsilon": 0.001, "axis": [3], "gamma_initializer": {"config": {"dtype": "float32"}, "class_name": "Ones"}, "beta_initializer": {"config": {"dtype": "float32"}, "class_name": "Zeros"}, "gamma_regularizer": null, "name": "batch_normalization_5", "gamma_constraint": null, "dtype": "float32", "trainable": true, "momentum": 0.99, "scale": false, "center": true}, "name": "batch_normalization_5", "class_name": "BatchNormalization"}, {"inbound_nodes": [[["conv2d_7", 0, 0, {}]]], "config": {"moving_variance_initializer": {"config": {"dtype": "float32"}, "class_name": "Ones"}, "beta_regularizer": null, "moving_mean_initializer": {"config": {"dtype": "float32"}, "class_name": "Zeros"}, "beta_constraint": null, "epsilon": 0.001, "axis": [3], "gamma_initializer": {"config": {"dtype": "float32"}, "class_name": "Ones"}, "beta_initializer": {"config": {"dtype": "float32"}, "class_name": "Zeros"}, "gamma_regularizer": null, "name": "batch_normalization_7", "gamma_constraint": null, "dtype": "float32", "trainable": true, "momentum": 0.99, "scale": false, "center": true}, "name": "batch_normalization_7", "class_name": "BatchNormalization"}, {"inbound_nodes": [[["conv2d_10", 0, 0, {}]]], "config": {"moving_variance_initializer": {"config": {"dtype": "float32"}, "class_name": "Ones"}, "beta_regularizer": null, "moving_mean_initializer": {"config": {"dtype": "float32"}, "class_name": "Zeros"}, "beta_constraint": null, "epsilon": 0.001, "axis": [3], "gamma_initializer": {"config": {"dtype": "float32"}, "class_name": "Ones"}, "beta_initializer": {"config": {"dtype": "float32"}, "class_name": "Zeros"}, "gamma_regularizer": null, "name": "batch_normalization_10", "gamma_constraint": null, "dtype": "float32", "trainable": true, "momentum": 0.99, "scale": false, "center": true}, "name": "batch_normalization_10", "class_name": "BatchNormalization"}, {"inbound_nodes": [[["conv2d_11", 0, 0, {}]]], "config": {"moving_variance_initializer": {"config": {"dtype": "float32"}, "class_name": "Ones"}, "beta_regularizer": null, "moving_mean_initializer": {"config": {"dtype": "float32"}, "class_name": "Zeros"}, "beta_constraint": null, "epsilon": 0.001, "axis": [3], "gamma_initializer": {"config": {"dtype": "float32"}, "class_name": "Ones"}, "beta_initializer": {"config": {"dtype": "float32"}, "class_name": "Zeros"}, "gamma_regularizer": null, "name": "batch_normalization_11", "gamma_constraint": null, "dtype": "float32", "trainable": true, "momentum": 0.99, "scale": false, "center": true}, "name": "batch_normalization_11", "class_name": "BatchNormalization"}, {"inbound_nodes": [[["batch_normalization_5", 0, 0, {}]]], "config": {"dtype": "float32", "name": "activation_5", "activation": "relu", "trainable": true}, "name": "activation_5", "class_name": "Activation"}, {"inbound_nodes": [[["batch_normalization_7", 0, 0, {}]]], "config": {"dtype": "float32", "name": "activation_7", "activation": "relu", "trainable": true}, "name": "activation_7", "class_name": "Activation"}, {"inbound_nodes": [[["batch_normalization_10", 0, 0, {}]]], "config": {"dtype": "float32", "name": "activation_10", "activation": "relu", "trainable": true}, "name": "activation_10", "class_name": "Activation"}, {"inbound_nodes": [[["batch_normalization_11", 0, 0, {}]]], "config": {"dtype": "float32", "name": "activation_11", "activation": "relu", "trainable": true}, "name": "activation_11", "class_name": "Activation"}, {"inbound_nodes": [[["activation_5", 0, 0, {}], ["activation_7", 0, 0, {}], ["activation_10", 0, 0, {}], ["activation_11", 0, 0, {}]]], "config": {"dtype": "float32", "trainable": true, "name": "mixed0", "axis": 3}, "name": "mixed0", "class_name": "Concatenate"}, {"inbound_nodes": [[["mixed0", 0, 0, {}]]], "config": {"kernel_constraint": null, "bias_constraint": null, "dilation_rate": [1, 1], "bias_initializer": {"config": {"dtype": "float32"}, "class_name": "Zeros"}, "data_format": "channels_last", "kernel_initializer": {"config": {"scale": 1.0, "distribution": "uniform", "seed": null, "mode": "fan_avg", "dtype": "float32"}, "class_name": "VarianceScaling"}, "dtype": "float32", "kernel_size": [1, 1], "kernel_regularizer": null, "activity_regularizer": null, "bias_regularizer": null, "trainable": true, "padding": "same", "filters": 64, "name": "conv2d_15", "use_bias": false, "strides": [1, 1], "activation": "linear"}, "name": "conv2d_15", "class_name": "Conv2D"}, {"inbound_nodes": [[["conv2d_15", 0, 0, {}]]], "config": {"moving_variance_initializer": {"config": {"dtype": "float32"}, "class_name": "Ones"}, "beta_regularizer": null, "moving_mean_initializer": {"config": {"dtype": "float32"}, "class_name": "Zeros"}, "beta_constraint": null, "epsilon": 0.001, "axis": [3], "gamma_initializer": {"config": {"dtype": "float32"}, "class_name": "Ones"}, "beta_initializer": {"config": {"dtype": "float32"}, "class_name": "Zeros"}, "gamma_regularizer": null, "name": "batch_normalization_15", "gamma_constraint": null, "dtype": "float32", "trainable": true, "momentum": 0.99, "scale": false, "center": true}, "name": "batch_normalization_15", "class_name": "BatchNormalization"}, {"inbound_nodes": [[["batch_normalization_15", 0, 0, {}]]], "config": {"dtype": "float32", "name": "activation_15", "activation": "relu", "trainable": true}, "name": "activation_15", "class_name": "Activation"}, {"inbound_nodes": [[["mixed0", 0, 0, {}]]], "config": {"kernel_constraint": null, "bias_constraint": null, "dilation_rate": [1, 1], "bias_initializer": {"config": {"dtype": "float32"}, "class_name": "Zeros"}, "data_format": "channels_last", "kernel_initializer": {"config": {"scale": 1.0, "distribution": "uniform", "seed": null, "mode": "fan_avg", "dtype": "float32"}, "class_name": "VarianceScaling"}, "dtype": "float32", "kernel_size": [1, 1], "kernel_regularizer": null, "activity_regularizer": null, "bias_regularizer": null, "trainable": true, "padding": "same", "filters": 48, "name": "conv2d_13", "use_bias": false, "strides": [1, 1], "activation": "linear"}, "name": "conv2d_13", "class_name": "Conv2D"}, {"inbound_nodes": [[["activation_15", 0, 0, {}]]], "config": {"kernel_constraint": null, "bias_constraint": null, "dilation_rate": [1, 1], "bias_initializer": {"config": {"dtype": "float32"}, "class_name": "Zeros"}, "data_format": "channels_last", "kernel_initializer": {"config": {"scale": 1.0, "distribution": "uniform", "seed": null, "mode": "fan_avg", "dtype": "float32"}, "class_name": "VarianceScaling"}, "dtype": "float32", "kernel_size": [3, 3], "kernel_regularizer": null, "activity_regularizer": null, "bias_regularizer": null, "trainable": true, "padding": "same", "filters": 96, "name": "conv2d_16", "use_bias": false, "strides": [1, 1], "activation": "linear"}, "name": "conv2d_16", "class_name": "Conv2D"}, {"inbound_nodes": [[["conv2d_13", 0, 0, {}]]], "config": {"moving_variance_initializer": {"config": {"dtype": "float32"}, "class_name": "Ones"}, "beta_regularizer": null, "moving_mean_initializer": {"config": {"dtype": "float32"}, "class_name": "Zeros"}, "beta_constraint": null, "epsilon": 0.001, "axis": [3], "gamma_initializer": {"config": {"dtype": "float32"}, "class_name": "Ones"}, "beta_initializer": {"config": {"dtype": "float32"}, "class_name": "Zeros"}, "gamma_regularizer": null, "name": "batch_normalization_13", "gamma_constraint": null, "dtype": "float32", "trainable": true, "momentum": 0.99, "scale": false, "center": true}, "name": "batch_normalization_13", "class_name": "BatchNormalization"}, {"inbound_nodes": [[["conv2d_16", 0, 0, {}]]], "config": {"moving_variance_initializer": {"config": {"dtype": "float32"}, "class_name": "Ones"}, "beta_regularizer": null, "moving_mean_initializer": {"config": {"dtype": "float32"}, "class_name": "Zeros"}, "beta_constraint": null, "epsilon": 0.001, "axis": [3], "gamma_initializer": {"config": {"dtype": "float32"}, "class_name": "Ones"}, "beta_initializer": {"config": {"dtype": "float32"}, "class_name": "Zeros"}, "gamma_regularizer": null, "name": "batch_normalization_16", "gamma_constraint": null, "dtype": "float32", "trainable": true, "momentum": 0.99, "scale": false, "center": true}, "name": "batch_normalization_16", "class_name": "BatchNormalization"}, {"inbound_nodes": [[["batch_normalization_13", 0, 0, {}]]], "config": {"dtype": "float32", "name": "activation_13", "activation": "relu", "trainable": true}, "name": "activation_13", "class_name": "Activation"}, {"inbound_nodes": [[["batch_normalization_16", 0, 0, {}]]], "config": {"dtype": "float32", "name": "activation_16", "activation": "relu", "trainable": true}, "name": "activation_16", "class_name": "Activation"}, {"inbound_nodes": [[["mixed0", 0, 0, {}]]], "config": {"padding": "same", "pool_size": [3, 3], "name": "average_pooling2d_1", "dtype": "float32", "data_format": "channels_last", "strides": [1, 1], "trainable": true}, "name": "average_pooling2d_1", "class_name": "AveragePooling2D"}, {"inbound_nodes": [[["mixed0", 0, 0, {}]]], "config": {"kernel_constraint": null, "bias_constraint": null, "dilation_rate": [1, 1], "bias_initializer": {"config": {"dtype": "float32"}, "class_name": "Zeros"}, "data_format": "channels_last", "kernel_initializer": {"config": {"scale": 1.0, "distribution": "uniform", "seed": null, "mode": "fan_avg", "dtype": "float32"}, "class_name": "VarianceScaling"}, "dtype": "float32", "kernel_size": [1, 1], "kernel_regularizer": null, "activity_regularizer": null, "bias_regularizer": null, "trainable": true, "padding": "same", "filters": 64, "name": "conv2d_12", "use_bias": false, "strides": [1, 1], "activation": "linear"}, "name": "conv2d_12", "class_name": "Conv2D"}, {"inbound_nodes": [[["activation_13", 0, 0, {}]]], "config": {"kernel_constraint": null, "bias_constraint": null, "dilation_rate": [1, 1], "bias_initializer": {"config": {"dtype": "float32"}, "class_name": "Zeros"}, "data_format": "channels_last", "kernel_initializer": {"config": {"scale": 1.0, "distribution": "uniform", "seed": null, "mode": "fan_avg", "dtype": "float32"}, "class_name": "VarianceScaling"}, "dtype": "float32", "kernel_size": [5, 5], "kernel_regularizer": null, "activity_regularizer": null, "bias_regularizer": null, "trainable": true, "padding": "same", "filters": 64, "name": "conv2d_14", "use_bias": false, "strides": [1, 1], "activation": "linear"}, "name": "conv2d_14", "class_name": "Conv2D"}, {"inbound_nodes": [[["activation_16", 0, 0, {}]]], "config": {"kernel_constraint": null, "bias_constraint": null, "dilation_rate": [1, 1], "bias_initializer": {"config": {"dtype": "float32"}, "class_name": "Zeros"}, "data_format": "channels_last", "kernel_initializer": {"config": {"scale": 1.0, "distribution": "uniform", "seed": null, "mode": "fan_avg", "dtype": "float32"}, "class_name": "VarianceScaling"}, "dtype": "float32", "kernel_size": [3, 3], "kernel_regularizer": null, "activity_regularizer": null, "bias_regularizer": null, "trainable": true, "padding": "same", "filters": 96, "name": "conv2d_17", "use_bias": false, "strides": [1, 1], "activation": "linear"}, "name": "conv2d_17", "class_name": "Conv2D"}, {"inbound_nodes": [[["average_pooling2d_1", 0, 0, {}]]], "config": {"kernel_constraint": null, "bias_constraint": null, "dilation_rate": [1, 1], "bias_initializer": {"config": {"dtype": "float32"}, "class_name": "Zeros"}, "data_format": "channels_last", "kernel_initializer": {"config": {"scale": 1.0, "distribution": "uniform", "seed": null, "mode": "fan_avg", "dtype": "float32"}, "class_name": "VarianceScaling"}, "dtype": "float32", "kernel_size": [1, 1], "kernel_regularizer": null, "activity_regularizer": null, "bias_regularizer": null, "trainable": true, "padding": "same", "filters": 64, "name": "conv2d_18", "use_bias": false, "strides": [1, 1], "activation": "linear"}, "name": "conv2d_18", "class_name": "Conv2D"}, {"inbound_nodes": [[["conv2d_12", 0, 0, {}]]], "config": {"moving_variance_initializer": {"config": {"dtype": "float32"}, "class_name": "Ones"}, "beta_regularizer": null, "moving_mean_initializer": {"config": {"dtype": "float32"}, "class_name": "Zeros"}, "beta_constraint": null, "epsilon": 0.001, "axis": [3], "gamma_initializer": {"config": {"dtype": "float32"}, "class_name": "Ones"}, "beta_initializer": {"config": {"dtype": "float32"}, "class_name": "Zeros"}, "gamma_regularizer": null, "name": "batch_normalization_12", "gamma_constraint": null, "dtype": "float32", "trainable": true, "momentum": 0.99, "scale": false, "center": true}, "name": "batch_normalization_12", "class_name": "BatchNormalization"}, {"inbound_nodes": [[["conv2d_14", 0, 0, {}]]], "config": {"moving_variance_initializer": {"config": {"dtype": "float32"}, "class_name": "Ones"}, "beta_regularizer": null, "moving_mean_initializer": {"config": {"dtype": "float32"}, "class_name": "Zeros"}, "beta_constraint": null, "epsilon": 0.001, "axis": [3], "gamma_initializer": {"config": {"dtype": "float32"}, "class_name": "Ones"}, "beta_initializer": {"config": {"dtype": "float32"}, "class_name": "Zeros"}, "gamma_regularizer": null, "name": "batch_normalization_14", "gamma_constraint": null, "dtype": "float32", "trainable": true, "momentum": 0.99, "scale": false, "center": true}, "name": "batch_normalization_14", "class_name": "BatchNormalization"}, {"inbound_nodes": [[["conv2d_17", 0, 0, {}]]], "config": {"moving_variance_initializer": {"config": {"dtype": "float32"}, "class_name": "Ones"}, "beta_regularizer": null, "moving_mean_initializer": {"config": {"dtype": "float32"}, "class_name": "Zeros"}, "beta_constraint": null, "epsilon": 0.001, "axis": [3], "gamma_initializer": {"config": {"dtype": "float32"}, "class_name": "Ones"}, "beta_initializer": {"config": {"dtype": "float32"}, "class_name": "Zeros"}, "gamma_regularizer": null, "name": "batch_normalization_17", "gamma_constraint": null, "dtype": "float32", "trainable": true, "momentum": 0.99, "scale": false, "center": true}, "name": "batch_normalization_17", "class_name": "BatchNormalization"}, {"inbound_nodes": [[["conv2d_18", 0, 0, {}]]], "config": {"moving_variance_initializer": {"config": {"dtype": "float32"}, "class_name": "Ones"}, "beta_regularizer": null, "moving_mean_initializer": {"config": {"dtype": "float32"}, "class_name": "Zeros"}, "beta_constraint": null, "epsilon": 0.001, "axis": [3], "gamma_initializer": {"config": {"dtype": "float32"}, "class_name": "Ones"}, "beta_initializer": {"config": {"dtype": "float32"}, "class_name": "Zeros"}, "gamma_regularizer": null, "name": "batch_normalization_18", "gamma_constraint": null, "dtype": "float32", "trainable": true, "momentum": 0.99, "scale": false, "center": true}, "name": "batch_normalization_18", "class_name": "BatchNormalization"}, {"inbound_nodes": [[["batch_normalization_12", 0, 0, {}]]], "config": {"dtype": "float32", "name": "activation_12", "activation": "relu", "trainable": true}, "name": "activation_12", "class_name": "Activation"}, {"inbound_nodes": [[["batch_normalization_14", 0, 0, {}]]], "config": {"dtype": "float32", "name": "activation_14", "activation": "relu", "trainable": true}, "name": "activation_14", "class_name": "Activation"}, {"inbound_nodes": [[["batch_normalization_17", 0, 0, {}]]], "config": {"dtype": "float32", "name": "activation_17", "activation": "relu", "trainable": true}, "name": "activation_17", "class_name": "Activation"}, {"inbound_nodes": [[["batch_normalization_18", 0, 0, {}]]], "config": {"dtype": "float32", "name": "activation_18", "activation": "relu", "trainable": true}, "name": "activation_18", "class_name": "Activation"}, {"inbound_nodes": [[["activation_12", 0, 0, {}], ["activation_14", 0, 0, {}], ["activation_17", 0, 0, {}], ["activation_18", 0, 0, {}]]], "config": {"dtype": "float32", "trainable": true, "name": "mixed1", "axis": 3}, "name": "mixed1", "class_name": "Concatenate"}, {"inbound_nodes": [[["mixed1", 0, 0, {}]]], "config": {"kernel_constraint": null, "bias_constraint": null, "dilation_rate": [1, 1], "bias_initializer": {"config": {"dtype": "float32"}, "class_name": "Zeros"}, "data_format": "channels_last", "kernel_initializer": {"config": {"scale": 1.0, "distribution": "uniform", "seed": null, "mode": "fan_avg", "dtype": "float32"}, "class_name": "VarianceScaling"}, "dtype": "float32", "kernel_size": [1, 1], "kernel_regularizer": null, "activity_regularizer": null, "bias_regularizer": null, "trainable": true, "padding": "same", "filters": 64, "name": "conv2d_22", "use_bias": false, "strides": [1, 1], "activation": "linear"}, "name": "conv2d_22", "class_name": "Conv2D"}, {"inbound_nodes": [[["conv2d_22", 0, 0, {}]]], "config": {"moving_variance_initializer": {"config": {"dtype": "float32"}, "class_name": "Ones"}, "beta_regularizer": null, "moving_mean_initializer": {"config": {"dtype": "float32"}, "class_name": "Zeros"}, "beta_constraint": null, "epsilon": 0.001, "axis": [3], "gamma_initializer": {"config": {"dtype": "float32"}, "class_name": "Ones"}, "beta_initializer": {"config": {"dtype": "float32"}, "class_name": "Zeros"}, "gamma_regularizer": null, "name": "batch_normalization_22", "gamma_constraint": null, "dtype": "float32", "trainable": true, "momentum": 0.99, "scale": false, "center": true}, "name": "batch_normalization_22", "class_name": "BatchNormalization"}, {"inbound_nodes": [[["batch_normalization_22", 0, 0, {}]]], "config": {"dtype": "float32", "name": "activation_22", "activation": "relu", "trainable": true}, "name": "activation_22", "class_name": "Activation"}, {"inbound_nodes": [[["mixed1", 0, 0, {}]]], "config": {"kernel_constraint": null, "bias_constraint": null, "dilation_rate": [1, 1], "bias_initializer": {"config": {"dtype": "float32"}, "class_name": "Zeros"}, "data_format": "channels_last", "kernel_initializer": {"config": {"scale": 1.0, "distribution": "uniform", "seed": null, "mode": "fan_avg", "dtype": "float32"}, "class_name": "VarianceScaling"}, "dtype": "float32", "kernel_size": [1, 1], "kernel_regularizer": null, "activity_regularizer": null, "bias_regularizer": null, "trainable": true, "padding": "same", "filters": 48, "name": "conv2d_20", "use_bias": false, "strides": [1, 1], "activation": "linear"}, "name": "conv2d_20", "class_name": "Conv2D"}, {"inbound_nodes": [[["activation_22", 0, 0, {}]]], "config": {"kernel_constraint": null, "bias_constraint": null, "dilation_rate": [1, 1], "bias_initializer": {"config": {"dtype": "float32"}, "class_name": "Zeros"}, "data_format": "channels_last", "kernel_initializer": {"config": {"scale": 1.0, "distribution": "uniform", "seed": null, "mode": "fan_avg", "dtype": "float32"}, "class_name": "VarianceScaling"}, "dtype": "float32", "kernel_size": [3, 3], "kernel_regularizer": null, "activity_regularizer": null, "bias_regularizer": null, "trainable": true, "padding": "same", "filters": 96, "name": "conv2d_23", "use_bias": false, "strides": [1, 1], "activation": "linear"}, "name": "conv2d_23", "class_name": "Conv2D"}, {"inbound_nodes": [[["conv2d_20", 0, 0, {}]]], "config": {"moving_variance_initializer": {"config": {"dtype": "float32"}, "class_name": "Ones"}, "beta_regularizer": null, "moving_mean_initializer": {"config": {"dtype": "float32"}, "class_name": "Zeros"}, "beta_constraint": null, "epsilon": 0.001, "axis": [3], "gamma_initializer": {"config": {"dtype": "float32"}, "class_name": "Ones"}, "beta_initializer": {"config": {"dtype": "float32"}, "class_name": "Zeros"}, "gamma_regularizer": null, "name": "batch_normalization_20", "gamma_constraint": null, "dtype": "float32", "trainable": true, "momentum": 0.99, "scale": false, "center": true}, "name": "batch_normalization_20", "class_name": "BatchNormalization"}, {"inbound_nodes": [[["conv2d_23", 0, 0, {}]]], "config": {"moving_variance_initializer": {"config": {"dtype": "float32"}, "class_name": "Ones"}, "beta_regularizer": null, "moving_mean_initializer": {"config": {"dtype": "float32"}, "class_name": "Zeros"}, "beta_constraint": null, "epsilon": 0.001, "axis": [3], "gamma_initializer": {"config": {"dtype": "float32"}, "class_name": "Ones"}, "beta_initializer": {"config": {"dtype": "float32"}, "class_name": "Zeros"}, "gamma_regularizer": null, "name": "batch_normalization_23", "gamma_constraint": null, "dtype": "float32", "trainable": true, "momentum": 0.99, "scale": false, "center": true}, "name": "batch_normalization_23", "class_name": "BatchNormalization"}, {"inbound_nodes": [[["batch_normalization_20", 0, 0, {}]]], "config": {"dtype": "float32", "name": "activation_20", "activation": "relu", "trainable": true}, "name": "activation_20", "class_name": "Activation"}, {"inbound_nodes": [[["batch_normalization_23", 0, 0, {}]]], "config": {"dtype": "float32", "name": "activation_23", "activation": "relu", "trainable": true}, "name": "activation_23", "class_name": "Activation"}, {"inbound_nodes": [[["mixed1", 0, 0, {}]]], "config": {"padding": "same", "pool_size": [3, 3], "name": "average_pooling2d_2", "dtype": "float32", "data_format": "channels_last", "strides": [1, 1], "trainable": true}, "name": "average_pooling2d_2", "class_name": "AveragePooling2D"}, {"inbound_nodes": [[["mixed1", 0, 0, {}]]], "config": {"kernel_constraint": null, "bias_constraint": null, "dilation_rate": [1, 1], "bias_initializer": {"config": {"dtype": "float32"}, "class_name": "Zeros"}, "data_format": "channels_last", "kernel_initializer": {"config": {"scale": 1.0, "distribution": "uniform", "seed": null, "mode": "fan_avg", "dtype": "float32"}, "class_name": "VarianceScaling"}, "dtype": "float32", "kernel_size": [1, 1], "kernel_regularizer": null, "activity_regularizer": null, "bias_regularizer": null, "trainable": true, "padding": "same", "filters": 64, "name": "conv2d_19", "use_bias": false, "strides": [1, 1], "activation": "linear"}, "name": "conv2d_19", "class_name": "Conv2D"}, {"inbound_nodes": [[["activation_20", 0, 0, {}]]], "config": {"kernel_constraint": null, "bias_constraint": null, "dilation_rate": [1, 1], "bias_initializer": {"config": {"dtype": "float32"}, "class_name": "Zeros"}, "data_format": "channels_last", "kernel_initializer": {"config": {"scale": 1.0, "distribution": "uniform", "seed": null, "mode": "fan_avg", "dtype": "float32"}, "class_name": "VarianceScaling"}, "dtype": "float32", "kernel_size": [5, 5], "kernel_regularizer": null, "activity_regularizer": null, "bias_regularizer": null, "trainable": true, "padding": "same", "filters": 64, "name": "conv2d_21", "use_bias": false, "strides": [1, 1], "activation": "linear"}, "name": "conv2d_21", "class_name": "Conv2D"}, {"inbound_nodes": [[["activation_23", 0, 0, {}]]], "config": {"kernel_constraint": null, "bias_constraint": null, "dilation_rate": [1, 1], "bias_initializer": {"config": {"dtype": "float32"}, "class_name": "Zeros"}, "data_format": "channels_last", "kernel_initializer": {"config": {"scale": 1.0, "distribution": "uniform", "seed": null, "mode": "fan_avg", "dtype": "float32"}, "class_name": "VarianceScaling"}, "dtype": "float32", "kernel_size": [3, 3], "kernel_regularizer": null, "activity_regularizer": null, "bias_regularizer": null, "trainable": true, "padding": "same", "filters": 96, "name": "conv2d_24", "use_bias": false, "strides": [1, 1], "activation": "linear"}, "name": "conv2d_24", "class_name": "Conv2D"}, {"inbound_nodes": [[["average_pooling2d_2", 0, 0, {}]]], "config": {"kernel_constraint": null, "bias_constraint": null, "dilation_rate": [1, 1], "bias_initializer": {"config": {"dtype": "float32"}, "class_name": "Zeros"}, "data_format": "channels_last", "kernel_initializer": {"config": {"scale": 1.0, "distribution": "uniform", "seed": null, "mode": "fan_avg", "dtype": "float32"}, "class_name": "VarianceScaling"}, "dtype": "float32", "kernel_size": [1, 1], "kernel_regularizer": null, "activity_regularizer": null, "bias_regularizer": null, "trainable": true, "padding": "same", "filters": 64, "name": "conv2d_25", "use_bias": false, "strides": [1, 1], "activation": "linear"}, "name": "conv2d_25", "class_name": "Conv2D"}, {"inbound_nodes": [[["conv2d_19", 0, 0, {}]]], "config": {"moving_variance_initializer": {"config": {"dtype": "float32"}, "class_name": "Ones"}, "beta_regularizer": null, "moving_mean_initializer": {"config": {"dtype": "float32"}, "class_name": "Zeros"}, "beta_constraint": null, "epsilon": 0.001, "axis": [3], "gamma_initializer": {"config": {"dtype": "float32"}, "class_name": "Ones"}, "beta_initializer": {"config": {"dtype": "float32"}, "class_name": "Zeros"}, "gamma_regularizer": null, "name": "batch_normalization_19", "gamma_constraint": null, "dtype": "float32", "trainable": true, "momentum": 0.99, "scale": false, "center": true}, "name": "batch_normalization_19", "class_name": "BatchNormalization"}, {"inbound_nodes": [[["conv2d_21", 0, 0, {}]]], "config": {"moving_variance_initializer": {"config": {"dtype": "float32"}, "class_name": "Ones"}, "beta_regularizer": null, "moving_mean_initializer": {"config": {"dtype": "float32"}, "class_name": "Zeros"}, "beta_constraint": null, "epsilon": 0.001, "axis": [3], "gamma_initializer": {"config": {"dtype": "float32"}, "class_name": "Ones"}, "beta_initializer": {"config": {"dtype": "float32"}, "class_name": "Zeros"}, "gamma_regularizer": null, "name": "batch_normalization_21", "gamma_constraint": null, "dtype": "float32", "trainable": true, "momentum": 0.99, "scale": false, "center": true}, "name": "batch_normalization_21", "class_name": "BatchNormalization"}, {"inbound_nodes": [[["conv2d_24", 0, 0, {}]]], "config": {"moving_variance_initializer": {"config": {"dtype": "float32"}, "class_name": "Ones"}, "beta_regularizer": null, "moving_mean_initializer": {"config": {"dtype": "float32"}, "class_name": "Zeros"}, "beta_constraint": null, "epsilon": 0.001, "axis": [3], "gamma_initializer": {"config": {"dtype": "float32"}, "class_name": "Ones"}, "beta_initializer": {"config": {"dtype": "float32"}, "class_name": "Zeros"}, "gamma_regularizer": null, "name": "batch_normalization_24", "gamma_constraint": null, "dtype": "float32", "trainable": true, "momentum": 0.99, "scale": false, "center": true}, "name": "batch_normalization_24", "class_name": "BatchNormalization"}, {"inbound_nodes": [[["conv2d_25", 0, 0, {}]]], "config": {"moving_variance_initializer": {"config": {"dtype": "float32"}, "class_name": "Ones"}, "beta_regularizer": null, "moving_mean_initializer": {"config": {"dtype": "float32"}, "class_name": "Zeros"}, "beta_constraint": null, "epsilon": 0.001, "axis": [3], "gamma_initializer": {"config": {"dtype": "float32"}, "class_name": "Ones"}, "beta_initializer": {"config": {"dtype": "float32"}, "class_name": "Zeros"}, "gamma_regularizer": null, "name": "batch_normalization_25", "gamma_constraint": null, "dtype": "float32", "trainable": true, "momentum": 0.99, "scale": false, "center": true}, "name": "batch_normalization_25", "class_name": "BatchNormalization"}, {"inbound_nodes": [[["batch_normalization_19", 0, 0, {}]]], "config": {"dtype": "float32", "name": "activation_19", "activation": "relu", "trainable": true}, "name": "activation_19", "class_name": "Activation"}, {"inbound_nodes": [[["batch_normalization_21", 0, 0, {}]]], "config": {"dtype": "float32", "name": "activation_21", "activation": "relu", "trainable": true}, "name": "activation_21", "class_name": "Activation"}, {"inbound_nodes": [[["batch_normalization_24", 0, 0, {}]]], "config": {"dtype": "float32", "name": "activation_24", "activation": "relu", "trainable": true}, "name": "activation_24", "class_name": "Activation"}, {"inbound_nodes": [[["batch_normalization_25", 0, 0, {}]]], "config": {"dtype": "float32", "name": "activation_25", "activation": "relu", "trainable": true}, "name": "activation_25", "class_name": "Activation"}, {"inbound_nodes": [[["activation_19", 0, 0, {}], ["activation_21", 0, 0, {}], ["activation_24", 0, 0, {}], ["activation_25", 0, 0, {}]]], "config": {"dtype": "float32", "trainable": true, "name": "mixed2", "axis": 3}, "name": "mixed2", "class_name": "Concatenate"}, {"inbound_nodes": [[["mixed2", 0, 0, {}]]], "config": {"kernel_constraint": null, "bias_constraint": null, "dilation_rate": [1, 1], "bias_initializer": {"config": {"dtype": "float32"}, "class_name": "Zeros"}, "data_format": "channels_last", "kernel_initializer": {"config": {"scale": 1.0, "distribution": "uniform", "seed": null, "mode": "fan_avg", "dtype": "float32"}, "class_name": "VarianceScaling"}, "dtype": "float32", "kernel_size": [1, 1], "kernel_regularizer": null, "activity_regularizer": null, "bias_regularizer": null, "trainable": true, "padding": "same", "filters": 64, "name": "conv2d_27", "use_bias": false, "strides": [1, 1], "activation": "linear"}, "name": "conv2d_27", "class_name": "Conv2D"}, {"inbound_nodes": [[["conv2d_27", 0, 0, {}]]], "config": {"moving_variance_initializer": {"config": {"dtype": "float32"}, "class_name": "Ones"}, "beta_regularizer": null, "moving_mean_initializer": {"config": {"dtype": "float32"}, "class_name": "Zeros"}, "beta_constraint": null, "epsilon": 0.001, "axis": [3], "gamma_initializer": {"config": {"dtype": "float32"}, "class_name": "Ones"}, "beta_initializer": {"config": {"dtype": "float32"}, "class_name": "Zeros"}, "gamma_regularizer": null, "name": "batch_normalization_27", "gamma_constraint": null, "dtype": "float32", "trainable": true, "momentum": 0.99, "scale": false, "center": true}, "name": "batch_normalization_27", "class_name": "BatchNormalization"}, {"inbound_nodes": [[["batch_normalization_27", 0, 0, {}]]], "config": {"dtype": "float32", "name": "activation_27", "activation": "relu", "trainable": true}, "name": "activation_27", "class_name": "Activation"}, {"inbound_nodes": [[["activation_27", 0, 0, {}]]], "config": {"kernel_constraint": null, "bias_constraint": null, "dilation_rate": [1, 1], "bias_initializer": {"config": {"dtype": "float32"}, "class_name": "Zeros"}, "data_format": "channels_last", "kernel_initializer": {"config": {"scale": 1.0, "distribution": "uniform", "seed": null, "mode": "fan_avg", "dtype": "float32"}, "class_name": "VarianceScaling"}, "dtype": "float32", "kernel_size": [3, 3], "kernel_regularizer": null, "activity_regularizer": null, "bias_regularizer": null, "trainable": true, "padding": "same", "filters": 96, "name": "conv2d_28", "use_bias": false, "strides": [1, 1], "activation": "linear"}, "name": "conv2d_28", "class_name": "Conv2D"}, {"inbound_nodes": [[["conv2d_28", 0, 0, {}]]], "config": {"moving_variance_initializer": {"config": {"dtype": "float32"}, "class_name": "Ones"}, "beta_regularizer": null, "moving_mean_initializer": {"config": {"dtype": "float32"}, "class_name": "Zeros"}, "beta_constraint": null, "epsilon": 0.001, "axis": [3], "gamma_initializer": {"config": {"dtype": "float32"}, "class_name": "Ones"}, "beta_initializer": {"config": {"dtype": "float32"}, "class_name": "Zeros"}, "gamma_regularizer": null, "name": "batch_normalization_28", "gamma_constraint": null, "dtype": "float32", "trainable": true, "momentum": 0.99, "scale": false, "center": true}, "name": "batch_normalization_28", "class_name": "BatchNormalization"}, {"inbound_nodes": [[["batch_normalization_28", 0, 0, {}]]], "config": {"dtype": "float32", "name": "activation_28", "activation": "relu", "trainable": true}, "name": "activation_28", "class_name": "Activation"}, {"inbound_nodes": [[["mixed2", 0, 0, {}]]], "config": {"kernel_constraint": null, "bias_constraint": null, "dilation_rate": [1, 1], "bias_initializer": {"config": {"dtype": "float32"}, "class_name": "Zeros"}, "data_format": "channels_last", "kernel_initializer": {"config": {"scale": 1.0, "distribution": "uniform", "seed": null, "mode": "fan_avg", "dtype": "float32"}, "class_name": "VarianceScaling"}, "dtype": "float32", "kernel_size": [3, 3], "kernel_regularizer": null, "activity_regularizer": null, "bias_regularizer": null, "trainable": true, "padding": "valid", "filters": 384, "name": "conv2d_26", "use_bias": false, "strides": [2, 2], "activation": "linear"}, "name": "conv2d_26", "class_name": "Conv2D"}, {"inbound_nodes": [[["activation_28", 0, 0, {}]]], "config": {"kernel_constraint": null, "bias_constraint": null, "dilation_rate": [1, 1], "bias_initializer": {"config": {"dtype": "float32"}, "class_name": "Zeros"}, "data_format": "channels_last", "kernel_initializer": {"config": {"scale": 1.0, "distribution": "uniform", "seed": null, "mode": "fan_avg", "dtype": "float32"}, "class_name": "VarianceScaling"}, "dtype": "float32", "kernel_size": [3, 3], "kernel_regularizer": null, "activity_regularizer": null, "bias_regularizer": null, "trainable": true, "padding": "valid", "filters": 96, "name": "conv2d_29", "use_bias": false, "strides": [2, 2], "activation": "linear"}, "name": "conv2d_29", "class_name": "Conv2D"}, {"inbound_nodes": [[["conv2d_26", 0, 0, {}]]], "config": {"moving_variance_initializer": {"config": {"dtype": "float32"}, "class_name": "Ones"}, "beta_regularizer": null, "moving_mean_initializer": {"config": {"dtype": "float32"}, "class_name": "Zeros"}, "beta_constraint": null, "epsilon": 0.001, "axis": [3], "gamma_initializer": {"config": {"dtype": "float32"}, "class_name": "Ones"}, "beta_initializer": {"config": {"dtype": "float32"}, "class_name": "Zeros"}, "gamma_regularizer": null, "name": "batch_normalization_26", "gamma_constraint": null, "dtype": "float32", "trainable": true, "momentum": 0.99, "scale": false, "center": true}, "name": "batch_normalization_26", "class_name": "BatchNormalization"}, {"inbound_nodes": [[["conv2d_29", 0, 0, {}]]], "config": {"moving_variance_initializer": {"config": {"dtype": "float32"}, "class_name": "Ones"}, "beta_regularizer": null, "moving_mean_initializer": {"config": {"dtype": "float32"}, "class_name": "Zeros"}, "beta_constraint": null, "epsilon": 0.001, "axis": [3], "gamma_initializer": {"config": {"dtype": "float32"}, "class_name": "Ones"}, "beta_initializer": {"config": {"dtype": "float32"}, "class_name": "Zeros"}, "gamma_regularizer": null, "name": "batch_normalization_29", "gamma_constraint": null, "dtype": "float32", "trainable": true, "momentum": 0.99, "scale": false, "center": true}, "name": "batch_normalization_29", "class_name": "BatchNormalization"}, {"inbound_nodes": [[["batch_normalization_26", 0, 0, {}]]], "config": {"dtype": "float32", "name": "activation_26", "activation": "relu", "trainable": true}, "name": "activation_26", "class_name": "Activation"}, {"inbound_nodes": [[["batch_normalization_29", 0, 0, {}]]], "config": {"dtype": "float32", "name": "activation_29", "activation": "relu", "trainable": true}, "name": "activation_29", "class_name": "Activation"}, {"inbound_nodes": [[["mixed2", 0, 0, {}]]], "config": {"padding": "valid", "pool_size": [3, 3], "name": "max_pooling2d_2", "dtype": "float32", "data_format": "channels_last", "strides": [2, 2], "trainable": true}, "name": "max_pooling2d_2", "class_name": "MaxPooling2D"}, {"inbound_nodes": [[["activation_26", 0, 0, {}], ["activation_29", 0, 0, {}], ["max_pooling2d_2", 0, 0, {}]]], "config": {"dtype": "float32", "trainable": true, "name": "mixed3", "axis": 3}, "name": "mixed3", "class_name": "Concatenate"}, {"inbound_nodes": [[["mixed3", 0, 0, {}]]], "config": {"kernel_constraint": null, "bias_constraint": null, "dilation_rate": [1, 1], "bias_initializer": {"config": {"dtype": "float32"}, "class_name": "Zeros"}, "data_format": "channels_last", "kernel_initializer": {"config": {"scale": 1.0, "distribution": "uniform", "seed": null, "mode": "fan_avg", "dtype": "float32"}, "class_name": "VarianceScaling"}, "dtype": "float32", "kernel_size": [1, 1], "kernel_regularizer": null, "activity_regularizer": null, "bias_regularizer": null, "trainable": true, "padding": "same", "filters": 128, "name": "conv2d_34", "use_bias": false, "strides": [1, 1], "activation": "linear"}, "name": "conv2d_34", "class_name": "Conv2D"}, {"inbound_nodes": [[["conv2d_34", 0, 0, {}]]], "config": {"moving_variance_initializer": {"config": {"dtype": "float32"}, "class_name": "Ones"}, "beta_regularizer": null, "moving_mean_initializer": {"config": {"dtype": "float32"}, "class_name": "Zeros"}, "beta_constraint": null, "epsilon": 0.001, "axis": [3], "gamma_initializer": {"config": {"dtype": "float32"}, "class_name": "Ones"}, "beta_initializer": {"config": {"dtype": "float32"}, "class_name": "Zeros"}, "gamma_regularizer": null, "name": "batch_normalization_34", "gamma_constraint": null, "dtype": "float32", "trainable": true, "momentum": 0.99, "scale": false, "center": true}, "name": "batch_normalization_34", "class_name": "BatchNormalization"}, {"inbound_nodes": [[["batch_normalization_34", 0, 0, {}]]], "config": {"dtype": "float32", "name": "activation_34", "activation": "relu", "trainable": true}, "name": "activation_34", "class_name": "Activation"}, {"inbound_nodes": [[["activation_34", 0, 0, {}]]], "config": {"kernel_constraint": null, "bias_constraint": null, "dilation_rate": [1, 1], "bias_initializer": {"config": {"dtype": "float32"}, "class_name": "Zeros"}, "data_format": "channels_last", "kernel_initializer": {"config": {"scale": 1.0, "distribution": "uniform", "seed": null, "mode": "fan_avg", "dtype": "float32"}, "class_name": "VarianceScaling"}, "dtype": "float32", "kernel_size": [7, 1], "kernel_regularizer": null, "activity_regularizer": null, "bias_regularizer": null, "trainable": true, "padding": "same", "filters": 128, "name": "conv2d_35", "use_bias": false, "strides": [1, 1], "activation": "linear"}, "name": "conv2d_35", "class_name": "Conv2D"}, {"inbound_nodes": [[["conv2d_35", 0, 0, {}]]], "config": {"moving_variance_initializer": {"config": {"dtype": "float32"}, "class_name": "Ones"}, "beta_regularizer": null, "moving_mean_initializer": {"config": {"dtype": "float32"}, "class_name": "Zeros"}, "beta_constraint": null, "epsilon": 0.001, "axis": [3], "gamma_initializer": {"config": {"dtype": "float32"}, "class_name": "Ones"}, "beta_initializer": {"config": {"dtype": "float32"}, "class_name": "Zeros"}, "gamma_regularizer": null, "name": "batch_normalization_35", "gamma_constraint": null, "dtype": "float32", "trainable": true, "momentum": 0.99, "scale": false, "center": true}, "name": "batch_normalization_35", "class_name": "BatchNormalization"}, {"inbound_nodes": [[["batch_normalization_35", 0, 0, {}]]], "config": {"dtype": "float32", "name": "activation_35", "activation": "relu", "trainable": true}, "name": "activation_35", "class_name": "Activation"}, {"inbound_nodes": [[["mixed3", 0, 0, {}]]], "config": {"kernel_constraint": null, "bias_constraint": null, "dilation_rate": [1, 1], "bias_initializer": {"config": {"dtype": "float32"}, "class_name": "Zeros"}, "data_format": "channels_last", "kernel_initializer": {"config": {"scale": 1.0, "distribution": "uniform", "seed": null, "mode": "fan_avg", "dtype": "float32"}, "class_name": "VarianceScaling"}, "dtype": "float32", "kernel_size": [1, 1], "kernel_regularizer": null, "activity_regularizer": null, "bias_regularizer": null, "trainable": true, "padding": "same", "filters": 128, "name": "conv2d_31", "use_bias": false, "strides": [1, 1], "activation": "linear"}, "name": "conv2d_31", "class_name": "Conv2D"}, {"inbound_nodes": [[["activation_35", 0, 0, {}]]], "config": {"kernel_constraint": null, "bias_constraint": null, "dilation_rate": [1, 1], "bias_initializer": {"config": {"dtype": "float32"}, "class_name": "Zeros"}, "data_format": "channels_last", "kernel_initializer": {"config": {"scale": 1.0, "distribution": "uniform", "seed": null, "mode": "fan_avg", "dtype": "float32"}, "class_name": "VarianceScaling"}, "dtype": "float32", "kernel_size": [1, 7], "kernel_regularizer": null, "activity_regularizer": null, "bias_regularizer": null, "trainable": true, "padding": "same", "filters": 128, "name": "conv2d_36", "use_bias": false, "strides": [1, 1], "activation": "linear"}, "name": "conv2d_36", "class_name": "Conv2D"}, {"inbound_nodes": [[["conv2d_31", 0, 0, {}]]], "config": {"moving_variance_initializer": {"config": {"dtype": "float32"}, "class_name": "Ones"}, "beta_regularizer": null, "moving_mean_initializer": {"config": {"dtype": "float32"}, "class_name": "Zeros"}, "beta_constraint": null, "epsilon": 0.001, "axis": [3], "gamma_initializer": {"config": {"dtype": "float32"}, "class_name": "Ones"}, "beta_initializer": {"config": {"dtype": "float32"}, "class_name": "Zeros"}, "gamma_regularizer": null, "name": "batch_normalization_31", "gamma_constraint": null, "dtype": "float32", "trainable": true, "momentum": 0.99, "scale": false, "center": true}, "name": "batch_normalization_31", "class_name": "BatchNormalization"}, {"inbound_nodes": [[["conv2d_36", 0, 0, {}]]], "config": {"moving_variance_initializer": {"config": {"dtype": "float32"}, "class_name": "Ones"}, "beta_regularizer": null, "moving_mean_initializer": {"config": {"dtype": "float32"}, "class_name": "Zeros"}, "beta_constraint": null, "epsilon": 0.001, "axis": [3], "gamma_initializer": {"config": {"dtype": "float32"}, "class_name": "Ones"}, "beta_initializer": {"config": {"dtype": "float32"}, "class_name": "Zeros"}, "gamma_regularizer": null, "name": "batch_normalization_36", "gamma_constraint": null, "dtype": "float32", "trainable": true, "momentum": 0.99, "scale": false, "center": true}, "name": "batch_normalization_36", "class_name": "BatchNormalization"}, {"inbound_nodes": [[["batch_normalization_31", 0, 0, {}]]], "config": {"dtype": "float32", "name": "activation_31", "activation": "relu", "trainable": true}, "name": "activation_31", "class_name": "Activation"}, {"inbound_nodes": [[["batch_normalization_36", 0, 0, {}]]], "config": {"dtype": "float32", "name": "activation_36", "activation": "relu", "trainable": true}, "name": "activation_36", "class_name": "Activation"}, {"inbound_nodes": [[["activation_31", 0, 0, {}]]], "config": {"kernel_constraint": null, "bias_constraint": null, "dilation_rate": [1, 1], "bias_initializer": {"config": {"dtype": "float32"}, "class_name": "Zeros"}, "data_format": "channels_last", "kernel_initializer": {"config": {"scale": 1.0, "distribution": "uniform", "seed": null, "mode": "fan_avg", "dtype": "float32"}, "class_name": "VarianceScaling"}, "dtype": "float32", "kernel_size": [1, 7], "kernel_regularizer": null, "activity_regularizer": null, "bias_regularizer": null, "trainable": true, "padding": "same", "filters": 128, "name": "conv2d_32", "use_bias": false, "strides": [1, 1], "activation": "linear"}, "name": "conv2d_32", "class_name": "Conv2D"}, {"inbound_nodes": [[["activation_36", 0, 0, {}]]], "config": {"kernel_constraint": null, "bias_constraint": null, "dilation_rate": [1, 1], "bias_initializer": {"config": {"dtype": "float32"}, "class_name": "Zeros"}, "data_format": "channels_last", "kernel_initializer": {"config": {"scale": 1.0, "distribution": "uniform", "seed": null, "mode": "fan_avg", "dtype": "float32"}, "class_name": "VarianceScaling"}, "dtype": "float32", "kernel_size": [7, 1], "kernel_regularizer": null, "activity_regularizer": null, "bias_regularizer": null, "trainable": true, "padding": "same", "filters": 128, "name": "conv2d_37", "use_bias": false, "strides": [1, 1], "activation": "linear"}, "name": "conv2d_37", "class_name": "Conv2D"}, {"inbound_nodes": [[["conv2d_32", 0, 0, {}]]], "config": {"moving_variance_initializer": {"config": {"dtype": "float32"}, "class_name": "Ones"}, "beta_regularizer": null, "moving_mean_initializer": {"config": {"dtype": "float32"}, "class_name": "Zeros"}, "beta_constraint": null, "epsilon": 0.001, "axis": [3], "gamma_initializer": {"config": {"dtype": "float32"}, "class_name": "Ones"}, "beta_initializer": {"config": {"dtype": "float32"}, "class_name": "Zeros"}, "gamma_regularizer": null, "name": "batch_normalization_32", "gamma_constraint": null, "dtype": "float32", "trainable": true, "momentum": 0.99, "scale": false, "center": true}, "name": "batch_normalization_32", "class_name": "BatchNormalization"}, {"inbound_nodes": [[["conv2d_37", 0, 0, {}]]], "config": {"moving_variance_initializer": {"config": {"dtype": "float32"}, "class_name": "Ones"}, "beta_regularizer": null, "moving_mean_initializer": {"config": {"dtype": "float32"}, "class_name": "Zeros"}, "beta_constraint": null, "epsilon": 0.001, "axis": [3], "gamma_initializer": {"config": {"dtype": "float32"}, "class_name": "Ones"}, "beta_initializer": {"config": {"dtype": "float32"}, "class_name": "Zeros"}, "gamma_regularizer": null, "name": "batch_normalization_37", "gamma_constraint": null, "dtype": "float32", "trainable": true, "momentum": 0.99, "scale": false, "center": true}, "name": "batch_normalization_37", "class_name": "BatchNormalization"}, {"inbound_nodes": [[["batch_normalization_32", 0, 0, {}]]], "config": {"dtype": "float32", "name": "activation_32", "activation": "relu", "trainable": true}, "name": "activation_32", "class_name": "Activation"}, {"inbound_nodes": [[["batch_normalization_37", 0, 0, {}]]], "config": {"dtype": "float32", "name": "activation_37", "activation": "relu", "trainable": true}, "name": "activation_37", "class_name": "Activation"}, {"inbound_nodes": [[["mixed3", 0, 0, {}]]], "config": {"padding": "same", "pool_size": [3, 3], "name": "average_pooling2d_3", "dtype": "float32", "data_format": "channels_last", "strides": [1, 1], "trainable": true}, "name": "average_pooling2d_3", "class_name": "AveragePooling2D"}, {"inbound_nodes": [[["mixed3", 0, 0, {}]]], "config": {"kernel_constraint": null, "bias_constraint": null, "dilation_rate": [1, 1], "bias_initializer": {"config": {"dtype": "float32"}, "class_name": "Zeros"}, "data_format": "channels_last", "kernel_initializer": {"config": {"scale": 1.0, "distribution": "uniform", "seed": null, "mode": "fan_avg", "dtype": "float32"}, "class_name": "VarianceScaling"}, "dtype": "float32", "kernel_size": [1, 1], "kernel_regularizer": null, "activity_regularizer": null, "bias_regularizer": null, "trainable": true, "padding": "same", "filters": 192, "name": "conv2d_30", "use_bias": false, "strides": [1, 1], "activation": "linear"}, "name": "conv2d_30", "class_name": "Conv2D"}, {"inbound_nodes": [[["activation_32", 0, 0, {}]]], "config": {"kernel_constraint": null, "bias_constraint": null, "dilation_rate": [1, 1], "bias_initializer": {"config": {"dtype": "float32"}, "class_name": "Zeros"}, "data_format": "channels_last", "kernel_initializer": {"config": {"scale": 1.0, "distribution": "uniform", "seed": null, "mode": "fan_avg", "dtype": "float32"}, "class_name": "VarianceScaling"}, "dtype": "float32", "kernel_size": [7, 1], "kernel_regularizer": null, "activity_regularizer": null, "bias_regularizer": null, "trainable": true, "padding": "same", "filters": 192, "name": "conv2d_33", "use_bias": false, "strides": [1, 1], "activation": "linear"}, "name": "conv2d_33", "class_name": "Conv2D"}, {"inbound_nodes": [[["activation_37", 0, 0, {}]]], "config": {"kernel_constraint": null, "bias_constraint": null, "dilation_rate": [1, 1], "bias_initializer": {"config": {"dtype": "float32"}, "class_name": "Zeros"}, "data_format": "channels_last", "kernel_initializer": {"config": {"scale": 1.0, "distribution": "uniform", "seed": null, "mode": "fan_avg", "dtype": "float32"}, "class_name": "VarianceScaling"}, "dtype": "float32", "kernel_size": [1, 7], "kernel_regularizer": null, "activity_regularizer": null, "bias_regularizer": null, "trainable": true, "padding": "same", "filters": 192, "name": "conv2d_38", "use_bias": false, "strides": [1, 1], "activation": "linear"}, "name": "conv2d_38", "class_name": "Conv2D"}, {"inbound_nodes": [[["average_pooling2d_3", 0, 0, {}]]], "config": {"kernel_constraint": null, "bias_constraint": null, "dilation_rate": [1, 1], "bias_initializer": {"config": {"dtype": "float32"}, "class_name": "Zeros"}, "data_format": "channels_last", "kernel_initializer": {"config": {"scale": 1.0, "distribution": "uniform", "seed": null, "mode": "fan_avg", "dtype": "float32"}, "class_name": "VarianceScaling"}, "dtype": "float32", "kernel_size": [1, 1], "kernel_regularizer": null, "activity_regularizer": null, "bias_regularizer": null, "trainable": true, "padding": "same", "filters": 192, "name": "conv2d_39", "use_bias": false, "strides": [1, 1], "activation": "linear"}, "name": "conv2d_39", "class_name": "Conv2D"}, {"inbound_nodes": [[["conv2d_30", 0, 0, {}]]], "config": {"moving_variance_initializer": {"config": {"dtype": "float32"}, "class_name": "Ones"}, "beta_regularizer": null, "moving_mean_initializer": {"config": {"dtype": "float32"}, "class_name": "Zeros"}, "beta_constraint": null, "epsilon": 0.001, "axis": [3], "gamma_initializer": {"config": {"dtype": "float32"}, "class_name": "Ones"}, "beta_initializer": {"config": {"dtype": "float32"}, "class_name": "Zeros"}, "gamma_regularizer": null, "name": "batch_normalization_30", "gamma_constraint": null, "dtype": "float32", "trainable": true, "momentum": 0.99, "scale": false, "center": true}, "name": "batch_normalization_30", "class_name": "BatchNormalization"}, {"inbound_nodes": [[["conv2d_33", 0, 0, {}]]], "config": {"moving_variance_initializer": {"config": {"dtype": "float32"}, "class_name": "Ones"}, "beta_regularizer": null, "moving_mean_initializer": {"config": {"dtype": "float32"}, "class_name": "Zeros"}, "beta_constraint": null, "epsilon": 0.001, "axis": [3], "gamma_initializer": {"config": {"dtype": "float32"}, "class_name": "Ones"}, "beta_initializer": {"config": {"dtype": "float32"}, "class_name": "Zeros"}, "gamma_regularizer": null, "name": "batch_normalization_33", "gamma_constraint": null, "dtype": "float32", "trainable": true, "momentum": 0.99, "scale": false, "center": true}, "name": "batch_normalization_33", "class_name": "BatchNormalization"}, {"inbound_nodes": [[["conv2d_38", 0, 0, {}]]], "config": {"moving_variance_initializer": {"config": {"dtype": "float32"}, "class_name": "Ones"}, "beta_regularizer": null, "moving_mean_initializer": {"config": {"dtype": "float32"}, "class_name": "Zeros"}, "beta_constraint": null, "epsilon": 0.001, "axis": [3], "gamma_initializer": {"config": {"dtype": "float32"}, "class_name": "Ones"}, "beta_initializer": {"config": {"dtype": "float32"}, "class_name": "Zeros"}, "gamma_regularizer": null, "name": "batch_normalization_38", "gamma_constraint": null, "dtype": "float32", "trainable": true, "momentum": 0.99, "scale": false, "center": true}, "name": "batch_normalization_38", "class_name": "BatchNormalization"}, {"inbound_nodes": [[["conv2d_39", 0, 0, {}]]], "config": {"moving_variance_initializer": {"config": {"dtype": "float32"}, "class_name": "Ones"}, "beta_regularizer": null, "moving_mean_initializer": {"config": {"dtype": "float32"}, "class_name": "Zeros"}, "beta_constraint": null, "epsilon": 0.001, "axis": [3], "gamma_initializer": {"config": {"dtype": "float32"}, "class_name": "Ones"}, "beta_initializer": {"config": {"dtype": "float32"}, "class_name": "Zeros"}, "gamma_regularizer": null, "name": "batch_normalization_39", "gamma_constraint": null, "dtype": "float32", "trainable": true, "momentum": 0.99, "scale": false, "center": true}, "name": "batch_normalization_39", "class_name": "BatchNormalization"}, {"inbound_nodes": [[["batch_normalization_30", 0, 0, {}]]], "config": {"dtype": "float32", "name": "activation_30", "activation": "relu", "trainable": true}, "name": "activation_30", "class_name": "Activation"}, {"inbound_nodes": [[["batch_normalization_33", 0, 0, {}]]], "config": {"dtype": "float32", "name": "activation_33", "activation": "relu", "trainable": true}, "name": "activation_33", "class_name": "Activation"}, {"inbound_nodes": [[["batch_normalization_38", 0, 0, {}]]], "config": {"dtype": "float32", "name": "activation_38", "activation": "relu", "trainable": true}, "name": "activation_38", "class_name": "Activation"}, {"inbound_nodes": [[["batch_normalization_39", 0, 0, {}]]], "config": {"dtype": "float32", "name": "activation_39", "activation": "relu", "trainable": true}, "name": "activation_39", "class_name": "Activation"}, {"inbound_nodes": [[["activation_30", 0, 0, {}], ["activation_33", 0, 0, {}], ["activation_38", 0, 0, {}], ["activation_39", 0, 0, {}]]], "config": {"dtype": "float32", "trainable": true, "name": "mixed4", "axis": 3}, "name": "mixed4", "class_name": "Concatenate"}, {"inbound_nodes": [[["mixed4", 0, 0, {}]]], "config": {"kernel_constraint": null, "bias_constraint": null, "dilation_rate": [1, 1], "bias_initializer": {"config": {"dtype": "float32"}, "class_name": "Zeros"}, "data_format": "channels_last", "kernel_initializer": {"config": {"scale": 1.0, "distribution": "uniform", "seed": null, "mode": "fan_avg", "dtype": "float32"}, "class_name": "VarianceScaling"}, "dtype": "float32", "kernel_size": [1, 1], "kernel_regularizer": null, "activity_regularizer": null, "bias_regularizer": null, "trainable": true, "padding": "same", "filters": 160, "name": "conv2d_44", "use_bias": false, "strides": [1, 1], "activation": "linear"}, "name": "conv2d_44", "class_name": "Conv2D"}, {"inbound_nodes": [[["conv2d_44", 0, 0, {}]]], "config": {"moving_variance_initializer": {"config": {"dtype": "float32"}, "class_name": "Ones"}, "beta_regularizer": null, "moving_mean_initializer": {"config": {"dtype": "float32"}, "class_name": "Zeros"}, "beta_constraint": null, "epsilon": 0.001, "axis": [3], "gamma_initializer": {"config": {"dtype": "float32"}, "class_name": "Ones"}, "beta_initializer": {"config": {"dtype": "float32"}, "class_name": "Zeros"}, "gamma_regularizer": null, "name": "batch_normalization_44", "gamma_constraint": null, "dtype": "float32", "trainable": true, "momentum": 0.99, "scale": false, "center": true}, "name": "batch_normalization_44", "class_name": "BatchNormalization"}, {"inbound_nodes": [[["batch_normalization_44", 0, 0, {}]]], "config": {"dtype": "float32", "name": "activation_44", "activation": "relu", "trainable": true}, "name": "activation_44", "class_name": "Activation"}, {"inbound_nodes": [[["activation_44", 0, 0, {}]]], "config": {"kernel_constraint": null, "bias_constraint": null, "dilation_rate": [1, 1], "bias_initializer": {"config": {"dtype": "float32"}, "class_name": "Zeros"}, "data_format": "channels_last", "kernel_initializer": {"config": {"scale": 1.0, "distribution": "uniform", "seed": null, "mode": "fan_avg", "dtype": "float32"}, "class_name": "VarianceScaling"}, "dtype": "float32", "kernel_size": [7, 1], "kernel_regularizer": null, "activity_regularizer": null, "bias_regularizer": null, "trainable": true, "padding": "same", "filters": 160, "name": "conv2d_45", "use_bias": false, "strides": [1, 1], "activation": "linear"}, "name": "conv2d_45", "class_name": "Conv2D"}, {"inbound_nodes": [[["conv2d_45", 0, 0, {}]]], "config": {"moving_variance_initializer": {"config": {"dtype": "float32"}, "class_name": "Ones"}, "beta_regularizer": null, "moving_mean_initializer": {"config": {"dtype": "float32"}, "class_name": "Zeros"}, "beta_constraint": null, "epsilon": 0.001, "axis": [3], "gamma_initializer": {"config": {"dtype": "float32"}, "class_name": "Ones"}, "beta_initializer": {"config": {"dtype": "float32"}, "class_name": "Zeros"}, "gamma_regularizer": null, "name": "batch_normalization_45", "gamma_constraint": null, "dtype": "float32", "trainable": true, "momentum": 0.99, "scale": false, "center": true}, "name": "batch_normalization_45", "class_name": "BatchNormalization"}, {"inbound_nodes": [[["batch_normalization_45", 0, 0, {}]]], "config": {"dtype": "float32", "name": "activation_45", "activation": "relu", "trainable": true}, "name": "activation_45", "class_name": "Activation"}, {"inbound_nodes": [[["mixed4", 0, 0, {}]]], "config": {"kernel_constraint": null, "bias_constraint": null, "dilation_rate": [1, 1], "bias_initializer": {"config": {"dtype": "float32"}, "class_name": "Zeros"}, "data_format": "channels_last", "kernel_initializer": {"config": {"scale": 1.0, "distribution": "uniform", "seed": null, "mode": "fan_avg", "dtype": "float32"}, "class_name": "VarianceScaling"}, "dtype": "float32", "kernel_size": [1, 1], "kernel_regularizer": null, "activity_regularizer": null, "bias_regularizer": null, "trainable": true, "padding": "same", "filters": 160, "name": "conv2d_41", "use_bias": false, "strides": [1, 1], "activation": "linear"}, "name": "conv2d_41", "class_name": "Conv2D"}, {"inbound_nodes": [[["activation_45", 0, 0, {}]]], "config": {"kernel_constraint": null, "bias_constraint": null, "dilation_rate": [1, 1], "bias_initializer": {"config": {"dtype": "float32"}, "class_name": "Zeros"}, "data_format": "channels_last", "kernel_initializer": {"config": {"scale": 1.0, "distribution": "uniform", "seed": null, "mode": "fan_avg", "dtype": "float32"}, "class_name": "VarianceScaling"}, "dtype": "float32", "kernel_size": [1, 7], "kernel_regularizer": null, "activity_regularizer": null, "bias_regularizer": null, "trainable": true, "padding": "same", "filters": 160, "name": "conv2d_46", "use_bias": false, "strides": [1, 1], "activation": "linear"}, "name": "conv2d_46", "class_name": "Conv2D"}, {"inbound_nodes": [[["conv2d_41", 0, 0, {}]]], "config": {"moving_variance_initializer": {"config": {"dtype": "float32"}, "class_name": "Ones"}, "beta_regularizer": null, "moving_mean_initializer": {"config": {"dtype": "float32"}, "class_name": "Zeros"}, "beta_constraint": null, "epsilon": 0.001, "axis": [3], "gamma_initializer": {"config": {"dtype": "float32"}, "class_name": "Ones"}, "beta_initializer": {"config": {"dtype": "float32"}, "class_name": "Zeros"}, "gamma_regularizer": null, "name": "batch_normalization_41", "gamma_constraint": null, "dtype": "float32", "trainable": true, "momentum": 0.99, "scale": false, "center": true}, "name": "batch_normalization_41", "class_name": "BatchNormalization"}, {"inbound_nodes": [[["conv2d_46", 0, 0, {}]]], "config": {"moving_variance_initializer": {"config": {"dtype": "float32"}, "class_name": "Ones"}, "beta_regularizer": null, "moving_mean_initializer": {"config": {"dtype": "float32"}, "class_name": "Zeros"}, "beta_constraint": null, "epsilon": 0.001, "axis": [3], "gamma_initializer": {"config": {"dtype": "float32"}, "class_name": "Ones"}, "beta_initializer": {"config": {"dtype": "float32"}, "class_name": "Zeros"}, "gamma_regularizer": null, "name": "batch_normalization_46", "gamma_constraint": null, "dtype": "float32", "trainable": true, "momentum": 0.99, "scale": false, "center": true}, "name": "batch_normalization_46", "class_name": "BatchNormalization"}, {"inbound_nodes": [[["batch_normalization_41", 0, 0, {}]]], "config": {"dtype": "float32", "name": "activation_41", "activation": "relu", "trainable": true}, "name": "activation_41", "class_name": "Activation"}, {"inbound_nodes": [[["batch_normalization_46", 0, 0, {}]]], "config": {"dtype": "float32", "name": "activation_46", "activation": "relu", "trainable": true}, "name": "activation_46", "class_name": "Activation"}, {"inbound_nodes": [[["activation_41", 0, 0, {}]]], "config": {"kernel_constraint": null, "bias_constraint": null, "dilation_rate": [1, 1], "bias_initializer": {"config": {"dtype": "float32"}, "class_name": "Zeros"}, "data_format": "channels_last", "kernel_initializer": {"config": {"scale": 1.0, "distribution": "uniform", "seed": null, "mode": "fan_avg", "dtype": "float32"}, "class_name": "VarianceScaling"}, "dtype": "float32", "kernel_size": [1, 7], "kernel_regularizer": null, "activity_regularizer": null, "bias_regularizer": null, "trainable": true, "padding": "same", "filters": 160, "name": "conv2d_42", "use_bias": false, "strides": [1, 1], "activation": "linear"}, "name": "conv2d_42", "class_name": "Conv2D"}, {"inbound_nodes": [[["activation_46", 0, 0, {}]]], "config": {"kernel_constraint": null, "bias_constraint": null, "dilation_rate": [1, 1], "bias_initializer": {"config": {"dtype": "float32"}, "class_name": "Zeros"}, "data_format": "channels_last", "kernel_initializer": {"config": {"scale": 1.0, "distribution": "uniform", "seed": null, "mode": "fan_avg", "dtype": "float32"}, "class_name": "VarianceScaling"}, "dtype": "float32", "kernel_size": [7, 1], "kernel_regularizer": null, "activity_regularizer": null, "bias_regularizer": null, "trainable": true, "padding": "same", "filters": 160, "name": "conv2d_47", "use_bias": false, "strides": [1, 1], "activation": "linear"}, "name": "conv2d_47", "class_name": "Conv2D"}, {"inbound_nodes": [[["conv2d_42", 0, 0, {}]]], "config": {"moving_variance_initializer": {"config": {"dtype": "float32"}, "class_name": "Ones"}, "beta_regularizer": null, "moving_mean_initializer": {"config": {"dtype": "float32"}, "class_name": "Zeros"}, "beta_constraint": null, "epsilon": 0.001, "axis": [3], "gamma_initializer": {"config": {"dtype": "float32"}, "class_name": "Ones"}, "beta_initializer": {"config": {"dtype": "float32"}, "class_name": "Zeros"}, "gamma_regularizer": null, "name": "batch_normalization_42", "gamma_constraint": null, "dtype": "float32", "trainable": true, "momentum": 0.99, "scale": false, "center": true}, "name": "batch_normalization_42", "class_name": "BatchNormalization"}, {"inbound_nodes": [[["conv2d_47", 0, 0, {}]]], "config": {"moving_variance_initializer": {"config": {"dtype": "float32"}, "class_name": "Ones"}, "beta_regularizer": null, "moving_mean_initializer": {"config": {"dtype": "float32"}, "class_name": "Zeros"}, "beta_constraint": null, "epsilon": 0.001, "axis": [3], "gamma_initializer": {"config": {"dtype": "float32"}, "class_name": "Ones"}, "beta_initializer": {"config": {"dtype": "float32"}, "class_name": "Zeros"}, "gamma_regularizer": null, "name": "batch_normalization_47", "gamma_constraint": null, "dtype": "float32", "trainable": true, "momentum": 0.99, "scale": false, "center": true}, "name": "batch_normalization_47", "class_name": "BatchNormalization"}, {"inbound_nodes": [[["batch_normalization_42", 0, 0, {}]]], "config": {"dtype": "float32", "name": "activation_42", "activation": "relu", "trainable": true}, "name": "activation_42", "class_name": "Activation"}, {"inbound_nodes": [[["batch_normalization_47", 0, 0, {}]]], "config": {"dtype": "float32", "name": "activation_47", "activation": "relu", "trainable": true}, "name": "activation_47", "class_name": "Activation"}, {"inbound_nodes": [[["mixed4", 0, 0, {}]]], "config": {"padding": "same", "pool_size": [3, 3], "name": "average_pooling2d_4", "dtype": "float32", "data_format": "channels_last", "strides": [1, 1], "trainable": true}, "name": "average_pooling2d_4", "class_name": "AveragePooling2D"}, {"inbound_nodes": [[["mixed4", 0, 0, {}]]], "config": {"kernel_constraint": null, "bias_constraint": null, "dilation_rate": [1, 1], "bias_initializer": {"config": {"dtype": "float32"}, "class_name": "Zeros"}, "data_format": "channels_last", "kernel_initializer": {"config": {"scale": 1.0, "distribution": "uniform", "seed": null, "mode": "fan_avg", "dtype": "float32"}, "class_name": "VarianceScaling"}, "dtype": "float32", "kernel_size": [1, 1], "kernel_regularizer": null, "activity_regularizer": null, "bias_regularizer": null, "trainable": true, "padding": "same", "filters": 192, "name": "conv2d_40", "use_bias": false, "strides": [1, 1], "activation": "linear"}, "name": "conv2d_40", "class_name": "Conv2D"}, {"inbound_nodes": [[["activation_42", 0, 0, {}]]], "config": {"kernel_constraint": null, "bias_constraint": null, "dilation_rate": [1, 1], "bias_initializer": {"config": {"dtype": "float32"}, "class_name": "Zeros"}, "data_format": "channels_last", "kernel_initializer": {"config": {"scale": 1.0, "distribution": "uniform", "seed": null, "mode": "fan_avg", "dtype": "float32"}, "class_name": "VarianceScaling"}, "dtype": "float32", "kernel_size": [7, 1], "kernel_regularizer": null, "activity_regularizer": null, "bias_regularizer": null, "trainable": true, "padding": "same", "filters": 192, "name": "conv2d_43", "use_bias": false, "strides": [1, 1], "activation": "linear"}, "name": "conv2d_43", "class_name": "Conv2D"}, {"inbound_nodes": [[["activation_47", 0, 0, {}]]], "config": {"kernel_constraint": null, "bias_constraint": null, "dilation_rate": [1, 1], "bias_initializer": {"config": {"dtype": "float32"}, "class_name": "Zeros"}, "data_format": "channels_last", "kernel_initializer": {"config": {"scale": 1.0, "distribution": "uniform", "seed": null, "mode": "fan_avg", "dtype": "float32"}, "class_name": "VarianceScaling"}, "dtype": "float32", "kernel_size": [1, 7], "kernel_regularizer": null, "activity_regularizer": null, "bias_regularizer": null, "trainable": true, "padding": "same", "filters": 192, "name": "conv2d_48", "use_bias": false, "strides": [1, 1], "activation": "linear"}, "name": "conv2d_48", "class_name": "Conv2D"}, {"inbound_nodes": [[["average_pooling2d_4", 0, 0, {}]]], "config": {"kernel_constraint": null, "bias_constraint": null, "dilation_rate": [1, 1], "bias_initializer": {"config": {"dtype": "float32"}, "class_name": "Zeros"}, "data_format": "channels_last", "kernel_initializer": {"config": {"scale": 1.0, "distribution": "uniform", "seed": null, "mode": "fan_avg", "dtype": "float32"}, "class_name": "VarianceScaling"}, "dtype": "float32", "kernel_size": [1, 1], "kernel_regularizer": null, "activity_regularizer": null, "bias_regularizer": null, "trainable": true, "padding": "same", "filters": 192, "name": "conv2d_49", "use_bias": false, "strides": [1, 1], "activation": "linear"}, "name": "conv2d_49", "class_name": "Conv2D"}, {"inbound_nodes": [[["conv2d_40", 0, 0, {}]]], "config": {"moving_variance_initializer": {"config": {"dtype": "float32"}, "class_name": "Ones"}, "beta_regularizer": null, "moving_mean_initializer": {"config": {"dtype": "float32"}, "class_name": "Zeros"}, "beta_constraint": null, "epsilon": 0.001, "axis": [3], "gamma_initializer": {"config": {"dtype": "float32"}, "class_name": "Ones"}, "beta_initializer": {"config": {"dtype": "float32"}, "class_name": "Zeros"}, "gamma_regularizer": null, "name": "batch_normalization_40", "gamma_constraint": null, "dtype": "float32", "trainable": true, "momentum": 0.99, "scale": false, "center": true}, "name": "batch_normalization_40", "class_name": "BatchNormalization"}, {"inbound_nodes": [[["conv2d_43", 0, 0, {}]]], "config": {"moving_variance_initializer": {"config": {"dtype": "float32"}, "class_name": "Ones"}, "beta_regularizer": null, "moving_mean_initializer": {"config": {"dtype": "float32"}, "class_name": "Zeros"}, "beta_constraint": null, "epsilon": 0.001, "axis": [3], "gamma_initializer": {"config": {"dtype": "float32"}, "class_name": "Ones"}, "beta_initializer": {"config": {"dtype": "float32"}, "class_name": "Zeros"}, "gamma_regularizer": null, "name": "batch_normalization_43", "gamma_constraint": null, "dtype": "float32", "trainable": true, "momentum": 0.99, "scale": false, "center": true}, "name": "batch_normalization_43", "class_name": "BatchNormalization"}, {"inbound_nodes": [[["conv2d_48", 0, 0, {}]]], "config": {"moving_variance_initializer": {"config": {"dtype": "float32"}, "class_name": "Ones"}, "beta_regularizer": null, "moving_mean_initializer": {"config": {"dtype": "float32"}, "class_name": "Zeros"}, "beta_constraint": null, "epsilon": 0.001, "axis": [3], "gamma_initializer": {"config": {"dtype": "float32"}, "class_name": "Ones"}, "beta_initializer": {"config": {"dtype": "float32"}, "class_name": "Zeros"}, "gamma_regularizer": null, "name": "batch_normalization_48", "gamma_constraint": null, "dtype": "float32", "trainable": true, "momentum": 0.99, "scale": false, "center": true}, "name": "batch_normalization_48", "class_name": "BatchNormalization"}, {"inbound_nodes": [[["conv2d_49", 0, 0, {}]]], "config": {"moving_variance_initializer": {"config": {"dtype": "float32"}, "class_name": "Ones"}, "beta_regularizer": null, "moving_mean_initializer": {"config": {"dtype": "float32"}, "class_name": "Zeros"}, "beta_constraint": null, "epsilon": 0.001, "axis": [3], "gamma_initializer": {"config": {"dtype": "float32"}, "class_name": "Ones"}, "beta_initializer": {"config": {"dtype": "float32"}, "class_name": "Zeros"}, "gamma_regularizer": null, "name": "batch_normalization_49", "gamma_constraint": null, "dtype": "float32", "trainable": true, "momentum": 0.99, "scale": false, "center": true}, "name": "batch_normalization_49", "class_name": "BatchNormalization"}, {"inbound_nodes": [[["batch_normalization_40", 0, 0, {}]]], "config": {"dtype": "float32", "name": "activation_40", "activation": "relu", "trainable": true}, "name": "activation_40", "class_name": "Activation"}, {"inbound_nodes": [[["batch_normalization_43", 0, 0, {}]]], "config": {"dtype": "float32", "name": "activation_43", "activation": "relu", "trainable": true}, "name": "activation_43", "class_name": "Activation"}, {"inbound_nodes": [[["batch_normalization_48", 0, 0, {}]]], "config": {"dtype": "float32", "name": "activation_48", "activation": "relu", "trainable": true}, "name": "activation_48", "class_name": "Activation"}, {"inbound_nodes": [[["batch_normalization_49", 0, 0, {}]]], "config": {"dtype": "float32", "name": "activation_49", "activation": "relu", "trainable": true}, "name": "activation_49", "class_name": "Activation"}, {"inbound_nodes": [[["activation_40", 0, 0, {}], ["activation_43", 0, 0, {}], ["activation_48", 0, 0, {}], ["activation_49", 0, 0, {}]]], "config": {"dtype": "float32", "trainable": true, "name": "mixed5", "axis": 3}, "name": "mixed5", "class_name": "Concatenate"}, {"inbound_nodes": [[["mixed5", 0, 0, {}]]], "config": {"kernel_constraint": null, "bias_constraint": null, "dilation_rate": [1, 1], "bias_initializer": {"config": {"dtype": "float32"}, "class_name": "Zeros"}, "data_format": "channels_last", "kernel_initializer": {"config": {"scale": 1.0, "distribution": "uniform", "seed": null, "mode": "fan_avg", "dtype": "float32"}, "class_name": "VarianceScaling"}, "dtype": "float32", "kernel_size": [1, 1], "kernel_regularizer": null, "activity_regularizer": null, "bias_regularizer": null, "trainable": true, "padding": "same", "filters": 160, "name": "conv2d_54", "use_bias": false, "strides": [1, 1], "activation": "linear"}, "name": "conv2d_54", "class_name": "Conv2D"}, {"inbound_nodes": [[["conv2d_54", 0, 0, {}]]], "config": {"moving_variance_initializer": {"config": {"dtype": "float32"}, "class_name": "Ones"}, "beta_regularizer": null, "moving_mean_initializer": {"config": {"dtype": "float32"}, "class_name": "Zeros"}, "beta_constraint": null, "epsilon": 0.001, "axis": [3], "gamma_initializer": {"config": {"dtype": "float32"}, "class_name": "Ones"}, "beta_initializer": {"config": {"dtype": "float32"}, "class_name": "Zeros"}, "gamma_regularizer": null, "name": "batch_normalization_54", "gamma_constraint": null, "dtype": "float32", "trainable": true, "momentum": 0.99, "scale": false, "center": true}, "name": "batch_normalization_54", "class_name": "BatchNormalization"}, {"inbound_nodes": [[["batch_normalization_54", 0, 0, {}]]], "config": {"dtype": "float32", "name": "activation_54", "activation": "relu", "trainable": true}, "name": "activation_54", "class_name": "Activation"}, {"inbound_nodes": [[["activation_54", 0, 0, {}]]], "config": {"kernel_constraint": null, "bias_constraint": null, "dilation_rate": [1, 1], "bias_initializer": {"config": {"dtype": "float32"}, "class_name": "Zeros"}, "data_format": "channels_last", "kernel_initializer": {"config": {"scale": 1.0, "distribution": "uniform", "seed": null, "mode": "fan_avg", "dtype": "float32"}, "class_name": "VarianceScaling"}, "dtype": "float32", "kernel_size": [7, 1], "kernel_regularizer": null, "activity_regularizer": null, "bias_regularizer": null, "trainable": true, "padding": "same", "filters": 160, "name": "conv2d_55", "use_bias": false, "strides": [1, 1], "activation": "linear"}, "name": "conv2d_55", "class_name": "Conv2D"}, {"inbound_nodes": [[["conv2d_55", 0, 0, {}]]], "config": {"moving_variance_initializer": {"config": {"dtype": "float32"}, "class_name": "Ones"}, "beta_regularizer": null, "moving_mean_initializer": {"config": {"dtype": "float32"}, "class_name": "Zeros"}, "beta_constraint": null, "epsilon": 0.001, "axis": [3], "gamma_initializer": {"config": {"dtype": "float32"}, "class_name": "Ones"}, "beta_initializer": {"config": {"dtype": "float32"}, "class_name": "Zeros"}, "gamma_regularizer": null, "name": "batch_normalization_55", "gamma_constraint": null, "dtype": "float32", "trainable": true, "momentum": 0.99, "scale": false, "center": true}, "name": "batch_normalization_55", "class_name": "BatchNormalization"}, {"inbound_nodes": [[["batch_normalization_55", 0, 0, {}]]], "config": {"dtype": "float32", "name": "activation_55", "activation": "relu", "trainable": true}, "name": "activation_55", "class_name": "Activation"}, {"inbound_nodes": [[["mixed5", 0, 0, {}]]], "config": {"kernel_constraint": null, "bias_constraint": null, "dilation_rate": [1, 1], "bias_initializer": {"config": {"dtype": "float32"}, "class_name": "Zeros"}, "data_format": "channels_last", "kernel_initializer": {"config": {"scale": 1.0, "distribution": "uniform", "seed": null, "mode": "fan_avg", "dtype": "float32"}, "class_name": "VarianceScaling"}, "dtype": "float32", "kernel_size": [1, 1], "kernel_regularizer": null, "activity_regularizer": null, "bias_regularizer": null, "trainable": true, "padding": "same", "filters": 160, "name": "conv2d_51", "use_bias": false, "strides": [1, 1], "activation": "linear"}, "name": "conv2d_51", "class_name": "Conv2D"}, {"inbound_nodes": [[["activation_55", 0, 0, {}]]], "config": {"kernel_constraint": null, "bias_constraint": null, "dilation_rate": [1, 1], "bias_initializer": {"config": {"dtype": "float32"}, "class_name": "Zeros"}, "data_format": "channels_last", "kernel_initializer": {"config": {"scale": 1.0, "distribution": "uniform", "seed": null, "mode": "fan_avg", "dtype": "float32"}, "class_name": "VarianceScaling"}, "dtype": "float32", "kernel_size": [1, 7], "kernel_regularizer": null, "activity_regularizer": null, "bias_regularizer": null, "trainable": true, "padding": "same", "filters": 160, "name": "conv2d_56", "use_bias": false, "strides": [1, 1], "activation": "linear"}, "name": "conv2d_56", "class_name": "Conv2D"}, {"inbound_nodes": [[["conv2d_51", 0, 0, {}]]], "config": {"moving_variance_initializer": {"config": {"dtype": "float32"}, "class_name": "Ones"}, "beta_regularizer": null, "moving_mean_initializer": {"config": {"dtype": "float32"}, "class_name": "Zeros"}, "beta_constraint": null, "epsilon": 0.001, "axis": [3], "gamma_initializer": {"config": {"dtype": "float32"}, "class_name": "Ones"}, "beta_initializer": {"config": {"dtype": "float32"}, "class_name": "Zeros"}, "gamma_regularizer": null, "name": "batch_normalization_51", "gamma_constraint": null, "dtype": "float32", "trainable": true, "momentum": 0.99, "scale": false, "center": true}, "name": "batch_normalization_51", "class_name": "BatchNormalization"}, {"inbound_nodes": [[["conv2d_56", 0, 0, {}]]], "config": {"moving_variance_initializer": {"config": {"dtype": "float32"}, "class_name": "Ones"}, "beta_regularizer": null, "moving_mean_initializer": {"config": {"dtype": "float32"}, "class_name": "Zeros"}, "beta_constraint": null, "epsilon": 0.001, "axis": [3], "gamma_initializer": {"config": {"dtype": "float32"}, "class_name": "Ones"}, "beta_initializer": {"config": {"dtype": "float32"}, "class_name": "Zeros"}, "gamma_regularizer": null, "name": "batch_normalization_56", "gamma_constraint": null, "dtype": "float32", "trainable": true, "momentum": 0.99, "scale": false, "center": true}, "name": "batch_normalization_56", "class_name": "BatchNormalization"}, {"inbound_nodes": [[["batch_normalization_51", 0, 0, {}]]], "config": {"dtype": "float32", "name": "activation_51", "activation": "relu", "trainable": true}, "name": "activation_51", "class_name": "Activation"}, {"inbound_nodes": [[["batch_normalization_56", 0, 0, {}]]], "config": {"dtype": "float32", "name": "activation_56", "activation": "relu", "trainable": true}, "name": "activation_56", "class_name": "Activation"}, {"inbound_nodes": [[["activation_51", 0, 0, {}]]], "config": {"kernel_constraint": null, "bias_constraint": null, "dilation_rate": [1, 1], "bias_initializer": {"config": {"dtype": "float32"}, "class_name": "Zeros"}, "data_format": "channels_last", "kernel_initializer": {"config": {"scale": 1.0, "distribution": "uniform", "seed": null, "mode": "fan_avg", "dtype": "float32"}, "class_name": "VarianceScaling"}, "dtype": "float32", "kernel_size": [1, 7], "kernel_regularizer": null, "activity_regularizer": null, "bias_regularizer": null, "trainable": true, "padding": "same", "filters": 160, "name": "conv2d_52", "use_bias": false, "strides": [1, 1], "activation": "linear"}, "name": "conv2d_52", "class_name": "Conv2D"}, {"inbound_nodes": [[["activation_56", 0, 0, {}]]], "config": {"kernel_constraint": null, "bias_constraint": null, "dilation_rate": [1, 1], "bias_initializer": {"config": {"dtype": "float32"}, "class_name": "Zeros"}, "data_format": "channels_last", "kernel_initializer": {"config": {"scale": 1.0, "distribution": "uniform", "seed": null, "mode": "fan_avg", "dtype": "float32"}, "class_name": "VarianceScaling"}, "dtype": "float32", "kernel_size": [7, 1], "kernel_regularizer": null, "activity_regularizer": null, "bias_regularizer": null, "trainable": true, "padding": "same", "filters": 160, "name": "conv2d_57", "use_bias": false, "strides": [1, 1], "activation": "linear"}, "name": "conv2d_57", "class_name": "Conv2D"}, {"inbound_nodes": [[["conv2d_52", 0, 0, {}]]], "config": {"moving_variance_initializer": {"config": {"dtype": "float32"}, "class_name": "Ones"}, "beta_regularizer": null, "moving_mean_initializer": {"config": {"dtype": "float32"}, "class_name": "Zeros"}, "beta_constraint": null, "epsilon": 0.001, "axis": [3], "gamma_initializer": {"config": {"dtype": "float32"}, "class_name": "Ones"}, "beta_initializer": {"config": {"dtype": "float32"}, "class_name": "Zeros"}, "gamma_regularizer": null, "name": "batch_normalization_52", "gamma_constraint": null, "dtype": "float32", "trainable": true, "momentum": 0.99, "scale": false, "center": true}, "name": "batch_normalization_52", "class_name": "BatchNormalization"}, {"inbound_nodes": [[["conv2d_57", 0, 0, {}]]], "config": {"moving_variance_initializer": {"config": {"dtype": "float32"}, "class_name": "Ones"}, "beta_regularizer": null, "moving_mean_initializer": {"config": {"dtype": "float32"}, "class_name": "Zeros"}, "beta_constraint": null, "epsilon": 0.001, "axis": [3], "gamma_initializer": {"config": {"dtype": "float32"}, "class_name": "Ones"}, "beta_initializer": {"config": {"dtype": "float32"}, "class_name": "Zeros"}, "gamma_regularizer": null, "name": "batch_normalization_57", "gamma_constraint": null, "dtype": "float32", "trainable": true, "momentum": 0.99, "scale": false, "center": true}, "name": "batch_normalization_57", "class_name": "BatchNormalization"}, {"inbound_nodes": [[["batch_normalization_52", 0, 0, {}]]], "config": {"dtype": "float32", "name": "activation_52", "activation": "relu", "trainable": true}, "name": "activation_52", "class_name": "Activation"}, {"inbound_nodes": [[["batch_normalization_57", 0, 0, {}]]], "config": {"dtype": "float32", "name": "activation_57", "activation": "relu", "trainable": true}, "name": "activation_57", "class_name": "Activation"}, {"inbound_nodes": [[["mixed5", 0, 0, {}]]], "config": {"padding": "same", "pool_size": [3, 3], "name": "average_pooling2d_5", "dtype": "float32", "data_format": "channels_last", "strides": [1, 1], "trainable": true}, "name": "average_pooling2d_5", "class_name": "AveragePooling2D"}, {"inbound_nodes": [[["mixed5", 0, 0, {}]]], "config": {"kernel_constraint": null, "bias_constraint": null, "dilation_rate": [1, 1], "bias_initializer": {"config": {"dtype": "float32"}, "class_name": "Zeros"}, "data_format": "channels_last", "kernel_initializer": {"config": {"scale": 1.0, "distribution": "uniform", "seed": null, "mode": "fan_avg", "dtype": "float32"}, "class_name": "VarianceScaling"}, "dtype": "float32", "kernel_size": [1, 1], "kernel_regularizer": null, "activity_regularizer": null, "bias_regularizer": null, "trainable": true, "padding": "same", "filters": 192, "name": "conv2d_50", "use_bias": false, "strides": [1, 1], "activation": "linear"}, "name": "conv2d_50", "class_name": "Conv2D"}, {"inbound_nodes": [[["activation_52", 0, 0, {}]]], "config": {"kernel_constraint": null, "bias_constraint": null, "dilation_rate": [1, 1], "bias_initializer": {"config": {"dtype": "float32"}, "class_name": "Zeros"}, "data_format": "channels_last", "kernel_initializer": {"config": {"scale": 1.0, "distribution": "uniform", "seed": null, "mode": "fan_avg", "dtype": "float32"}, "class_name": "VarianceScaling"}, "dtype": "float32", "kernel_size": [7, 1], "kernel_regularizer": null, "activity_regularizer": null, "bias_regularizer": null, "trainable": true, "padding": "same", "filters": 192, "name": "conv2d_53", "use_bias": false, "strides": [1, 1], "activation": "linear"}, "name": "conv2d_53", "class_name": "Conv2D"}, {"inbound_nodes": [[["activation_57", 0, 0, {}]]], "config": {"kernel_constraint": null, "bias_constraint": null, "dilation_rate": [1, 1], "bias_initializer": {"config": {"dtype": "float32"}, "class_name": "Zeros"}, "data_format": "channels_last", "kernel_initializer": {"config": {"scale": 1.0, "distribution": "uniform", "seed": null, "mode": "fan_avg", "dtype": "float32"}, "class_name": "VarianceScaling"}, "dtype": "float32", "kernel_size": [1, 7], "kernel_regularizer": null, "activity_regularizer": null, "bias_regularizer": null, "trainable": true, "padding": "same", "filters": 192, "name": "conv2d_58", "use_bias": false, "strides": [1, 1], "activation": "linear"}, "name": "conv2d_58", "class_name": "Conv2D"}, {"inbound_nodes": [[["average_pooling2d_5", 0, 0, {}]]], "config": {"kernel_constraint": null, "bias_constraint": null, "dilation_rate": [1, 1], "bias_initializer": {"config": {"dtype": "float32"}, "class_name": "Zeros"}, "data_format": "channels_last", "kernel_initializer": {"config": {"scale": 1.0, "distribution": "uniform", "seed": null, "mode": "fan_avg", "dtype": "float32"}, "class_name": "VarianceScaling"}, "dtype": "float32", "kernel_size": [1, 1], "kernel_regularizer": null, "activity_regularizer": null, "bias_regularizer": null, "trainable": true, "padding": "same", "filters": 192, "name": "conv2d_59", "use_bias": false, "strides": [1, 1], "activation": "linear"}, "name": "conv2d_59", "class_name": "Conv2D"}, {"inbound_nodes": [[["conv2d_50", 0, 0, {}]]], "config": {"moving_variance_initializer": {"config": {"dtype": "float32"}, "class_name": "Ones"}, "beta_regularizer": null, "moving_mean_initializer": {"config": {"dtype": "float32"}, "class_name": "Zeros"}, "beta_constraint": null, "epsilon": 0.001, "axis": [3], "gamma_initializer": {"config": {"dtype": "float32"}, "class_name": "Ones"}, "beta_initializer": {"config": {"dtype": "float32"}, "class_name": "Zeros"}, "gamma_regularizer": null, "name": "batch_normalization_50", "gamma_constraint": null, "dtype": "float32", "trainable": true, "momentum": 0.99, "scale": false, "center": true}, "name": "batch_normalization_50", "class_name": "BatchNormalization"}, {"inbound_nodes": [[["conv2d_53", 0, 0, {}]]], "config": {"moving_variance_initializer": {"config": {"dtype": "float32"}, "class_name": "Ones"}, "beta_regularizer": null, "moving_mean_initializer": {"config": {"dtype": "float32"}, "class_name": "Zeros"}, "beta_constraint": null, "epsilon": 0.001, "axis": [3], "gamma_initializer": {"config": {"dtype": "float32"}, "class_name": "Ones"}, "beta_initializer": {"config": {"dtype": "float32"}, "class_name": "Zeros"}, "gamma_regularizer": null, "name": "batch_normalization_53", "gamma_constraint": null, "dtype": "float32", "trainable": true, "momentum": 0.99, "scale": false, "center": true}, "name": "batch_normalization_53", "class_name": "BatchNormalization"}, {"inbound_nodes": [[["conv2d_58", 0, 0, {}]]], "config": {"moving_variance_initializer": {"config": {"dtype": "float32"}, "class_name": "Ones"}, "beta_regularizer": null, "moving_mean_initializer": {"config": {"dtype": "float32"}, "class_name": "Zeros"}, "beta_constraint": null, "epsilon": 0.001, "axis": [3], "gamma_initializer": {"config": {"dtype": "float32"}, "class_name": "Ones"}, "beta_initializer": {"config": {"dtype": "float32"}, "class_name": "Zeros"}, "gamma_regularizer": null, "name": "batch_normalization_58", "gamma_constraint": null, "dtype": "float32", "trainable": true, "momentum": 0.99, "scale": false, "center": true}, "name": "batch_normalization_58", "class_name": "BatchNormalization"}, {"inbound_nodes": [[["conv2d_59", 0, 0, {}]]], "config": {"moving_variance_initializer": {"config": {"dtype": "float32"}, "class_name": "Ones"}, "beta_regularizer": null, "moving_mean_initializer": {"config": {"dtype": "float32"}, "class_name": "Zeros"}, "beta_constraint": null, "epsilon": 0.001, "axis": [3], "gamma_initializer": {"config": {"dtype": "float32"}, "class_name": "Ones"}, "beta_initializer": {"config": {"dtype": "float32"}, "class_name": "Zeros"}, "gamma_regularizer": null, "name": "batch_normalization_59", "gamma_constraint": null, "dtype": "float32", "trainable": true, "momentum": 0.99, "scale": false, "center": true}, "name": "batch_normalization_59", "class_name": "BatchNormalization"}, {"inbound_nodes": [[["batch_normalization_50", 0, 0, {}]]], "config": {"dtype": "float32", "name": "activation_50", "activation": "relu", "trainable": true}, "name": "activation_50", "class_name": "Activation"}, {"inbound_nodes": [[["batch_normalization_53", 0, 0, {}]]], "config": {"dtype": "float32", "name": "activation_53", "activation": "relu", "trainable": true}, "name": "activation_53", "class_name": "Activation"}, {"inbound_nodes": [[["batch_normalization_58", 0, 0, {}]]], "config": {"dtype": "float32", "name": "activation_58", "activation": "relu", "trainable": true}, "name": "activation_58", "class_name": "Activation"}, {"inbound_nodes": [[["batch_normalization_59", 0, 0, {}]]], "config": {"dtype": "float32", "name": "activation_59", "activation": "relu", "trainable": true}, "name": "activation_59", "class_name": "Activation"}, {"inbound_nodes": [[["activation_50", 0, 0, {}], ["activation_53", 0, 0, {}], ["activation_58", 0, 0, {}], ["activation_59", 0, 0, {}]]], "config": {"dtype": "float32", "trainable": true, "name": "mixed6", "axis": 3}, "name": "mixed6", "class_name": "Concatenate"}, {"inbound_nodes": [[["mixed6", 0, 0, {}]]], "config": {"kernel_constraint": null, "bias_constraint": null, "dilation_rate": [1, 1], "bias_initializer": {"config": {"dtype": "float32"}, "class_name": "Zeros"}, "data_format": "channels_last", "kernel_initializer": {"config": {"scale": 1.0, "distribution": "uniform", "seed": null, "mode": "fan_avg", "dtype": "float32"}, "class_name": "VarianceScaling"}, "dtype": "float32", "kernel_size": [1, 1], "kernel_regularizer": null, "activity_regularizer": null, "bias_regularizer": null, "trainable": true, "padding": "same", "filters": 192, "name": "conv2d_64", "use_bias": false, "strides": [1, 1], "activation": "linear"}, "name": "conv2d_64", "class_name": "Conv2D"}, {"inbound_nodes": [[["conv2d_64", 0, 0, {}]]], "config": {"moving_variance_initializer": {"config": {"dtype": "float32"}, "class_name": "Ones"}, "beta_regularizer": null, "moving_mean_initializer": {"config": {"dtype": "float32"}, "class_name": "Zeros"}, "beta_constraint": null, "epsilon": 0.001, "axis": [3], "gamma_initializer": {"config": {"dtype": "float32"}, "class_name": "Ones"}, "beta_initializer": {"config": {"dtype": "float32"}, "class_name": "Zeros"}, "gamma_regularizer": null, "name": "batch_normalization_64", "gamma_constraint": null, "dtype": "float32", "trainable": true, "momentum": 0.99, "scale": false, "center": true}, "name": "batch_normalization_64", "class_name": "BatchNormalization"}, {"inbound_nodes": [[["batch_normalization_64", 0, 0, {}]]], "config": {"dtype": "float32", "name": "activation_64", "activation": "relu", "trainable": true}, "name": "activation_64", "class_name": "Activation"}, {"inbound_nodes": [[["activation_64", 0, 0, {}]]], "config": {"kernel_constraint": null, "bias_constraint": null, "dilation_rate": [1, 1], "bias_initializer": {"config": {"dtype": "float32"}, "class_name": "Zeros"}, "data_format": "channels_last", "kernel_initializer": {"config": {"scale": 1.0, "distribution": "uniform", "seed": null, "mode": "fan_avg", "dtype": "float32"}, "class_name": "VarianceScaling"}, "dtype": "float32", "kernel_size": [7, 1], "kernel_regularizer": null, "activity_regularizer": null, "bias_regularizer": null, "trainable": true, "padding": "same", "filters": 192, "name": "conv2d_65", "use_bias": false, "strides": [1, 1], "activation": "linear"}, "name": "conv2d_65", "class_name": "Conv2D"}, {"inbound_nodes": [[["conv2d_65", 0, 0, {}]]], "config": {"moving_variance_initializer": {"config": {"dtype": "float32"}, "class_name": "Ones"}, "beta_regularizer": null, "moving_mean_initializer": {"config": {"dtype": "float32"}, "class_name": "Zeros"}, "beta_constraint": null, "epsilon": 0.001, "axis": [3], "gamma_initializer": {"config": {"dtype": "float32"}, "class_name": "Ones"}, "beta_initializer": {"config": {"dtype": "float32"}, "class_name": "Zeros"}, "gamma_regularizer": null, "name": "batch_normalization_65", "gamma_constraint": null, "dtype": "float32", "trainable": true, "momentum": 0.99, "scale": false, "center": true}, "name": "batch_normalization_65", "class_name": "BatchNormalization"}, {"inbound_nodes": [[["batch_normalization_65", 0, 0, {}]]], "config": {"dtype": "float32", "name": "activation_65", "activation": "relu", "trainable": true}, "name": "activation_65", "class_name": "Activation"}, {"inbound_nodes": [[["mixed6", 0, 0, {}]]], "config": {"kernel_constraint": null, "bias_constraint": null, "dilation_rate": [1, 1], "bias_initializer": {"config": {"dtype": "float32"}, "class_name": "Zeros"}, "data_format": "channels_last", "kernel_initializer": {"config": {"scale": 1.0, "distribution": "uniform", "seed": null, "mode": "fan_avg", "dtype": "float32"}, "class_name": "VarianceScaling"}, "dtype": "float32", "kernel_size": [1, 1], "kernel_regularizer": null, "activity_regularizer": null, "bias_regularizer": null, "trainable": true, "padding": "same", "filters": 192, "name": "conv2d_61", "use_bias": false, "strides": [1, 1], "activation": "linear"}, "name": "conv2d_61", "class_name": "Conv2D"}, {"inbound_nodes": [[["activation_65", 0, 0, {}]]], "config": {"kernel_constraint": null, "bias_constraint": null, "dilation_rate": [1, 1], "bias_initializer": {"config": {"dtype": "float32"}, "class_name": "Zeros"}, "data_format": "channels_last", "kernel_initializer": {"config": {"scale": 1.0, "distribution": "uniform", "seed": null, "mode": "fan_avg", "dtype": "float32"}, "class_name": "VarianceScaling"}, "dtype": "float32", "kernel_size": [1, 7], "kernel_regularizer": null, "activity_regularizer": null, "bias_regularizer": null, "trainable": true, "padding": "same", "filters": 192, "name": "conv2d_66", "use_bias": false, "strides": [1, 1], "activation": "linear"}, "name": "conv2d_66", "class_name": "Conv2D"}, {"inbound_nodes": [[["conv2d_61", 0, 0, {}]]], "config": {"moving_variance_initializer": {"config": {"dtype": "float32"}, "class_name": "Ones"}, "beta_regularizer": null, "moving_mean_initializer": {"config": {"dtype": "float32"}, "class_name": "Zeros"}, "beta_constraint": null, "epsilon": 0.001, "axis": [3], "gamma_initializer": {"config": {"dtype": "float32"}, "class_name": "Ones"}, "beta_initializer": {"config": {"dtype": "float32"}, "class_name": "Zeros"}, "gamma_regularizer": null, "name": "batch_normalization_61", "gamma_constraint": null, "dtype": "float32", "trainable": true, "momentum": 0.99, "scale": false, "center": true}, "name": "batch_normalization_61", "class_name": "BatchNormalization"}, {"inbound_nodes": [[["conv2d_66", 0, 0, {}]]], "config": {"moving_variance_initializer": {"config": {"dtype": "float32"}, "class_name": "Ones"}, "beta_regularizer": null, "moving_mean_initializer": {"config": {"dtype": "float32"}, "class_name": "Zeros"}, "beta_constraint": null, "epsilon": 0.001, "axis": [3], "gamma_initializer": {"config": {"dtype": "float32"}, "class_name": "Ones"}, "beta_initializer": {"config": {"dtype": "float32"}, "class_name": "Zeros"}, "gamma_regularizer": null, "name": "batch_normalization_66", "gamma_constraint": null, "dtype": "float32", "trainable": true, "momentum": 0.99, "scale": false, "center": true}, "name": "batch_normalization_66", "class_name": "BatchNormalization"}, {"inbound_nodes": [[["batch_normalization_61", 0, 0, {}]]], "config": {"dtype": "float32", "name": "activation_61", "activation": "relu", "trainable": true}, "name": "activation_61", "class_name": "Activation"}, {"inbound_nodes": [[["batch_normalization_66", 0, 0, {}]]], "config": {"dtype": "float32", "name": "activation_66", "activation": "relu", "trainable": true}, "name": "activation_66", "class_name": "Activation"}, {"inbound_nodes": [[["activation_61", 0, 0, {}]]], "config": {"kernel_constraint": null, "bias_constraint": null, "dilation_rate": [1, 1], "bias_initializer": {"config": {"dtype": "float32"}, "class_name": "Zeros"}, "data_format": "channels_last", "kernel_initializer": {"config": {"scale": 1.0, "distribution": "uniform", "seed": null, "mode": "fan_avg", "dtype": "float32"}, "class_name": "VarianceScaling"}, "dtype": "float32", "kernel_size": [1, 7], "kernel_regularizer": null, "activity_regularizer": null, "bias_regularizer": null, "trainable": true, "padding": "same", "filters": 192, "name": "conv2d_62", "use_bias": false, "strides": [1, 1], "activation": "linear"}, "name": "conv2d_62", "class_name": "Conv2D"}, {"inbound_nodes": [[["activation_66", 0, 0, {}]]], "config": {"kernel_constraint": null, "bias_constraint": null, "dilation_rate": [1, 1], "bias_initializer": {"config": {"dtype": "float32"}, "class_name": "Zeros"}, "data_format": "channels_last", "kernel_initializer": {"config": {"scale": 1.0, "distribution": "uniform", "seed": null, "mode": "fan_avg", "dtype": "float32"}, "class_name": "VarianceScaling"}, "dtype": "float32", "kernel_size": [7, 1], "kernel_regularizer": null, "activity_regularizer": null, "bias_regularizer": null, "trainable": true, "padding": "same", "filters": 192, "name": "conv2d_67", "use_bias": false, "strides": [1, 1], "activation": "linear"}, "name": "conv2d_67", "class_name": "Conv2D"}, {"inbound_nodes": [[["conv2d_62", 0, 0, {}]]], "config": {"moving_variance_initializer": {"config": {"dtype": "float32"}, "class_name": "Ones"}, "beta_regularizer": null, "moving_mean_initializer": {"config": {"dtype": "float32"}, "class_name": "Zeros"}, "beta_constraint": null, "epsilon": 0.001, "axis": [3], "gamma_initializer": {"config": {"dtype": "float32"}, "class_name": "Ones"}, "beta_initializer": {"config": {"dtype": "float32"}, "class_name": "Zeros"}, "gamma_regularizer": null, "name": "batch_normalization_62", "gamma_constraint": null, "dtype": "float32", "trainable": true, "momentum": 0.99, "scale": false, "center": true}, "name": "batch_normalization_62", "class_name": "BatchNormalization"}, {"inbound_nodes": [[["conv2d_67", 0, 0, {}]]], "config": {"moving_variance_initializer": {"config": {"dtype": "float32"}, "class_name": "Ones"}, "beta_regularizer": null, "moving_mean_initializer": {"config": {"dtype": "float32"}, "class_name": "Zeros"}, "beta_constraint": null, "epsilon": 0.001, "axis": [3], "gamma_initializer": {"config": {"dtype": "float32"}, "class_name": "Ones"}, "beta_initializer": {"config": {"dtype": "float32"}, "class_name": "Zeros"}, "gamma_regularizer": null, "name": "batch_normalization_67", "gamma_constraint": null, "dtype": "float32", "trainable": true, "momentum": 0.99, "scale": false, "center": true}, "name": "batch_normalization_67", "class_name": "BatchNormalization"}, {"inbound_nodes": [[["batch_normalization_62", 0, 0, {}]]], "config": {"dtype": "float32", "name": "activation_62", "activation": "relu", "trainable": true}, "name": "activation_62", "class_name": "Activation"}, {"inbound_nodes": [[["batch_normalization_67", 0, 0, {}]]], "config": {"dtype": "float32", "name": "activation_67", "activation": "relu", "trainable": true}, "name": "activation_67", "class_name": "Activation"}, {"inbound_nodes": [[["mixed6", 0, 0, {}]]], "config": {"padding": "same", "pool_size": [3, 3], "name": "average_pooling2d_6", "dtype": "float32", "data_format": "channels_last", "strides": [1, 1], "trainable": true}, "name": "average_pooling2d_6", "class_name": "AveragePooling2D"}, {"inbound_nodes": [[["mixed6", 0, 0, {}]]], "config": {"kernel_constraint": null, "bias_constraint": null, "dilation_rate": [1, 1], "bias_initializer": {"config": {"dtype": "float32"}, "class_name": "Zeros"}, "data_format": "channels_last", "kernel_initializer": {"config": {"scale": 1.0, "distribution": "uniform", "seed": null, "mode": "fan_avg", "dtype": "float32"}, "class_name": "VarianceScaling"}, "dtype": "float32", "kernel_size": [1, 1], "kernel_regularizer": null, "activity_regularizer": null, "bias_regularizer": null, "trainable": true, "padding": "same", "filters": 192, "name": "conv2d_60", "use_bias": false, "strides": [1, 1], "activation": "linear"}, "name": "conv2d_60", "class_name": "Conv2D"}, {"inbound_nodes": [[["activation_62", 0, 0, {}]]], "config": {"kernel_constraint": null, "bias_constraint": null, "dilation_rate": [1, 1], "bias_initializer": {"config": {"dtype": "float32"}, "class_name": "Zeros"}, "data_format": "channels_last", "kernel_initializer": {"config": {"scale": 1.0, "distribution": "uniform", "seed": null, "mode": "fan_avg", "dtype": "float32"}, "class_name": "VarianceScaling"}, "dtype": "float32", "kernel_size": [7, 1], "kernel_regularizer": null, "activity_regularizer": null, "bias_regularizer": null, "trainable": true, "padding": "same", "filters": 192, "name": "conv2d_63", "use_bias": false, "strides": [1, 1], "activation": "linear"}, "name": "conv2d_63", "class_name": "Conv2D"}, {"inbound_nodes": [[["activation_67", 0, 0, {}]]], "config": {"kernel_constraint": null, "bias_constraint": null, "dilation_rate": [1, 1], "bias_initializer": {"config": {"dtype": "float32"}, "class_name": "Zeros"}, "data_format": "channels_last", "kernel_initializer": {"config": {"scale": 1.0, "distribution": "uniform", "seed": null, "mode": "fan_avg", "dtype": "float32"}, "class_name": "VarianceScaling"}, "dtype": "float32", "kernel_size": [1, 7], "kernel_regularizer": null, "activity_regularizer": null, "bias_regularizer": null, "trainable": true, "padding": "same", "filters": 192, "name": "conv2d_68", "use_bias": false, "strides": [1, 1], "activation": "linear"}, "name": "conv2d_68", "class_name": "Conv2D"}, {"inbound_nodes": [[["average_pooling2d_6", 0, 0, {}]]], "config": {"kernel_constraint": null, "bias_constraint": null, "dilation_rate": [1, 1], "bias_initializer": {"config": {"dtype": "float32"}, "class_name": "Zeros"}, "data_format": "channels_last", "kernel_initializer": {"config": {"scale": 1.0, "distribution": "uniform", "seed": null, "mode": "fan_avg", "dtype": "float32"}, "class_name": "VarianceScaling"}, "dtype": "float32", "kernel_size": [1, 1], "kernel_regularizer": null, "activity_regularizer": null, "bias_regularizer": null, "trainable": true, "padding": "same", "filters": 192, "name": "conv2d_69", "use_bias": false, "strides": [1, 1], "activation": "linear"}, "name": "conv2d_69", "class_name": "Conv2D"}, {"inbound_nodes": [[["conv2d_60", 0, 0, {}]]], "config": {"moving_variance_initializer": {"config": {"dtype": "float32"}, "class_name": "Ones"}, "beta_regularizer": null, "moving_mean_initializer": {"config": {"dtype": "float32"}, "class_name": "Zeros"}, "beta_constraint": null, "epsilon": 0.001, "axis": [3], "gamma_initializer": {"config": {"dtype": "float32"}, "class_name": "Ones"}, "beta_initializer": {"config": {"dtype": "float32"}, "class_name": "Zeros"}, "gamma_regularizer": null, "name": "batch_normalization_60", "gamma_constraint": null, "dtype": "float32", "trainable": true, "momentum": 0.99, "scale": false, "center": true}, "name": "batch_normalization_60", "class_name": "BatchNormalization"}, {"inbound_nodes": [[["conv2d_63", 0, 0, {}]]], "config": {"moving_variance_initializer": {"config": {"dtype": "float32"}, "class_name": "Ones"}, "beta_regularizer": null, "moving_mean_initializer": {"config": {"dtype": "float32"}, "class_name": "Zeros"}, "beta_constraint": null, "epsilon": 0.001, "axis": [3], "gamma_initializer": {"config": {"dtype": "float32"}, "class_name": "Ones"}, "beta_initializer": {"config": {"dtype": "float32"}, "class_name": "Zeros"}, "gamma_regularizer": null, "name": "batch_normalization_63", "gamma_constraint": null, "dtype": "float32", "trainable": true, "momentum": 0.99, "scale": false, "center": true}, "name": "batch_normalization_63", "class_name": "BatchNormalization"}, {"inbound_nodes": [[["conv2d_68", 0, 0, {}]]], "config": {"moving_variance_initializer": {"config": {"dtype": "float32"}, "class_name": "Ones"}, "beta_regularizer": null, "moving_mean_initializer": {"config": {"dtype": "float32"}, "class_name": "Zeros"}, "beta_constraint": null, "epsilon": 0.001, "axis": [3], "gamma_initializer": {"config": {"dtype": "float32"}, "class_name": "Ones"}, "beta_initializer": {"config": {"dtype": "float32"}, "class_name": "Zeros"}, "gamma_regularizer": null, "name": "batch_normalization_68", "gamma_constraint": null, "dtype": "float32", "trainable": true, "momentum": 0.99, "scale": false, "center": true}, "name": "batch_normalization_68", "class_name": "BatchNormalization"}, {"inbound_nodes": [[["conv2d_69", 0, 0, {}]]], "config": {"moving_variance_initializer": {"config": {"dtype": "float32"}, "class_name": "Ones"}, "beta_regularizer": null, "moving_mean_initializer": {"config": {"dtype": "float32"}, "class_name": "Zeros"}, "beta_constraint": null, "epsilon": 0.001, "axis": [3], "gamma_initializer": {"config": {"dtype": "float32"}, "class_name": "Ones"}, "beta_initializer": {"config": {"dtype": "float32"}, "class_name": "Zeros"}, "gamma_regularizer": null, "name": "batch_normalization_69", "gamma_constraint": null, "dtype": "float32", "trainable": true, "momentum": 0.99, "scale": false, "center": true}, "name": "batch_normalization_69", "class_name": "BatchNormalization"}, {"inbound_nodes": [[["batch_normalization_60", 0, 0, {}]]], "config": {"dtype": "float32", "name": "activation_60", "activation": "relu", "trainable": true}, "name": "activation_60", "class_name": "Activation"}, {"inbound_nodes": [[["batch_normalization_63", 0, 0, {}]]], "config": {"dtype": "float32", "name": "activation_63", "activation": "relu", "trainable": true}, "name": "activation_63", "class_name": "Activation"}, {"inbound_nodes": [[["batch_normalization_68", 0, 0, {}]]], "config": {"dtype": "float32", "name": "activation_68", "activation": "relu", "trainable": true}, "name": "activation_68", "class_name": "Activation"}, {"inbound_nodes": [[["batch_normalization_69", 0, 0, {}]]], "config": {"dtype": "float32", "name": "activation_69", "activation": "relu", "trainable": true}, "name": "activation_69", "class_name": "Activation"}, {"inbound_nodes": [[["activation_60", 0, 0, {}], ["activation_63", 0, 0, {}], ["activation_68", 0, 0, {}], ["activation_69", 0, 0, {}]]], "config": {"dtype": "float32", "trainable": true, "name": "mixed7", "axis": 3}, "name": "mixed7", "class_name": "Concatenate"}, {"inbound_nodes": [[["mixed7", 0, 0, {}]]], "config": {"kernel_constraint": null, "bias_constraint": null, "dilation_rate": [1, 1], "bias_initializer": {"config": {"dtype": "float32"}, "class_name": "Zeros"}, "data_format": "channels_last", "kernel_initializer": {"config": {"scale": 1.0, "distribution": "uniform", "seed": null, "mode": "fan_avg", "dtype": "float32"}, "class_name": "VarianceScaling"}, "dtype": "float32", "kernel_size": [1, 1], "kernel_regularizer": null, "activity_regularizer": null, "bias_regularizer": null, "trainable": true, "padding": "same", "filters": 192, "name": "conv2d_72", "use_bias": false, "strides": [1, 1], "activation": "linear"}, "name": "conv2d_72", "class_name": "Conv2D"}, {"inbound_nodes": [[["conv2d_72", 0, 0, {}]]], "config": {"moving_variance_initializer": {"config": {"dtype": "float32"}, "class_name": "Ones"}, "beta_regularizer": null, "moving_mean_initializer": {"config": {"dtype": "float32"}, "class_name": "Zeros"}, "beta_constraint": null, "epsilon": 0.001, "axis": [3], "gamma_initializer": {"config": {"dtype": "float32"}, "class_name": "Ones"}, "beta_initializer": {"config": {"dtype": "float32"}, "class_name": "Zeros"}, "gamma_regularizer": null, "name": "batch_normalization_72", "gamma_constraint": null, "dtype": "float32", "trainable": true, "momentum": 0.99, "scale": false, "center": true}, "name": "batch_normalization_72", "class_name": "BatchNormalization"}, {"inbound_nodes": [[["batch_normalization_72", 0, 0, {}]]], "config": {"dtype": "float32", "name": "activation_72", "activation": "relu", "trainable": true}, "name": "activation_72", "class_name": "Activation"}, {"inbound_nodes": [[["activation_72", 0, 0, {}]]], "config": {"kernel_constraint": null, "bias_constraint": null, "dilation_rate": [1, 1], "bias_initializer": {"config": {"dtype": "float32"}, "class_name": "Zeros"}, "data_format": "channels_last", "kernel_initializer": {"config": {"scale": 1.0, "distribution": "uniform", "seed": null, "mode": "fan_avg", "dtype": "float32"}, "class_name": "VarianceScaling"}, "dtype": "float32", "kernel_size": [1, 7], "kernel_regularizer": null, "activity_regularizer": null, "bias_regularizer": null, "trainable": true, "padding": "same", "filters": 192, "name": "conv2d_73", "use_bias": false, "strides": [1, 1], "activation": "linear"}, "name": "conv2d_73", "class_name": "Conv2D"}, {"inbound_nodes": [[["conv2d_73", 0, 0, {}]]], "config": {"moving_variance_initializer": {"config": {"dtype": "float32"}, "class_name": "Ones"}, "beta_regularizer": null, "moving_mean_initializer": {"config": {"dtype": "float32"}, "class_name": "Zeros"}, "beta_constraint": null, "epsilon": 0.001, "axis": [3], "gamma_initializer": {"config": {"dtype": "float32"}, "class_name": "Ones"}, "beta_initializer": {"config": {"dtype": "float32"}, "class_name": "Zeros"}, "gamma_regularizer": null, "name": "batch_normalization_73", "gamma_constraint": null, "dtype": "float32", "trainable": true, "momentum": 0.99, "scale": false, "center": true}, "name": "batch_normalization_73", "class_name": "BatchNormalization"}, {"inbound_nodes": [[["batch_normalization_73", 0, 0, {}]]], "config": {"dtype": "float32", "name": "activation_73", "activation": "relu", "trainable": true}, "name": "activation_73", "class_name": "Activation"}, {"inbound_nodes": [[["mixed7", 0, 0, {}]]], "config": {"kernel_constraint": null, "bias_constraint": null, "dilation_rate": [1, 1], "bias_initializer": {"config": {"dtype": "float32"}, "class_name": "Zeros"}, "data_format": "channels_last", "kernel_initializer": {"config": {"scale": 1.0, "distribution": "uniform", "seed": null, "mode": "fan_avg", "dtype": "float32"}, "class_name": "VarianceScaling"}, "dtype": "float32", "kernel_size": [1, 1], "kernel_regularizer": null, "activity_regularizer": null, "bias_regularizer": null, "trainable": true, "padding": "same", "filters": 192, "name": "conv2d_70", "use_bias": false, "strides": [1, 1], "activation": "linear"}, "name": "conv2d_70", "class_name": "Conv2D"}, {"inbound_nodes": [[["activation_73", 0, 0, {}]]], "config": {"kernel_constraint": null, "bias_constraint": null, "dilation_rate": [1, 1], "bias_initializer": {"config": {"dtype": "float32"}, "class_name": "Zeros"}, "data_format": "channels_last", "kernel_initializer": {"config": {"scale": 1.0, "distribution": "uniform", "seed": null, "mode": "fan_avg", "dtype": "float32"}, "class_name": "VarianceScaling"}, "dtype": "float32", "kernel_size": [7, 1], "kernel_regularizer": null, "activity_regularizer": null, "bias_regularizer": null, "trainable": true, "padding": "same", "filters": 192, "name": "conv2d_74", "use_bias": false, "strides": [1, 1], "activation": "linear"}, "name": "conv2d_74", "class_name": "Conv2D"}, {"inbound_nodes": [[["conv2d_70", 0, 0, {}]]], "config": {"moving_variance_initializer": {"config": {"dtype": "float32"}, "class_name": "Ones"}, "beta_regularizer": null, "moving_mean_initializer": {"config": {"dtype": "float32"}, "class_name": "Zeros"}, "beta_constraint": null, "epsilon": 0.001, "axis": [3], "gamma_initializer": {"config": {"dtype": "float32"}, "class_name": "Ones"}, "beta_initializer": {"config": {"dtype": "float32"}, "class_name": "Zeros"}, "gamma_regularizer": null, "name": "batch_normalization_70", "gamma_constraint": null, "dtype": "float32", "trainable": true, "momentum": 0.99, "scale": false, "center": true}, "name": "batch_normalization_70", "class_name": "BatchNormalization"}, {"inbound_nodes": [[["conv2d_74", 0, 0, {}]]], "config": {"moving_variance_initializer": {"config": {"dtype": "float32"}, "class_name": "Ones"}, "beta_regularizer": null, "moving_mean_initializer": {"config": {"dtype": "float32"}, "class_name": "Zeros"}, "beta_constraint": null, "epsilon": 0.001, "axis": [3], "gamma_initializer": {"config": {"dtype": "float32"}, "class_name": "Ones"}, "beta_initializer": {"config": {"dtype": "float32"}, "class_name": "Zeros"}, "gamma_regularizer": null, "name": "batch_normalization_74", "gamma_constraint": null, "dtype": "float32", "trainable": true, "momentum": 0.99, "scale": false, "center": true}, "name": "batch_normalization_74", "class_name": "BatchNormalization"}, {"inbound_nodes": [[["batch_normalization_70", 0, 0, {}]]], "config": {"dtype": "float32", "name": "activation_70", "activation": "relu", "trainable": true}, "name": "activation_70", "class_name": "Activation"}, {"inbound_nodes": [[["batch_normalization_74", 0, 0, {}]]], "config": {"dtype": "float32", "name": "activation_74", "activation": "relu", "trainable": true}, "name": "activation_74", "class_name": "Activation"}, {"inbound_nodes": [[["activation_70", 0, 0, {}]]], "config": {"kernel_constraint": null, "bias_constraint": null, "dilation_rate": [1, 1], "bias_initializer": {"config": {"dtype": "float32"}, "class_name": "Zeros"}, "data_format": "channels_last", "kernel_initializer": {"config": {"scale": 1.0, "distribution": "uniform", "seed": null, "mode": "fan_avg", "dtype": "float32"}, "class_name": "VarianceScaling"}, "dtype": "float32", "kernel_size": [3, 3], "kernel_regularizer": null, "activity_regularizer": null, "bias_regularizer": null, "trainable": true, "padding": "valid", "filters": 320, "name": "conv2d_71", "use_bias": false, "strides": [2, 2], "activation": "linear"}, "name": "conv2d_71", "class_name": "Conv2D"}, {"inbound_nodes": [[["activation_74", 0, 0, {}]]], "config": {"kernel_constraint": null, "bias_constraint": null, "dilation_rate": [1, 1], "bias_initializer": {"config": {"dtype": "float32"}, "class_name": "Zeros"}, "data_format": "channels_last", "kernel_initializer": {"config": {"scale": 1.0, "distribution": "uniform", "seed": null, "mode": "fan_avg", "dtype": "float32"}, "class_name": "VarianceScaling"}, "dtype": "float32", "kernel_size": [3, 3], "kernel_regularizer": null, "activity_regularizer": null, "bias_regularizer": null, "trainable": true, "padding": "valid", "filters": 192, "name": "conv2d_75", "use_bias": false, "strides": [2, 2], "activation": "linear"}, "name": "conv2d_75", "class_name": "Conv2D"}, {"inbound_nodes": [[["conv2d_71", 0, 0, {}]]], "config": {"moving_variance_initializer": {"config": {"dtype": "float32"}, "class_name": "Ones"}, "beta_regularizer": null, "moving_mean_initializer": {"config": {"dtype": "float32"}, "class_name": "Zeros"}, "beta_constraint": null, "epsilon": 0.001, "axis": [3], "gamma_initializer": {"config": {"dtype": "float32"}, "class_name": "Ones"}, "beta_initializer": {"config": {"dtype": "float32"}, "class_name": "Zeros"}, "gamma_regularizer": null, "name": "batch_normalization_71", "gamma_constraint": null, "dtype": "float32", "trainable": true, "momentum": 0.99, "scale": false, "center": true}, "name": "batch_normalization_71", "class_name": "BatchNormalization"}, {"inbound_nodes": [[["conv2d_75", 0, 0, {}]]], "config": {"moving_variance_initializer": {"config": {"dtype": "float32"}, "class_name": "Ones"}, "beta_regularizer": null, "moving_mean_initializer": {"config": {"dtype": "float32"}, "class_name": "Zeros"}, "beta_constraint": null, "epsilon": 0.001, "axis": [3], "gamma_initializer": {"config": {"dtype": "float32"}, "class_name": "Ones"}, "beta_initializer": {"config": {"dtype": "float32"}, "class_name": "Zeros"}, "gamma_regularizer": null, "name": "batch_normalization_75", "gamma_constraint": null, "dtype": "float32", "trainable": true, "momentum": 0.99, "scale": false, "center": true}, "name": "batch_normalization_75", "class_name": "BatchNormalization"}, {"inbound_nodes": [[["batch_normalization_71", 0, 0, {}]]], "config": {"dtype": "float32", "name": "activation_71", "activation": "relu", "trainable": true}, "name": "activation_71", "class_name": "Activation"}, {"inbound_nodes": [[["batch_normalization_75", 0, 0, {}]]], "config": {"dtype": "float32", "name": "activation_75", "activation": "relu", "trainable": true}, "name": "activation_75", "class_name": "Activation"}, {"inbound_nodes": [[["mixed7", 0, 0, {}]]], "config": {"padding": "valid", "pool_size": [3, 3], "name": "max_pooling2d_3", "dtype": "float32", "data_format": "channels_last", "strides": [2, 2], "trainable": true}, "name": "max_pooling2d_3", "class_name": "MaxPooling2D"}, {"inbound_nodes": [[["activation_71", 0, 0, {}], ["activation_75", 0, 0, {}], ["max_pooling2d_3", 0, 0, {}]]], "config": {"dtype": "float32", "trainable": true, "name": "mixed8", "axis": 3}, "name": "mixed8", "class_name": "Concatenate"}, {"inbound_nodes": [[["mixed8", 0, 0, {}]]], "config": {"kernel_constraint": null, "bias_constraint": null, "dilation_rate": [1, 1], "bias_initializer": {"config": {"dtype": "float32"}, "class_name": "Zeros"}, "data_format": "channels_last", "kernel_initializer": {"config": {"scale": 1.0, "distribution": "uniform", "seed": null, "mode": "fan_avg", "dtype": "float32"}, "class_name": "VarianceScaling"}, "dtype": "float32", "kernel_size": [1, 1], "kernel_regularizer": null, "activity_regularizer": null, "bias_regularizer": null, "trainable": true, "padding": "same", "filters": 448, "name": "conv2d_80", "use_bias": false, "strides": [1, 1], "activation": "linear"}, "name": "conv2d_80", "class_name": "Conv2D"}, {"inbound_nodes": [[["conv2d_80", 0, 0, {}]]], "config": {"moving_variance_initializer": {"config": {"dtype": "float32"}, "class_name": "Ones"}, "beta_regularizer": null, "moving_mean_initializer": {"config": {"dtype": "float32"}, "class_name": "Zeros"}, "beta_constraint": null, "epsilon": 0.001, "axis": [3], "gamma_initializer": {"config": {"dtype": "float32"}, "class_name": "Ones"}, "beta_initializer": {"config": {"dtype": "float32"}, "class_name": "Zeros"}, "gamma_regularizer": null, "name": "batch_normalization_80", "gamma_constraint": null, "dtype": "float32", "trainable": true, "momentum": 0.99, "scale": false, "center": true}, "name": "batch_normalization_80", "class_name": "BatchNormalization"}, {"inbound_nodes": [[["batch_normalization_80", 0, 0, {}]]], "config": {"dtype": "float32", "name": "activation_80", "activation": "relu", "trainable": true}, "name": "activation_80", "class_name": "Activation"}, {"inbound_nodes": [[["mixed8", 0, 0, {}]]], "config": {"kernel_constraint": null, "bias_constraint": null, "dilation_rate": [1, 1], "bias_initializer": {"config": {"dtype": "float32"}, "class_name": "Zeros"}, "data_format": "channels_last", "kernel_initializer": {"config": {"scale": 1.0, "distribution": "uniform", "seed": null, "mode": "fan_avg", "dtype": "float32"}, "class_name": "VarianceScaling"}, "dtype": "float32", "kernel_size": [1, 1], "kernel_regularizer": null, "activity_regularizer": null, "bias_regularizer": null, "trainable": true, "padding": "same", "filters": 384, "name": "conv2d_77", "use_bias": false, "strides": [1, 1], "activation": "linear"}, "name": "conv2d_77", "class_name": "Conv2D"}, {"inbound_nodes": [[["activation_80", 0, 0, {}]]], "config": {"kernel_constraint": null, "bias_constraint": null, "dilation_rate": [1, 1], "bias_initializer": {"config": {"dtype": "float32"}, "class_name": "Zeros"}, "data_format": "channels_last", "kernel_initializer": {"config": {"scale": 1.0, "distribution": "uniform", "seed": null, "mode": "fan_avg", "dtype": "float32"}, "class_name": "VarianceScaling"}, "dtype": "float32", "kernel_size": [3, 3], "kernel_regularizer": null, "activity_regularizer": null, "bias_regularizer": null, "trainable": true, "padding": "same", "filters": 384, "name": "conv2d_81", "use_bias": false, "strides": [1, 1], "activation": "linear"}, "name": "conv2d_81", "class_name": "Conv2D"}, {"inbound_nodes": [[["conv2d_77", 0, 0, {}]]], "config": {"moving_variance_initializer": {"config": {"dtype": "float32"}, "class_name": "Ones"}, "beta_regularizer": null, "moving_mean_initializer": {"config": {"dtype": "float32"}, "class_name": "Zeros"}, "beta_constraint": null, "epsilon": 0.001, "axis": [3], "gamma_initializer": {"config": {"dtype": "float32"}, "class_name": "Ones"}, "beta_initializer": {"config": {"dtype": "float32"}, "class_name": "Zeros"}, "gamma_regularizer": null, "name": "batch_normalization_77", "gamma_constraint": null, "dtype": "float32", "trainable": true, "momentum": 0.99, "scale": false, "center": true}, "name": "batch_normalization_77", "class_name": "BatchNormalization"}, {"inbound_nodes": [[["conv2d_81", 0, 0, {}]]], "config": {"moving_variance_initializer": {"config": {"dtype": "float32"}, "class_name": "Ones"}, "beta_regularizer": null, "moving_mean_initializer": {"config": {"dtype": "float32"}, "class_name": "Zeros"}, "beta_constraint": null, "epsilon": 0.001, "axis": [3], "gamma_initializer": {"config": {"dtype": "float32"}, "class_name": "Ones"}, "beta_initializer": {"config": {"dtype": "float32"}, "class_name": "Zeros"}, "gamma_regularizer": null, "name": "batch_normalization_81", "gamma_constraint": null, "dtype": "float32", "trainable": true, "momentum": 0.99, "scale": false, "center": true}, "name": "batch_normalization_81", "class_name": "BatchNormalization"}, {"inbound_nodes": [[["batch_normalization_77", 0, 0, {}]]], "config": {"dtype": "float32", "name": "activation_77", "activation": "relu", "trainable": true}, "name": "activation_77", "class_name": "Activation"}, {"inbound_nodes": [[["batch_normalization_81", 0, 0, {}]]], "config": {"dtype": "float32", "name": "activation_81", "activation": "relu", "trainable": true}, "name": "activation_81", "class_name": "Activation"}, {"inbound_nodes": [[["activation_77", 0, 0, {}]]], "config": {"kernel_constraint": null, "bias_constraint": null, "dilation_rate": [1, 1], "bias_initializer": {"config": {"dtype": "float32"}, "class_name": "Zeros"}, "data_format": "channels_last", "kernel_initializer": {"config": {"scale": 1.0, "distribution": "uniform", "seed": null, "mode": "fan_avg", "dtype": "float32"}, "class_name": "VarianceScaling"}, "dtype": "float32", "kernel_size": [1, 3], "kernel_regularizer": null, "activity_regularizer": null, "bias_regularizer": null, "trainable": true, "padding": "same", "filters": 384, "name": "conv2d_78", "use_bias": false, "strides": [1, 1], "activation": "linear"}, "name": "conv2d_78", "class_name": "Conv2D"}, {"inbound_nodes": [[["activation_77", 0, 0, {}]]], "config": {"kernel_constraint": null, "bias_constraint": null, "dilation_rate": [1, 1], "bias_initializer": {"config": {"dtype": "float32"}, "class_name": "Zeros"}, "data_format": "channels_last", "kernel_initializer": {"config": {"scale": 1.0, "distribution": "uniform", "seed": null, "mode": "fan_avg", "dtype": "float32"}, "class_name": "VarianceScaling"}, "dtype": "float32", "kernel_size": [3, 1], "kernel_regularizer": null, "activity_regularizer": null, "bias_regularizer": null, "trainable": true, "padding": "same", "filters": 384, "name": "conv2d_79", "use_bias": false, "strides": [1, 1], "activation": "linear"}, "name": "conv2d_79", "class_name": "Conv2D"}, {"inbound_nodes": [[["activation_81", 0, 0, {}]]], "config": {"kernel_constraint": null, "bias_constraint": null, "dilation_rate": [1, 1], "bias_initializer": {"config": {"dtype": "float32"}, "class_name": "Zeros"}, "data_format": "channels_last", "kernel_initializer": {"config": {"scale": 1.0, "distribution": "uniform", "seed": null, "mode": "fan_avg", "dtype": "float32"}, "class_name": "VarianceScaling"}, "dtype": "float32", "kernel_size": [1, 3], "kernel_regularizer": null, "activity_regularizer": null, "bias_regularizer": null, "trainable": true, "padding": "same", "filters": 384, "name": "conv2d_82", "use_bias": false, "strides": [1, 1], "activation": "linear"}, "name": "conv2d_82", "class_name": "Conv2D"}, {"inbound_nodes": [[["activation_81", 0, 0, {}]]], "config": {"kernel_constraint": null, "bias_constraint": null, "dilation_rate": [1, 1], "bias_initializer": {"config": {"dtype": "float32"}, "class_name": "Zeros"}, "data_format": "channels_last", "kernel_initializer": {"config": {"scale": 1.0, "distribution": "uniform", "seed": null, "mode": "fan_avg", "dtype": "float32"}, "class_name": "VarianceScaling"}, "dtype": "float32", "kernel_size": [3, 1], "kernel_regularizer": null, "activity_regularizer": null, "bias_regularizer": null, "trainable": true, "padding": "same", "filters": 384, "name": "conv2d_83", "use_bias": false, "strides": [1, 1], "activation": "linear"}, "name": "conv2d_83", "class_name": "Conv2D"}, {"inbound_nodes": [[["mixed8", 0, 0, {}]]], "config": {"padding": "same", "pool_size": [3, 3], "name": "average_pooling2d_7", "dtype": "float32", "data_format": "channels_last", "strides": [1, 1], "trainable": true}, "name": "average_pooling2d_7", "class_name": "AveragePooling2D"}, {"inbound_nodes": [[["mixed8", 0, 0, {}]]], "config": {"kernel_constraint": null, "bias_constraint": null, "dilation_rate": [1, 1], "bias_initializer": {"config": {"dtype": "float32"}, "class_name": "Zeros"}, "data_format": "channels_last", "kernel_initializer": {"config": {"scale": 1.0, "distribution": "uniform", "seed": null, "mode": "fan_avg", "dtype": "float32"}, "class_name": "VarianceScaling"}, "dtype": "float32", "kernel_size": [1, 1], "kernel_regularizer": null, "activity_regularizer": null, "bias_regularizer": null, "trainable": true, "padding": "same", "filters": 320, "name": "conv2d_76", "use_bias": false, "strides": [1, 1], "activation": "linear"}, "name": "conv2d_76", "class_name": "Conv2D"}, {"inbound_nodes": [[["conv2d_78", 0, 0, {}]]], "config": {"moving_variance_initializer": {"config": {"dtype": "float32"}, "class_name": "Ones"}, "beta_regularizer": null, "moving_mean_initializer": {"config": {"dtype": "float32"}, "class_name": "Zeros"}, "beta_constraint": null, "epsilon": 0.001, "axis": [3], "gamma_initializer": {"config": {"dtype": "float32"}, "class_name": "Ones"}, "beta_initializer": {"config": {"dtype": "float32"}, "class_name": "Zeros"}, "gamma_regularizer": null, "name": "batch_normalization_78", "gamma_constraint": null, "dtype": "float32", "trainable": true, "momentum": 0.99, "scale": false, "center": true}, "name": "batch_normalization_78", "class_name": "BatchNormalization"}, {"inbound_nodes": [[["conv2d_79", 0, 0, {}]]], "config": {"moving_variance_initializer": {"config": {"dtype": "float32"}, "class_name": "Ones"}, "beta_regularizer": null, "moving_mean_initializer": {"config": {"dtype": "float32"}, "class_name": "Zeros"}, "beta_constraint": null, "epsilon": 0.001, "axis": [3], "gamma_initializer": {"config": {"dtype": "float32"}, "class_name": "Ones"}, "beta_initializer": {"config": {"dtype": "float32"}, "class_name": "Zeros"}, "gamma_regularizer": null, "name": "batch_normalization_79", "gamma_constraint": null, "dtype": "float32", "trainable": true, "momentum": 0.99, "scale": false, "center": true}, "name": "batch_normalization_79", "class_name": "BatchNormalization"}, {"inbound_nodes": [[["conv2d_82", 0, 0, {}]]], "config": {"moving_variance_initializer": {"config": {"dtype": "float32"}, "class_name": "Ones"}, "beta_regularizer": null, "moving_mean_initializer": {"config": {"dtype": "float32"}, "class_name": "Zeros"}, "beta_constraint": null, "epsilon": 0.001, "axis": [3], "gamma_initializer": {"config": {"dtype": "float32"}, "class_name": "Ones"}, "beta_initializer": {"config": {"dtype": "float32"}, "class_name": "Zeros"}, "gamma_regularizer": null, "name": "batch_normalization_82", "gamma_constraint": null, "dtype": "float32", "trainable": true, "momentum": 0.99, "scale": false, "center": true}, "name": "batch_normalization_82", "class_name": "BatchNormalization"}, {"inbound_nodes": [[["conv2d_83", 0, 0, {}]]], "config": {"moving_variance_initializer": {"config": {"dtype": "float32"}, "class_name": "Ones"}, "beta_regularizer": null, "moving_mean_initializer": {"config": {"dtype": "float32"}, "class_name": "Zeros"}, "beta_constraint": null, "epsilon": 0.001, "axis": [3], "gamma_initializer": {"config": {"dtype": "float32"}, "class_name": "Ones"}, "beta_initializer": {"config": {"dtype": "float32"}, "class_name": "Zeros"}, "gamma_regularizer": null, "name": "batch_normalization_83", "gamma_constraint": null, "dtype": "float32", "trainable": true, "momentum": 0.99, "scale": false, "center": true}, "name": "batch_normalization_83", "class_name": "BatchNormalization"}, {"inbound_nodes": [[["average_pooling2d_7", 0, 0, {}]]], "config": {"kernel_constraint": null, "bias_constraint": null, "dilation_rate": [1, 1], "bias_initializer": {"config": {"dtype": "float32"}, "class_name": "Zeros"}, "data_format": "channels_last", "kernel_initializer": {"config": {"scale": 1.0, "distribution": "uniform", "seed": null, "mode": "fan_avg", "dtype": "float32"}, "class_name": "VarianceScaling"}, "dtype": "float32", "kernel_size": [1, 1], "kernel_regularizer": null, "activity_regularizer": null, "bias_regularizer": null, "trainable": true, "padding": "same", "filters": 192, "name": "conv2d_84", "use_bias": false, "strides": [1, 1], "activation": "linear"}, "name": "conv2d_84", "class_name": "Conv2D"}, {"inbound_nodes": [[["conv2d_76", 0, 0, {}]]], "config": {"moving_variance_initializer": {"config": {"dtype": "float32"}, "class_name": "Ones"}, "beta_regularizer": null, "moving_mean_initializer": {"config": {"dtype": "float32"}, "class_name": "Zeros"}, "beta_constraint": null, "epsilon": 0.001, "axis": [3], "gamma_initializer": {"config": {"dtype": "float32"}, "class_name": "Ones"}, "beta_initializer": {"config": {"dtype": "float32"}, "class_name": "Zeros"}, "gamma_regularizer": null, "name": "batch_normalization_76", "gamma_constraint": null, "dtype": "float32", "trainable": true, "momentum": 0.99, "scale": false, "center": true}, "name": "batch_normalization_76", "class_name": "BatchNormalization"}, {"inbound_nodes": [[["batch_normalization_78", 0, 0, {}]]], "config": {"dtype": "float32", "name": "activation_78", "activation": "relu", "trainable": true}, "name": "activation_78", "class_name": "Activation"}, {"inbound_nodes": [[["batch_normalization_79", 0, 0, {}]]], "config": {"dtype": "float32", "name": "activation_79", "activation": "relu", "trainable": true}, "name": "activation_79", "class_name": "Activation"}, {"inbound_nodes": [[["batch_normalization_82", 0, 0, {}]]], "config": {"dtype": "float32", "name": "activation_82", "activation": "relu", "trainable": true}, "name": "activation_82", "class_name": "Activation"}, {"inbound_nodes": [[["batch_normalization_83", 0, 0, {}]]], "config": {"dtype": "float32", "name": "activation_83", "activation": "relu", "trainable": true}, "name": "activation_83", "class_name": "Activation"}, {"inbound_nodes": [[["conv2d_84", 0, 0, {}]]], "config": {"moving_variance_initializer": {"config": {"dtype": "float32"}, "class_name": "Ones"}, "beta_regularizer": null, "moving_mean_initializer": {"config": {"dtype": "float32"}, "class_name": "Zeros"}, "beta_constraint": null, "epsilon": 0.001, "axis": [3], "gamma_initializer": {"config": {"dtype": "float32"}, "class_name": "Ones"}, "beta_initializer": {"config": {"dtype": "float32"}, "class_name": "Zeros"}, "gamma_regularizer": null, "name": "batch_normalization_84", "gamma_constraint": null, "dtype": "float32", "trainable": true, "momentum": 0.99, "scale": false, "center": true}, "name": "batch_normalization_84", "class_name": "BatchNormalization"}, {"inbound_nodes": [[["batch_normalization_76", 0, 0, {}]]], "config": {"dtype": "float32", "name": "activation_76", "activation": "relu", "trainable": true}, "name": "activation_76", "class_name": "Activation"}, {"inbound_nodes": [[["activation_78", 0, 0, {}], ["activation_79", 0, 0, {}]]], "config": {"dtype": "float32", "trainable": true, "name": "mixed9_0", "axis": 3}, "name": "mixed9_0", "class_name": "Concatenate"}, {"inbound_nodes": [[["activation_82", 0, 0, {}], ["activation_83", 0, 0, {}]]], "config": {"dtype": "float32", "trainable": true, "name": "concatenate", "axis": 3}, "name": "concatenate", "class_name": "Concatenate"}, {"inbound_nodes": [[["batch_normalization_84", 0, 0, {}]]], "config": {"dtype": "float32", "name": "activation_84", "activation": "relu", "trainable": true}, "name": "activation_84", "class_name": "Activation"}, {"inbound_nodes": [[["activation_76", 0, 0, {}], ["mixed9_0", 0, 0, {}], ["concatenate", 0, 0, {}], ["activation_84", 0, 0, {}]]], "config": {"dtype": "float32", "trainable": true, "name": "mixed9", "axis": 3}, "name": "mixed9", "class_name": "Concatenate"}, {"inbound_nodes": [[["mixed9", 0, 0, {}]]], "config": {"kernel_constraint": null, "bias_constraint": null, "dilation_rate": [1, 1], "bias_initializer": {"config": {"dtype": "float32"}, "class_name": "Zeros"}, "data_format": "channels_last", "kernel_initializer": {"config": {"scale": 1.0, "distribution": "uniform", "seed": null, "mode": "fan_avg", "dtype": "float32"}, "class_name": "VarianceScaling"}, "dtype": "float32", "kernel_size": [1, 1], "kernel_regularizer": null, "activity_regularizer": null, "bias_regularizer": null, "trainable": true, "padding": "same", "filters": 448, "name": "conv2d_89", "use_bias": false, "strides": [1, 1], "activation": "linear"}, "name": "conv2d_89", "class_name": "Conv2D"}, {"inbound_nodes": [[["conv2d_89", 0, 0, {}]]], "config": {"moving_variance_initializer": {"config": {"dtype": "float32"}, "class_name": "Ones"}, "beta_regularizer": null, "moving_mean_initializer": {"config": {"dtype": "float32"}, "class_name": "Zeros"}, "beta_constraint": null, "epsilon": 0.001, "axis": [3], "gamma_initializer": {"config": {"dtype": "float32"}, "class_name": "Ones"}, "beta_initializer": {"config": {"dtype": "float32"}, "class_name": "Zeros"}, "gamma_regularizer": null, "name": "batch_normalization_89", "gamma_constraint": null, "dtype": "float32", "trainable": true, "momentum": 0.99, "scale": false, "center": true}, "name": "batch_normalization_89", "class_name": "BatchNormalization"}, {"inbound_nodes": [[["batch_normalization_89", 0, 0, {}]]], "config": {"dtype": "float32", "name": "activation_89", "activation": "relu", "trainable": true}, "name": "activation_89", "class_name": "Activation"}, {"inbound_nodes": [[["mixed9", 0, 0, {}]]], "config": {"kernel_constraint": null, "bias_constraint": null, "dilation_rate": [1, 1], "bias_initializer": {"config": {"dtype": "float32"}, "class_name": "Zeros"}, "data_format": "channels_last", "kernel_initializer": {"config": {"scale": 1.0, "distribution": "uniform", "seed": null, "mode": "fan_avg", "dtype": "float32"}, "class_name": "VarianceScaling"}, "dtype": "float32", "kernel_size": [1, 1], "kernel_regularizer": null, "activity_regularizer": null, "bias_regularizer": null, "trainable": true, "padding": "same", "filters": 384, "name": "conv2d_86", "use_bias": false, "strides": [1, 1], "activation": "linear"}, "name": "conv2d_86", "class_name": "Conv2D"}, {"inbound_nodes": [[["activation_89", 0, 0, {}]]], "config": {"kernel_constraint": null, "bias_constraint": null, "dilation_rate": [1, 1], "bias_initializer": {"config": {"dtype": "float32"}, "class_name": "Zeros"}, "data_format": "channels_last", "kernel_initializer": {"config": {"scale": 1.0, "distribution": "uniform", "seed": null, "mode": "fan_avg", "dtype": "float32"}, "class_name": "VarianceScaling"}, "dtype": "float32", "kernel_size": [3, 3], "kernel_regularizer": null, "activity_regularizer": null, "bias_regularizer": null, "trainable": true, "padding": "same", "filters": 384, "name": "conv2d_90", "use_bias": false, "strides": [1, 1], "activation": "linear"}, "name": "conv2d_90", "class_name": "Conv2D"}, {"inbound_nodes": [[["conv2d_86", 0, 0, {}]]], "config": {"moving_variance_initializer": {"config": {"dtype": "float32"}, "class_name": "Ones"}, "beta_regularizer": null, "moving_mean_initializer": {"config": {"dtype": "float32"}, "class_name": "Zeros"}, "beta_constraint": null, "epsilon": 0.001, "axis": [3], "gamma_initializer": {"config": {"dtype": "float32"}, "class_name": "Ones"}, "beta_initializer": {"config": {"dtype": "float32"}, "class_name": "Zeros"}, "gamma_regularizer": null, "name": "batch_normalization_86", "gamma_constraint": null, "dtype": "float32", "trainable": true, "momentum": 0.99, "scale": false, "center": true}, "name": "batch_normalization_86", "class_name": "BatchNormalization"}, {"inbound_nodes": [[["conv2d_90", 0, 0, {}]]], "config": {"moving_variance_initializer": {"config": {"dtype": "float32"}, "class_name": "Ones"}, "beta_regularizer": null, "moving_mean_initializer": {"config": {"dtype": "float32"}, "class_name": "Zeros"}, "beta_constraint": null, "epsilon": 0.001, "axis": [3], "gamma_initializer": {"config": {"dtype": "float32"}, "class_name": "Ones"}, "beta_initializer": {"config": {"dtype": "float32"}, "class_name": "Zeros"}, "gamma_regularizer": null, "name": "batch_normalization_90", "gamma_constraint": null, "dtype": "float32", "trainable": true, "momentum": 0.99, "scale": false, "center": true}, "name": "batch_normalization_90", "class_name": "BatchNormalization"}, {"inbound_nodes": [[["batch_normalization_86", 0, 0, {}]]], "config": {"dtype": "float32", "name": "activation_86", "activation": "relu", "trainable": true}, "name": "activation_86", "class_name": "Activation"}, {"inbound_nodes": [[["batch_normalization_90", 0, 0, {}]]], "config": {"dtype": "float32", "name": "activation_90", "activation": "relu", "trainable": true}, "name": "activation_90", "class_name": "Activation"}, {"inbound_nodes": [[["activation_86", 0, 0, {}]]], "config": {"kernel_constraint": null, "bias_constraint": null, "dilation_rate": [1, 1], "bias_initializer": {"config": {"dtype": "float32"}, "class_name": "Zeros"}, "data_format": "channels_last", "kernel_initializer": {"config": {"scale": 1.0, "distribution": "uniform", "seed": null, "mode": "fan_avg", "dtype": "float32"}, "class_name": "VarianceScaling"}, "dtype": "float32", "kernel_size": [1, 3], "kernel_regularizer": null, "activity_regularizer": null, "bias_regularizer": null, "trainable": true, "padding": "same", "filters": 384, "name": "conv2d_87", "use_bias": false, "strides": [1, 1], "activation": "linear"}, "name": "conv2d_87", "class_name": "Conv2D"}, {"inbound_nodes": [[["activation_86", 0, 0, {}]]], "config": {"kernel_constraint": null, "bias_constraint": null, "dilation_rate": [1, 1], "bias_initializer": {"config": {"dtype": "float32"}, "class_name": "Zeros"}, "data_format": "channels_last", "kernel_initializer": {"config": {"scale": 1.0, "distribution": "uniform", "seed": null, "mode": "fan_avg", "dtype": "float32"}, "class_name": "VarianceScaling"}, "dtype": "float32", "kernel_size": [3, 1], "kernel_regularizer": null, "activity_regularizer": null, "bias_regularizer": null, "trainable": true, "padding": "same", "filters": 384, "name": "conv2d_88", "use_bias": false, "strides": [1, 1], "activation": "linear"}, "name": "conv2d_88", "class_name": "Conv2D"}, {"inbound_nodes": [[["activation_90", 0, 0, {}]]], "config": {"kernel_constraint": null, "bias_constraint": null, "dilation_rate": [1, 1], "bias_initializer": {"config": {"dtype": "float32"}, "class_name": "Zeros"}, "data_format": "channels_last", "kernel_initializer": {"config": {"scale": 1.0, "distribution": "uniform", "seed": null, "mode": "fan_avg", "dtype": "float32"}, "class_name": "VarianceScaling"}, "dtype": "float32", "kernel_size": [1, 3], "kernel_regularizer": null, "activity_regularizer": null, "bias_regularizer": null, "trainable": true, "padding": "same", "filters": 384, "name": "conv2d_91", "use_bias": false, "strides": [1, 1], "activation": "linear"}, "name": "conv2d_91", "class_name": "Conv2D"}, {"inbound_nodes": [[["activation_90", 0, 0, {}]]], "config": {"kernel_constraint": null, "bias_constraint": null, "dilation_rate": [1, 1], "bias_initializer": {"config": {"dtype": "float32"}, "class_name": "Zeros"}, "data_format": "channels_last", "kernel_initializer": {"config": {"scale": 1.0, "distribution": "uniform", "seed": null, "mode": "fan_avg", "dtype": "float32"}, "class_name": "VarianceScaling"}, "dtype": "float32", "kernel_size": [3, 1], "kernel_regularizer": null, "activity_regularizer": null, "bias_regularizer": null, "trainable": true, "padding": "same", "filters": 384, "name": "conv2d_92", "use_bias": false, "strides": [1, 1], "activation": "linear"}, "name": "conv2d_92", "class_name": "Conv2D"}, {"inbound_nodes": [[["mixed9", 0, 0, {}]]], "config": {"padding": "same", "pool_size": [3, 3], "name": "average_pooling2d_8", "dtype": "float32", "data_format": "channels_last", "strides": [1, 1], "trainable": true}, "name": "average_pooling2d_8", "class_name": "AveragePooling2D"}, {"inbound_nodes": [[["mixed9", 0, 0, {}]]], "config": {"kernel_constraint": null, "bias_constraint": null, "dilation_rate": [1, 1], "bias_initializer": {"config": {"dtype": "float32"}, "class_name": "Zeros"}, "data_format": "channels_last", "kernel_initializer": {"config": {"scale": 1.0, "distribution": "uniform", "seed": null, "mode": "fan_avg", "dtype": "float32"}, "class_name": "VarianceScaling"}, "dtype": "float32", "kernel_size": [1, 1], "kernel_regularizer": null, "activity_regularizer": null, "bias_regularizer": null, "trainable": true, "padding": "same", "filters": 320, "name": "conv2d_85", "use_bias": false, "strides": [1, 1], "activation": "linear"}, "name": "conv2d_85", "class_name": "Conv2D"}, {"inbound_nodes": [[["conv2d_87", 0, 0, {}]]], "config": {"moving_variance_initializer": {"config": {"dtype": "float32"}, "class_name": "Ones"}, "beta_regularizer": null, "moving_mean_initializer": {"config": {"dtype": "float32"}, "class_name": "Zeros"}, "beta_constraint": null, "epsilon": 0.001, "axis": [3], "gamma_initializer": {"config": {"dtype": "float32"}, "class_name": "Ones"}, "beta_initializer": {"config": {"dtype": "float32"}, "class_name": "Zeros"}, "gamma_regularizer": null, "name": "batch_normalization_87", "gamma_constraint": null, "dtype": "float32", "trainable": true, "momentum": 0.99, "scale": false, "center": true}, "name": "batch_normalization_87", "class_name": "BatchNormalization"}, {"inbound_nodes": [[["conv2d_88", 0, 0, {}]]], "config": {"moving_variance_initializer": {"config": {"dtype": "float32"}, "class_name": "Ones"}, "beta_regularizer": null, "moving_mean_initializer": {"config": {"dtype": "float32"}, "class_name": "Zeros"}, "beta_constraint": null, "epsilon": 0.001, "axis": [3], "gamma_initializer": {"config": {"dtype": "float32"}, "class_name": "Ones"}, "beta_initializer": {"config": {"dtype": "float32"}, "class_name": "Zeros"}, "gamma_regularizer": null, "name": "batch_normalization_88", "gamma_constraint": null, "dtype": "float32", "trainable": true, "momentum": 0.99, "scale": false, "center": true}, "name": "batch_normalization_88", "class_name": "BatchNormalization"}, {"inbound_nodes": [[["conv2d_91", 0, 0, {}]]], "config": {"moving_variance_initializer": {"config": {"dtype": "float32"}, "class_name": "Ones"}, "beta_regularizer": null, "moving_mean_initializer": {"config": {"dtype": "float32"}, "class_name": "Zeros"}, "beta_constraint": null, "epsilon": 0.001, "axis": [3], "gamma_initializer": {"config": {"dtype": "float32"}, "class_name": "Ones"}, "beta_initializer": {"config": {"dtype": "float32"}, "class_name": "Zeros"}, "gamma_regularizer": null, "name": "batch_normalization_91", "gamma_constraint": null, "dtype": "float32", "trainable": true, "momentum": 0.99, "scale": false, "center": true}, "name": "batch_normalization_91", "class_name": "BatchNormalization"}, {"inbound_nodes": [[["conv2d_92", 0, 0, {}]]], "config": {"moving_variance_initializer": {"config": {"dtype": "float32"}, "class_name": "Ones"}, "beta_regularizer": null, "moving_mean_initializer": {"config": {"dtype": "float32"}, "class_name": "Zeros"}, "beta_constraint": null, "epsilon": 0.001, "axis": [3], "gamma_initializer": {"config": {"dtype": "float32"}, "class_name": "Ones"}, "beta_initializer": {"config": {"dtype": "float32"}, "class_name": "Zeros"}, "gamma_regularizer": null, "name": "batch_normalization_92", "gamma_constraint": null, "dtype": "float32", "trainable": true, "momentum": 0.99, "scale": false, "center": true}, "name": "batch_normalization_92", "class_name": "BatchNormalization"}, {"inbound_nodes": [[["average_pooling2d_8", 0, 0, {}]]], "config": {"kernel_constraint": null, "bias_constraint": null, "dilation_rate": [1, 1], "bias_initializer": {"config": {"dtype": "float32"}, "class_name": "Zeros"}, "data_format": "channels_last", "kernel_initializer": {"config": {"scale": 1.0, "distribution": "uniform", "seed": null, "mode": "fan_avg", "dtype": "float32"}, "class_name": "VarianceScaling"}, "dtype": "float32", "kernel_size": [1, 1], "kernel_regularizer": null, "activity_regularizer": null, "bias_regularizer": null, "trainable": true, "padding": "same", "filters": 192, "name": "conv2d_93", "use_bias": false, "strides": [1, 1], "activation": "linear"}, "name": "conv2d_93", "class_name": "Conv2D"}, {"inbound_nodes": [[["conv2d_85", 0, 0, {}]]], "config": {"moving_variance_initializer": {"config": {"dtype": "float32"}, "class_name": "Ones"}, "beta_regularizer": null, "moving_mean_initializer": {"config": {"dtype": "float32"}, "class_name": "Zeros"}, "beta_constraint": null, "epsilon": 0.001, "axis": [3], "gamma_initializer": {"config": {"dtype": "float32"}, "class_name": "Ones"}, "beta_initializer": {"config": {"dtype": "float32"}, "class_name": "Zeros"}, "gamma_regularizer": null, "name": "batch_normalization_85", "gamma_constraint": null, "dtype": "float32", "trainable": true, "momentum": 0.99, "scale": false, "center": true}, "name": "batch_normalization_85", "class_name": "BatchNormalization"}, {"inbound_nodes": [[["batch_normalization_87", 0, 0, {}]]], "config": {"dtype": "float32", "name": "activation_87", "activation": "relu", "trainable": true}, "name": "activation_87", "class_name": "Activation"}, {"inbound_nodes": [[["batch_normalization_88", 0, 0, {}]]], "config": {"dtype": "float32", "name": "activation_88", "activation": "relu", "trainable": true}, "name": "activation_88", "class_name": "Activation"}, {"inbound_nodes": [[["batch_normalization_91", 0, 0, {}]]], "config": {"dtype": "float32", "name": "activation_91", "activation": "relu", "trainable": true}, "name": "activation_91", "class_name": "Activation"}, {"inbound_nodes": [[["batch_normalization_92", 0, 0, {}]]], "config": {"dtype": "float32", "name": "activation_92", "activation": "relu", "trainable": true}, "name": "activation_92", "class_name": "Activation"}, {"inbound_nodes": [[["conv2d_93", 0, 0, {}]]], "config": {"moving_variance_initializer": {"config": {"dtype": "float32"}, "class_name": "Ones"}, "beta_regularizer": null, "moving_mean_initializer": {"config": {"dtype": "float32"}, "class_name": "Zeros"}, "beta_constraint": null, "epsilon": 0.001, "axis": [3], "gamma_initializer": {"config": {"dtype": "float32"}, "class_name": "Ones"}, "beta_initializer": {"config": {"dtype": "float32"}, "class_name": "Zeros"}, "gamma_regularizer": null, "name": "batch_normalization_93", "gamma_constraint": null, "dtype": "float32", "trainable": true, "momentum": 0.99, "scale": false, "center": true}, "name": "batch_normalization_93", "class_name": "BatchNormalization"}, {"inbound_nodes": [[["batch_normalization_85", 0, 0, {}]]], "config": {"dtype": "float32", "name": "activation_85", "activation": "relu", "trainable": true}, "name": "activation_85", "class_name": "Activation"}, {"inbound_nodes": [[["activation_87", 0, 0, {}], ["activation_88", 0, 0, {}]]], "config": {"dtype": "float32", "trainable": true, "name": "mixed9_1", "axis": 3}, "name": "mixed9_1", "class_name": "Concatenate"}, {"inbound_nodes": [[["activation_91", 0, 0, {}], ["activation_92", 0, 0, {}]]], "config": {"dtype": "float32", "trainable": true, "name": "concatenate_1", "axis": 3}, "name": "concatenate_1", "class_name": "Concatenate"}, {"inbound_nodes": [[["batch_normalization_93", 0, 0, {}]]], "config": {"dtype": "float32", "name": "activation_93", "activation": "relu", "trainable": true}, "name": "activation_93", "class_name": "Activation"}, {"inbound_nodes": [[["activation_85", 0, 0, {}], ["mixed9_1", 0, 0, {}], ["concatenate_1", 0, 0, {}], ["activation_93", 0, 0, {}]]], "config": {"dtype": "float32", "trainable": true, "name": "mixed10", "axis": 3}, "name": "mixed10", "class_name": "Concatenate"}, {"inbound_nodes": [[["mixed10", 0, 0, {}]]], "config": {"data_format": "channels_last", "name": "avg_pool", "dtype": "float32", "trainable": true}, "name": "avg_pool", "class_name": "GlobalAveragePooling2D"}, {"inbound_nodes": [[["avg_pool", 0, 0, {}]]], "config": {"kernel_constraint": null, "bias_initializer": {"config": {"dtype": "float32"}, "class_name": "Zeros"}, "kernel_initializer": {"config": {"scale": 1.0, "distribution": "uniform", "seed": null, "mode": "fan_avg", "dtype": "float32"}, "class_name": "VarianceScaling"}, "bias_constraint": null, "dtype": "float32", "kernel_regularizer": null, "units": 1000, "bias_regularizer": null, "activity_regularizer": null, "trainable": true, "name": "predictions", "use_bias": true, "activation": "softmax"}, "name": "predictions", "class_name": "Dense"}], "input_layers": [["input_1", 0, 0]]}, "class_name": "Model"}}, "weightsManifest": [{"weights": [{"shape": [32], "dtype": "float32", "name": "batch_normalization/beta"}, {"shape": [32], "dtype": "float32", "name": "batch_normalization/moving_mean"}, {"shape": [32], "dtype": "float32", "name": "batch_normalization/moving_variance"}, {"shape": [32], "dtype": "float32", "name": "batch_normalization_1/beta"}, {"shape": [32], "dtype": "float32", "name": "batch_normalization_1/moving_mean"}, {"shape": [32], "dtype": "float32", "name": "batch_normalization_1/moving_variance"}, {"shape": [96], "dtype": "float32", "name": "batch_normalization_10/beta"}, {"shape": [96], "dtype": "float32", "name": "batch_normalization_10/moving_mean"}, {"shape": [96], "dtype": "float32", "name": "batch_normalization_10/moving_variance"}, {"shape": [32], "dtype": "float32", "name": "batch_normalization_11/beta"}, {"shape": [32], "dtype": "float32", "name": "batch_normalization_11/moving_mean"}, {"shape": [32], "dtype": "float32", "name": "batch_normalization_11/moving_variance"}, {"shape": [64], "dtype": "float32", "name": "batch_normalization_12/beta"}, {"shape": [64], "dtype": "float32", "name": "batch_normalization_12/moving_mean"}, {"shape": [64], "dtype": "float32", "name": "batch_normalization_12/moving_variance"}, {"shape": [48], "dtype": "float32", "name": "batch_normalization_13/beta"}, {"shape": [48], "dtype": "float32", "name": "batch_normalization_13/moving_mean"}, {"shape": [48], "dtype": "float32", "name": "batch_normalization_13/moving_variance"}, {"shape": [64], "dtype": "float32", "name": "batch_normalization_14/beta"}, {"shape": [64], "dtype": "float32", "name": "batch_normalization_14/moving_mean"}, {"shape": [64], "dtype": "float32", "name": "batch_normalization_14/moving_variance"}, {"shape": [64], "dtype": "float32", "name": "batch_normalization_15/beta"}, {"shape": [64], "dtype": "float32", "name": "batch_normalization_15/moving_mean"}, {"shape": [64], "dtype": "float32", "name": "batch_normalization_15/moving_variance"}, {"shape": [96], "dtype": "float32", "name": "batch_normalization_16/beta"}, {"shape": [96], "dtype": "float32", "name": "batch_normalization_16/moving_mean"}, {"shape": [96], "dtype": "float32", "name": "batch_normalization_16/moving_variance"}, {"shape": [96], "dtype": "float32", "name": "batch_normalization_17/beta"}, {"shape": [96], "dtype": "float32", "name": "batch_normalization_17/moving_mean"}, {"shape": [96], "dtype": "float32", "name": "batch_normalization_17/moving_variance"}, {"shape": [64], "dtype": "float32", "name": "batch_normalization_18/beta"}, {"shape": [64], "dtype": "float32", "name": "batch_normalization_18/moving_mean"}, {"shape": [64], "dtype": "float32", "name": "batch_normalization_18/moving_variance"}, {"shape": [64], "dtype": "float32", "name": "batch_normalization_19/beta"}, {"shape": [64], "dtype": "float32", "name": "batch_normalization_19/moving_mean"}, {"shape": [64], "dtype": "float32", "name": "batch_normalization_19/moving_variance"}, {"shape": [64], "dtype": "float32", "name": "batch_normalization_2/beta"}, {"shape": [64], "dtype": "float32", "name": "batch_normalization_2/moving_mean"}, {"shape": [64], "dtype": "float32", "name": "batch_normalization_2/moving_variance"}, {"shape": [48], "dtype": "float32", "name": "batch_normalization_20/beta"}, {"shape": [48], "dtype": "float32", "name": "batch_normalization_20/moving_mean"}, {"shape": [48], "dtype": "float32", "name": "batch_normalization_20/moving_variance"}, {"shape": [64], "dtype": "float32", "name": "batch_normalization_21/beta"}, {"shape": [64], "dtype": "float32", "name": "batch_normalization_21/moving_mean"}, {"shape": [64], "dtype": "float32", "name": "batch_normalization_21/moving_variance"}, {"shape": [64], "dtype": "float32", "name": "batch_normalization_22/beta"}, {"shape": [64], "dtype": "float32", "name": "batch_normalization_22/moving_mean"}, {"shape": [64], "dtype": "float32", "name": "batch_normalization_22/moving_variance"}, {"shape": [96], "dtype": "float32", "name": "batch_normalization_23/beta"}, {"shape": [96], "dtype": "float32", "name": "batch_normalization_23/moving_mean"}, {"shape": [96], "dtype": "float32", "name": "batch_normalization_23/moving_variance"}, {"shape": [96], "dtype": "float32", "name": "batch_normalization_24/beta"}, {"shape": [96], "dtype": "float32", "name": "batch_normalization_24/moving_mean"}, {"shape": [96], "dtype": "float32", "name": "batch_normalization_24/moving_variance"}, {"shape": [64], "dtype": "float32", "name": "batch_normalization_25/beta"}, {"shape": [64], "dtype": "float32", "name": "batch_normalization_25/moving_mean"}, {"shape": [64], "dtype": "float32", "name": "batch_normalization_25/moving_variance"}, {"shape": [384], "dtype": "float32", "name": "batch_normalization_26/beta"}, {"shape": [384], "dtype": "float32", "name": "batch_normalization_26/moving_mean"}, {"shape": [384], "dtype": "float32", "name": "batch_normalization_26/moving_variance"}, {"shape": [64], "dtype": "float32", "name": "batch_normalization_27/beta"}, {"shape": [64], "dtype": "float32", "name": "batch_normalization_27/moving_mean"}, {"shape": [64], "dtype": "float32", "name": "batch_normalization_27/moving_variance"}, {"shape": [96], "dtype": "float32", "name": "batch_normalization_28/beta"}, {"shape": [96], "dtype": "float32", "name": "batch_normalization_28/moving_mean"}, {"shape": [96], "dtype": "float32", "name": "batch_normalization_28/moving_variance"}, {"shape": [96], "dtype": "float32", "name": "batch_normalization_29/beta"}, {"shape": [96], "dtype": "float32", "name": "batch_normalization_29/moving_mean"}, {"shape": [96], "dtype": "float32", "name": "batch_normalization_29/moving_variance"}, {"shape": [80], "dtype": "float32", "name": "batch_normalization_3/beta"}, {"shape": [80], "dtype": "float32", "name": "batch_normalization_3/moving_mean"}, {"shape": [80], "dtype": "float32", "name": "batch_normalization_3/moving_variance"}, {"shape": [192], "dtype": "float32", "name": "batch_normalization_30/beta"}, {"shape": [192], "dtype": "float32", "name": "batch_normalization_30/moving_mean"}, {"shape": [192], "dtype": "float32", "name": "batch_normalization_30/moving_variance"}, {"shape": [128], "dtype": "float32", "name": "batch_normalization_31/beta"}, {"shape": [128], "dtype": "float32", "name": "batch_normalization_31/moving_mean"}, {"shape": [128], "dtype": "float32", "name": "batch_normalization_31/moving_variance"}, {"shape": [128], "dtype": "float32", "name": "batch_normalization_32/beta"}, {"shape": [128], "dtype": "float32", "name": "batch_normalization_32/moving_mean"}, {"shape": [128], "dtype": "float32", "name": "batch_normalization_32/moving_variance"}, {"shape": [192], "dtype": "float32", "name": "batch_normalization_33/beta"}, {"shape": [192], "dtype": "float32", "name": "batch_normalization_33/moving_mean"}, {"shape": [192], "dtype": "float32", "name": "batch_normalization_33/moving_variance"}, {"shape": [128], "dtype": "float32", "name": "batch_normalization_34/beta"}, {"shape": [128], "dtype": "float32", "name": "batch_normalization_34/moving_mean"}, {"shape": [128], "dtype": "float32", "name": "batch_normalization_34/moving_variance"}, {"shape": [128], "dtype": "float32", "name": "batch_normalization_35/beta"}, {"shape": [128], "dtype": "float32", "name": "batch_normalization_35/moving_mean"}, {"shape": [128], "dtype": "float32", "name": "batch_normalization_35/moving_variance"}, {"shape": [128], "dtype": "float32", "name": "batch_normalization_36/beta"}, {"shape": [128], "dtype": "float32", "name": "batch_normalization_36/moving_mean"}, {"shape": [128], "dtype": "float32", "name": "batch_normalization_36/moving_variance"}, {"shape": [128], "dtype": "float32", "name": "batch_normalization_37/beta"}, {"shape": [128], "dtype": "float32", "name": "batch_normalization_37/moving_mean"}, {"shape": [128], "dtype": "float32", "name": "batch_normalization_37/moving_variance"}, {"shape": [192], "dtype": "float32", "name": "batch_normalization_38/beta"}, {"shape": [192], "dtype": "float32", "name": "batch_normalization_38/moving_mean"}, {"shape": [192], "dtype": "float32", "name": "batch_normalization_38/moving_variance"}, {"shape": [192], "dtype": "float32", "name": "batch_normalization_39/beta"}, {"shape": [192], "dtype": "float32", "name": "batch_normalization_39/moving_mean"}, {"shape": [192], "dtype": "float32", "name": "batch_normalization_39/moving_variance"}, {"shape": [192], "dtype": "float32", "name": "batch_normalization_4/beta"}, {"shape": [192], "dtype": "float32", "name": "batch_normalization_4/moving_mean"}, {"shape": [192], "dtype": "float32", "name": "batch_normalization_4/moving_variance"}, {"shape": [192], "dtype": "float32", "name": "batch_normalization_40/beta"}, {"shape": [192], "dtype": "float32", "name": "batch_normalization_40/moving_mean"}, {"shape": [192], "dtype": "float32", "name": "batch_normalization_40/moving_variance"}, {"shape": [160], "dtype": "float32", "name": "batch_normalization_41/beta"}, {"shape": [160], "dtype": "float32", "name": "batch_normalization_41/moving_mean"}, {"shape": [160], "dtype": "float32", "name": "batch_normalization_41/moving_variance"}, {"shape": [160], "dtype": "float32", "name": "batch_normalization_42/beta"}, {"shape": [160], "dtype": "float32", "name": "batch_normalization_42/moving_mean"}, {"shape": [160], "dtype": "float32", "name": "batch_normalization_42/moving_variance"}, {"shape": [192], "dtype": "float32", "name": "batch_normalization_43/beta"}, {"shape": [192], "dtype": "float32", "name": "batch_normalization_43/moving_mean"}, {"shape": [192], "dtype": "float32", "name": "batch_normalization_43/moving_variance"}, {"shape": [160], "dtype": "float32", "name": "batch_normalization_44/beta"}, {"shape": [160], "dtype": "float32", "name": "batch_normalization_44/moving_mean"}, {"shape": [160], "dtype": "float32", "name": "batch_normalization_44/moving_variance"}, {"shape": [160], "dtype": "float32", "name": "batch_normalization_45/beta"}, {"shape": [160], "dtype": "float32", "name": "batch_normalization_45/moving_mean"}, {"shape": [160], "dtype": "float32", "name": "batch_normalization_45/moving_variance"}, {"shape": [160], "dtype": "float32", "name": "batch_normalization_46/beta"}, {"shape": [160], "dtype": "float32", "name": "batch_normalization_46/moving_mean"}, {"shape": [160], "dtype": "float32", "name": "batch_normalization_46/moving_variance"}, {"shape": [160], "dtype": "float32", "name": "batch_normalization_47/beta"}, {"shape": [160], "dtype": "float32", "name": "batch_normalization_47/moving_mean"}, {"shape": [160], "dtype": "float32", "name": "batch_normalization_47/moving_variance"}, {"shape": [192], "dtype": "float32", "name": "batch_normalization_48/beta"}, {"shape": [192], "dtype": "float32", "name": "batch_normalization_48/moving_mean"}, {"shape": [192], "dtype": "float32", "name": "batch_normalization_48/moving_variance"}, {"shape": [192], "dtype": "float32", "name": "batch_normalization_49/beta"}, {"shape": [192], "dtype": "float32", "name": "batch_normalization_49/moving_mean"}, {"shape": [192], "dtype": "float32", "name": "batch_normalization_49/moving_variance"}, {"shape": [64], "dtype": "float32", "name": "batch_normalization_5/beta"}, {"shape": [64], "dtype": "float32", "name": "batch_normalization_5/moving_mean"}, {"shape": [64], "dtype": "float32", "name": "batch_normalization_5/moving_variance"}, {"shape": [192], "dtype": "float32", "name": "batch_normalization_50/beta"}, {"shape": [192], "dtype": "float32", "name": "batch_normalization_50/moving_mean"}, {"shape": [192], "dtype": "float32", "name": "batch_normalization_50/moving_variance"}, {"shape": [160], "dtype": "float32", "name": "batch_normalization_51/beta"}, {"shape": [160], "dtype": "float32", "name": "batch_normalization_51/moving_mean"}, {"shape": [160], "dtype": "float32", "name": "batch_normalization_51/moving_variance"}, {"shape": [160], "dtype": "float32", "name": "batch_normalization_52/beta"}, {"shape": [160], "dtype": "float32", "name": "batch_normalization_52/moving_mean"}, {"shape": [160], "dtype": "float32", "name": "batch_normalization_52/moving_variance"}, {"shape": [192], "dtype": "float32", "name": "batch_normalization_53/beta"}, {"shape": [192], "dtype": "float32", "name": "batch_normalization_53/moving_mean"}, {"shape": [192], "dtype": "float32", "name": "batch_normalization_53/moving_variance"}, {"shape": [160], "dtype": "float32", "name": "batch_normalization_54/beta"}, {"shape": [160], "dtype": "float32", "name": "batch_normalization_54/moving_mean"}, {"shape": [160], "dtype": "float32", "name": "batch_normalization_54/moving_variance"}, {"shape": [160], "dtype": "float32", "name": "batch_normalization_55/beta"}, {"shape": [160], "dtype": "float32", "name": "batch_normalization_55/moving_mean"}, {"shape": [160], "dtype": "float32", "name": "batch_normalization_55/moving_variance"}, {"shape": [160], "dtype": "float32", "name": "batch_normalization_56/beta"}, {"shape": [160], "dtype": "float32", "name": "batch_normalization_56/moving_mean"}, {"shape": [160], "dtype": "float32", "name": "batch_normalization_56/moving_variance"}, {"shape": [160], "dtype": "float32", "name": "batch_normalization_57/beta"}, {"shape": [160], "dtype": "float32", "name": "batch_normalization_57/moving_mean"}, {"shape": [160], "dtype": "float32", "name": "batch_normalization_57/moving_variance"}, {"shape": [192], "dtype": "float32", "name": "batch_normalization_58/beta"}, {"shape": [192], "dtype": "float32", "name": "batch_normalization_58/moving_mean"}, {"shape": [192], "dtype": "float32", "name": "batch_normalization_58/moving_variance"}, {"shape": [192], "dtype": "float32", "name": "batch_normalization_59/beta"}, {"shape": [192], "dtype": "float32", "name": "batch_normalization_59/moving_mean"}, {"shape": [192], "dtype": "float32", "name": "batch_normalization_59/moving_variance"}, {"shape": [48], "dtype": "float32", "name": "batch_normalization_6/beta"}, {"shape": [48], "dtype": "float32", "name": "batch_normalization_6/moving_mean"}, {"shape": [48], "dtype": "float32", "name": "batch_normalization_6/moving_variance"}, {"shape": [192], "dtype": "float32", "name": "batch_normalization_60/beta"}, {"shape": [192], "dtype": "float32", "name": "batch_normalization_60/moving_mean"}, {"shape": [192], "dtype": "float32", "name": "batch_normalization_60/moving_variance"}, {"shape": [192], "dtype": "float32", "name": "batch_normalization_61/beta"}, {"shape": [192], "dtype": "float32", "name": "batch_normalization_61/moving_mean"}, {"shape": [192], "dtype": "float32", "name": "batch_normalization_61/moving_variance"}, {"shape": [192], "dtype": "float32", "name": "batch_normalization_62/beta"}, {"shape": [192], "dtype": "float32", "name": "batch_normalization_62/moving_mean"}, {"shape": [192], "dtype": "float32", "name": "batch_normalization_62/moving_variance"}, {"shape": [192], "dtype": "float32", "name": "batch_normalization_63/beta"}, {"shape": [192], "dtype": "float32", "name": "batch_normalization_63/moving_mean"}, {"shape": [192], "dtype": "float32", "name": "batch_normalization_63/moving_variance"}, {"shape": [192], "dtype": "float32", "name": "batch_normalization_64/beta"}, {"shape": [192], "dtype": "float32", "name": "batch_normalization_64/moving_mean"}, {"shape": [192], "dtype": "float32", "name": "batch_normalization_64/moving_variance"}, {"shape": [192], "dtype": "float32", "name": "batch_normalization_65/beta"}, {"shape": [192], "dtype": "float32", "name": "batch_normalization_65/moving_mean"}, {"shape": [192], "dtype": "float32", "name": "batch_normalization_65/moving_variance"}, {"shape": [192], "dtype": "float32", "name": "batch_normalization_66/beta"}, {"shape": [192], "dtype": "float32", "name": "batch_normalization_66/moving_mean"}, {"shape": [192], "dtype": "float32", "name": "batch_normalization_66/moving_variance"}, {"shape": [192], "dtype": "float32", "name": "batch_normalization_67/beta"}, {"shape": [192], "dtype": "float32", "name": "batch_normalization_67/moving_mean"}, {"shape": [192], "dtype": "float32", "name": "batch_normalization_67/moving_variance"}, {"shape": [192], "dtype": "float32", "name": "batch_normalization_68/beta"}, {"shape": [192], "dtype": "float32", "name": "batch_normalization_68/moving_mean"}, {"shape": [192], "dtype": "float32", "name": "batch_normalization_68/moving_variance"}, {"shape": [192], "dtype": "float32", "name": "batch_normalization_69/beta"}, {"shape": [192], "dtype": "float32", "name": "batch_normalization_69/moving_mean"}, {"shape": [192], "dtype": "float32", "name": "batch_normalization_69/moving_variance"}, {"shape": [64], "dtype": "float32", "name": "batch_normalization_7/beta"}, {"shape": [64], "dtype": "float32", "name": "batch_normalization_7/moving_mean"}, {"shape": [64], "dtype": "float32", "name": "batch_normalization_7/moving_variance"}, {"shape": [192], "dtype": "float32", "name": "batch_normalization_70/beta"}, {"shape": [192], "dtype": "float32", "name": "batch_normalization_70/moving_mean"}, {"shape": [192], "dtype": "float32", "name": "batch_normalization_70/moving_variance"}, {"shape": [320], "dtype": "float32", "name": "batch_normalization_71/beta"}, {"shape": [320], "dtype": "float32", "name": "batch_normalization_71/moving_mean"}, {"shape": [320], "dtype": "float32", "name": "batch_normalization_71/moving_variance"}, {"shape": [192], "dtype": "float32", "name": "batch_normalization_72/beta"}, {"shape": [192], "dtype": "float32", "name": "batch_normalization_72/moving_mean"}, {"shape": [192], "dtype": "float32", "name": "batch_normalization_72/moving_variance"}, {"shape": [192], "dtype": "float32", "name": "batch_normalization_73/beta"}, {"shape": [192], "dtype": "float32", "name": "batch_normalization_73/moving_mean"}, {"shape": [192], "dtype": "float32", "name": "batch_normalization_73/moving_variance"}, {"shape": [192], "dtype": "float32", "name": "batch_normalization_74/beta"}, {"shape": [192], "dtype": "float32", "name": "batch_normalization_74/moving_mean"}, {"shape": [192], "dtype": "float32", "name": "batch_normalization_74/moving_variance"}, {"shape": [192], "dtype": "float32", "name": "batch_normalization_75/beta"}, {"shape": [192], "dtype": "float32", "name": "batch_normalization_75/moving_mean"}, {"shape": [192], "dtype": "float32", "name": "batch_normalization_75/moving_variance"}, {"shape": [320], "dtype": "float32", "name": "batch_normalization_76/beta"}, {"shape": [320], "dtype": "float32", "name": "batch_normalization_76/moving_mean"}, {"shape": [320], "dtype": "float32", "name": "batch_normalization_76/moving_variance"}, {"shape": [384], "dtype": "float32", "name": "batch_normalization_77/beta"}, {"shape": [384], "dtype": "float32", "name": "batch_normalization_77/moving_mean"}, {"shape": [384], "dtype": "float32", "name": "batch_normalization_77/moving_variance"}, {"shape": [384], "dtype": "float32", "name": "batch_normalization_78/beta"}, {"shape": [384], "dtype": "float32", "name": "batch_normalization_78/moving_mean"}, {"shape": [384], "dtype": "float32", "name": "batch_normalization_78/moving_variance"}, {"shape": [384], "dtype": "float32", "name": "batch_normalization_79/beta"}, {"shape": [384], "dtype": "float32", "name": "batch_normalization_79/moving_mean"}, {"shape": [384], "dtype": "float32", "name": "batch_normalization_79/moving_variance"}, {"shape": [64], "dtype": "float32", "name": "batch_normalization_8/beta"}, {"shape": [64], "dtype": "float32", "name": "batch_normalization_8/moving_mean"}, {"shape": [64], "dtype": "float32", "name": "batch_normalization_8/moving_variance"}, {"shape": [448], "dtype": "float32", "name": "batch_normalization_80/beta"}, {"shape": [448], "dtype": "float32", "name": "batch_normalization_80/moving_mean"}, {"shape": [448], "dtype": "float32", "name": "batch_normalization_80/moving_variance"}, {"shape": [384], "dtype": "float32", "name": "batch_normalization_81/beta"}, {"shape": [384], "dtype": "float32", "name": "batch_normalization_81/moving_mean"}, {"shape": [384], "dtype": "float32", "name": "batch_normalization_81/moving_variance"}, {"shape": [384], "dtype": "float32", "name": "batch_normalization_82/beta"}, {"shape": [384], "dtype": "float32", "name": "batch_normalization_82/moving_mean"}, {"shape": [384], "dtype": "float32", "name": "batch_normalization_82/moving_variance"}, {"shape": [384], "dtype": "float32", "name": "batch_normalization_83/beta"}, {"shape": [384], "dtype": "float32", "name": "batch_normalization_83/moving_mean"}, {"shape": [384], "dtype": "float32", "name": "batch_normalization_83/moving_variance"}, {"shape": [192], "dtype": "float32", "name": "batch_normalization_84/beta"}, {"shape": [192], "dtype": "float32", "name": "batch_normalization_84/moving_mean"}, {"shape": [192], "dtype": "float32", "name": "batch_normalization_84/moving_variance"}, {"shape": [320], "dtype": "float32", "name": "batch_normalization_85/beta"}, {"shape": [320], "dtype": "float32", "name": "batch_normalization_85/moving_mean"}, {"shape": [320], "dtype": "float32", "name": "batch_normalization_85/moving_variance"}, {"shape": [384], "dtype": "float32", "name": "batch_normalization_86/beta"}, {"shape": [384], "dtype": "float32", "name": "batch_normalization_86/moving_mean"}, {"shape": [384], "dtype": "float32", "name": "batch_normalization_86/moving_variance"}, {"shape": [384], "dtype": "float32", "name": "batch_normalization_87/beta"}, {"shape": [384], "dtype": "float32", "name": "batch_normalization_87/moving_mean"}, {"shape": [384], "dtype": "float32", "name": "batch_normalization_87/moving_variance"}, {"shape": [384], "dtype": "float32", "name": "batch_normalization_88/beta"}, {"shape": [384], "dtype": "float32", "name": "batch_normalization_88/moving_mean"}, {"shape": [384], "dtype": "float32", "name": "batch_normalization_88/moving_variance"}, {"shape": [448], "dtype": "float32", "name": "batch_normalization_89/beta"}, {"shape": [448], "dtype": "float32", "name": "batch_normalization_89/moving_mean"}, {"shape": [448], "dtype": "float32", "name": "batch_normalization_89/moving_variance"}, {"shape": [96], "dtype": "float32", "name": "batch_normalization_9/beta"}, {"shape": [96], "dtype": "float32", "name": "batch_normalization_9/moving_mean"}, {"shape": [96], "dtype": "float32", "name": "batch_normalization_9/moving_variance"}, {"shape": [384], "dtype": "float32", "name": "batch_normalization_90/beta"}, {"shape": [384], "dtype": "float32", "name": "batch_normalization_90/moving_mean"}, {"shape": [384], "dtype": "float32", "name": "batch_normalization_90/moving_variance"}, {"shape": [384], "dtype": "float32", "name": "batch_normalization_91/beta"}, {"shape": [384], "dtype": "float32", "name": "batch_normalization_91/moving_mean"}, {"shape": [384], "dtype": "float32", "name": "batch_normalization_91/moving_variance"}, {"shape": [384], "dtype": "float32", "name": "batch_normalization_92/beta"}, {"shape": [384], "dtype": "float32", "name": "batch_normalization_92/moving_mean"}, {"shape": [384], "dtype": "float32", "name": "batch_normalization_92/moving_variance"}, {"shape": [192], "dtype": "float32", "name": "batch_normalization_93/beta"}, {"shape": [192], "dtype": "float32", "name": "batch_normalization_93/moving_mean"}, {"shape": [192], "dtype": "float32", "name": "batch_normalization_93/moving_variance"}, {"shape": [3, 3, 3, 32], "dtype": "float32", "name": "conv2d/kernel"}, {"shape": [3, 3, 32, 32], "dtype": "float32", "name": "conv2d_1/kernel"}, {"shape": [3, 3, 96, 96], "dtype": "float32", "name": "conv2d_10/kernel"}, {"shape": [1, 1, 192, 32], "dtype": "float32", "name": "conv2d_11/kernel"}, {"shape": [1, 1, 256, 64], "dtype": "float32", "name": "conv2d_12/kernel"}, {"shape": [1, 1, 256, 48], "dtype": "float32", "name": "conv2d_13/kernel"}, {"shape": [5, 5, 48, 64], "dtype": "float32", "name": "conv2d_14/kernel"}, {"shape": [1, 1, 256, 64], "dtype": "float32", "name": "conv2d_15/kernel"}, {"shape": [3, 3, 64, 96], "dtype": "float32", "name": "conv2d_16/kernel"}, {"shape": [3, 3, 96, 96], "dtype": "float32", "name": "conv2d_17/kernel"}, {"shape": [1, 1, 256, 64], "dtype": "float32", "name": "conv2d_18/kernel"}, {"shape": [1, 1, 288, 64], "dtype": "float32", "name": "conv2d_19/kernel"}, {"shape": [3, 3, 32, 64], "dtype": "float32", "name": "conv2d_2/kernel"}, {"shape": [1, 1, 288, 48], "dtype": "float32", "name": "conv2d_20/kernel"}, {"shape": [5, 5, 48, 64], "dtype": "float32", "name": "conv2d_21/kernel"}, {"shape": [1, 1, 288, 64], "dtype": "float32", "name": "conv2d_22/kernel"}, {"shape": [3, 3, 64, 96], "dtype": "float32", "name": "conv2d_23/kernel"}, {"shape": [3, 3, 96, 96], "dtype": "float32", "name": "conv2d_24/kernel"}, {"shape": [1, 1, 288, 64], "dtype": "float32", "name": "conv2d_25/kernel"}, {"shape": [3, 3, 288, 384], "dtype": "float32", "name": "conv2d_26/kernel"}, {"shape": [1, 1, 288, 64], "dtype": "float32", "name": "conv2d_27/kernel"}, {"shape": [3, 3, 64, 96], "dtype": "float32", "name": "conv2d_28/kernel"}, {"shape": [3, 3, 96, 96], "dtype": "float32", "name": "conv2d_29/kernel"}, {"shape": [1, 1, 64, 80], "dtype": "float32", "name": "conv2d_3/kernel"}, {"shape": [1, 1, 768, 192], "dtype": "float32", "name": "conv2d_30/kernel"}, {"shape": [1, 1, 768, 128], "dtype": "float32", "name": "conv2d_31/kernel"}, {"shape": [1, 7, 128, 128], "dtype": "float32", "name": "conv2d_32/kernel"}, {"shape": [7, 1, 128, 192], "dtype": "float32", "name": "conv2d_33/kernel"}, {"shape": [1, 1, 768, 128], "dtype": "float32", "name": "conv2d_34/kernel"}, {"shape": [7, 1, 128, 128], "dtype": "float32", "name": "conv2d_35/kernel"}, {"shape": [1, 7, 128, 128], "dtype": "float32", "name": "conv2d_36/kernel"}, {"shape": [7, 1, 128, 128], "dtype": "float32", "name": "conv2d_37/kernel"}, {"shape": [1, 7, 128, 192], "dtype": "float32", "name": "conv2d_38/kernel"}, {"shape": [1, 1, 768, 192], "dtype": "float32", "name": "conv2d_39/kernel"}, {"shape": [3, 3, 80, 192], "dtype": "float32", "name": "conv2d_4/kernel"}, {"shape": [1, 1, 768, 192], "dtype": "float32", "name": "conv2d_40/kernel"}, {"shape": [1, 1, 768, 160], "dtype": "float32", "name": "conv2d_41/kernel"}, {"shape": [1, 7, 160, 160], "dtype": "float32", "name": "conv2d_42/kernel"}, {"shape": [7, 1, 160, 192], "dtype": "float32", "name": "conv2d_43/kernel"}, {"shape": [1, 1, 768, 160], "dtype": "float32", "name": "conv2d_44/kernel"}, {"shape": [7, 1, 160, 160], "dtype": "float32", "name": "conv2d_45/kernel"}, {"shape": [1, 7, 160, 160], "dtype": "float32", "name": "conv2d_46/kernel"}, {"shape": [7, 1, 160, 160], "dtype": "float32", "name": "conv2d_47/kernel"}, {"shape": [1, 7, 160, 192], "dtype": "float32", "name": "conv2d_48/kernel"}, {"shape": [1, 1, 768, 192], "dtype": "float32", "name": "conv2d_49/kernel"}, {"shape": [1, 1, 192, 64], "dtype": "float32", "name": "conv2d_5/kernel"}, {"shape": [1, 1, 768, 192], "dtype": "float32", "name": "conv2d_50/kernel"}, {"shape": [1, 1, 768, 160], "dtype": "float32", "name": "conv2d_51/kernel"}, {"shape": [1, 7, 160, 160], "dtype": "float32", "name": "conv2d_52/kernel"}, {"shape": [7, 1, 160, 192], "dtype": "float32", "name": "conv2d_53/kernel"}, {"shape": [1, 1, 768, 160], "dtype": "float32", "name": "conv2d_54/kernel"}, {"shape": [7, 1, 160, 160], "dtype": "float32", "name": "conv2d_55/kernel"}, {"shape": [1, 7, 160, 160], "dtype": "float32", "name": "conv2d_56/kernel"}, {"shape": [7, 1, 160, 160], "dtype": "float32", "name": "conv2d_57/kernel"}, {"shape": [1, 7, 160, 192], "dtype": "float32", "name": "conv2d_58/kernel"}, {"shape": [1, 1, 768, 192], "dtype": "float32", "name": "conv2d_59/kernel"}, {"shape": [1, 1, 192, 48], "dtype": "float32", "name": "conv2d_6/kernel"}, {"shape": [1, 1, 768, 192], "dtype": "float32", "name": "conv2d_60/kernel"}, {"shape": [1, 1, 768, 192], "dtype": "float32", "name": "conv2d_61/kernel"}, {"shape": [1, 7, 192, 192], "dtype": "float32", "name": "conv2d_62/kernel"}, {"shape": [7, 1, 192, 192], "dtype": "float32", "name": "conv2d_63/kernel"}, {"shape": [1, 1, 768, 192], "dtype": "float32", "name": "conv2d_64/kernel"}, {"shape": [7, 1, 192, 192], "dtype": "float32", "name": "conv2d_65/kernel"}, {"shape": [1, 7, 192, 192], "dtype": "float32", "name": "conv2d_66/kernel"}, {"shape": [7, 1, 192, 192], "dtype": "float32", "name": "conv2d_67/kernel"}, {"shape": [1, 7, 192, 192], "dtype": "float32", "name": "conv2d_68/kernel"}, {"shape": [1, 1, 768, 192], "dtype": "float32", "name": "conv2d_69/kernel"}, {"shape": [5, 5, 48, 64], "dtype": "float32", "name": "conv2d_7/kernel"}, {"shape": [1, 1, 768, 192], "dtype": "float32", "name": "conv2d_70/kernel"}, {"shape": [3, 3, 192, 320], "dtype": "float32", "name": "conv2d_71/kernel"}, {"shape": [1, 1, 768, 192], "dtype": "float32", "name": "conv2d_72/kernel"}, {"shape": [1, 7, 192, 192], "dtype": "float32", "name": "conv2d_73/kernel"}, {"shape": [7, 1, 192, 192], "dtype": "float32", "name": "conv2d_74/kernel"}, {"shape": [3, 3, 192, 192], "dtype": "float32", "name": "conv2d_75/kernel"}, {"shape": [1, 1, 1280, 320], "dtype": "float32", "name": "conv2d_76/kernel"}, {"shape": [1, 1, 1280, 384], "dtype": "float32", "name": "conv2d_77/kernel"}, {"shape": [1, 3, 384, 384], "dtype": "float32", "name": "conv2d_78/kernel"}, {"shape": [3, 1, 384, 384], "dtype": "float32", "name": "conv2d_79/kernel"}, {"shape": [1, 1, 192, 64], "dtype": "float32", "name": "conv2d_8/kernel"}, {"shape": [1, 1, 1280, 448], "dtype": "float32", "name": "conv2d_80/kernel"}, {"shape": [3, 3, 448, 384], "dtype": "float32", "name": "conv2d_81/kernel"}, {"shape": [1, 3, 384, 384], "dtype": "float32", "name": "conv2d_82/kernel"}, {"shape": [3, 1, 384, 384], "dtype": "float32", "name": "conv2d_83/kernel"}, {"shape": [1, 1, 1280, 192], "dtype": "float32", "name": "conv2d_84/kernel"}, {"shape": [1, 1, 2048, 320], "dtype": "float32", "name": "conv2d_85/kernel"}, {"shape": [1, 1, 2048, 384], "dtype": "float32", "name": "conv2d_86/kernel"}, {"shape": [1, 3, 384, 384], "dtype": "float32", "name": "conv2d_87/kernel"}, {"shape": [3, 1, 384, 384], "dtype": "float32", "name": "conv2d_88/kernel"}, {"shape": [1, 1, 2048, 448], "dtype": "float32", "name": "conv2d_89/kernel"}, {"shape": [3, 3, 64, 96], "dtype": "float32", "name": "conv2d_9/kernel"}, {"shape": [3, 3, 448, 384], "dtype": "float32", "name": "conv2d_90/kernel"}, {"shape": [1, 3, 384, 384], "dtype": "float32", "name": "conv2d_91/kernel"}, {"shape": [3, 1, 384, 384], "dtype": "float32", "name": "conv2d_92/kernel"}, {"shape": [1, 1, 2048, 192], "dtype": "float32", "name": "conv2d_93/kernel"}, {"shape": [2048, 1000], "dtype": "float32", "name": "predictions/kernel"}, {"shape": [1000], "dtype": "float32", "name": "predictions/bias"}], "paths": ["group1-shard1of23", "group1-shard2of23", "group1-shard3of23", "group1-shard4of23", "group1-shard5of23", "group1-shard6of23", "group1-shard7of23", "group1-shard8of23", "group1-shard9of23", "group1-shard10of23", "group1-shard11of23", "group1-shard12of23", "group1-shard13of23", "group1-shard14of23", "group1-shard15of23", "group1-shard16of23", "group1-shard17of23", "group1-shard18of23", "group1-shard19of23", "group1-shard20of23", "group1-shard21of23", "group1-shard22of23", "group1-shard23of23"]}]}