{
  "format": "layers-model",
  "generatedBy": "keras v2.2.4",
  "convertedBy": "TensorFlow.js Converter v1.0.1",
  "modelTopology": {
    "keras_version": "2.2.4",
    "backend": "tensorflow",
    "model_config": {
      "class_name": "Model",
      "config": {
        "name": "xception",
        "layers": [
          {
            "name": "input_6",
            "class_name": "InputLayer",
            "config": {
              "batch_input_shape": [
                null,
                299,
                299,
                3
              ],
              "dtype": "float32",
              "sparse": false,
              "name": "input_6"
            },
            "inbound_nodes": []
          },
          {
            "name": "block1_conv1",
            "class_name": "Conv2D",
            "config": {
              "name": "block1_conv1",
              "trainable": true,
              "filters": 32,
              "kernel_size": [
                3,
                3
              ],
              "strides": [
                2,
                2
              ],
              "padding": "valid",
              "data_format": "channels_last",
              "dilation_rate": [
                1,
                1
              ],
              "activation": "linear",
              "use_bias": false,
              "kernel_initializer": {
                "class_name": "VarianceScaling",
                "config": {
                  "scale": 1.0,
                  "mode": "fan_avg",
                  "distribution": "uniform",
                  "seed": null
                }
              },
              "bias_initializer": {
                "class_name": "Zeros",
                "config": {}
              },
              "kernel_regularizer": null,
              "bias_regularizer": null,
              "activity_regularizer": null,
              "kernel_constraint": null,
              "bias_constraint": null
            },
            "inbound_nodes": [
              [
                [
                  "input_6",
                  0,
                  0,
                  {}
                ]
              ]
            ]
          },
          {
            "name": "block1_conv1_bn",
            "class_name": "BatchNormalization",
            "config": {
              "name": "block1_conv1_bn",
              "trainable": true,
              "axis": -1,
              "momentum": 0.99,
              "epsilon": 0.001,
              "center": true,
              "scale": true,
              "beta_initializer": {
                "class_name": "Zeros",
                "config": {}
              },
              "gamma_initializer": {
                "class_name": "Ones",
                "config": {}
              },
              "moving_mean_initializer": {
                "class_name": "Zeros",
                "config": {}
              },
              "moving_variance_initializer": {
                "class_name": "Ones",
                "config": {}
              },
              "beta_regularizer": null,
              "gamma_regularizer": null,
              "beta_constraint": null,
              "gamma_constraint": null
            },
            "inbound_nodes": [
              [
                [
                  "block1_conv1",
                  0,
                  0,
                  {}
                ]
              ]
            ]
          },
          {
            "name": "block1_conv1_act",
            "class_name": "Activation",
            "config": {
              "name": "block1_conv1_act",
              "trainable": true,
              "activation": "relu"
            },
            "inbound_nodes": [
              [
                [
                  "block1_conv1_bn",
                  0,
                  0,
                  {}
                ]
              ]
            ]
          },
          {
            "name": "block1_conv2",
            "class_name": "Conv2D",
            "config": {
              "name": "block1_conv2",
              "trainable": true,
              "filters": 64,
              "kernel_size": [
                3,
                3
              ],
              "strides": [
                1,
                1
              ],
              "padding": "valid",
              "data_format": "channels_last",
              "dilation_rate": [
                1,
                1
              ],
              "activation": "linear",
              "use_bias": false,
              "kernel_initializer": {
                "class_name": "VarianceScaling",
                "config": {
                  "scale": 1.0,
                  "mode": "fan_avg",
                  "distribution": "uniform",
                  "seed": null
                }
              },
              "bias_initializer": {
                "class_name": "Zeros",
                "config": {}
              },
              "kernel_regularizer": null,
              "bias_regularizer": null,
              "activity_regularizer": null,
              "kernel_constraint": null,
              "bias_constraint": null
            },
            "inbound_nodes": [
              [
                [
                  "block1_conv1_act",
                  0,
                  0,
                  {}
                ]
              ]
            ]
          },
          {
            "name": "block1_conv2_bn",
            "class_name": "BatchNormalization",
            "config": {
              "name": "block1_conv2_bn",
              "trainable": true,
              "axis": -1,
              "momentum": 0.99,
              "epsilon": 0.001,
              "center": true,
              "scale": true,
              "beta_initializer": {
                "class_name": "Zeros",
                "config": {}
              },
              "gamma_initializer": {
                "class_name": "Ones",
                "config": {}
              },
              "moving_mean_initializer": {
                "class_name": "Zeros",
                "config": {}
              },
              "moving_variance_initializer": {
                "class_name": "Ones",
                "config": {}
              },
              "beta_regularizer": null,
              "gamma_regularizer": null,
              "beta_constraint": null,
              "gamma_constraint": null
            },
            "inbound_nodes": [
              [
                [
                  "block1_conv2",
                  0,
                  0,
                  {}
                ]
              ]
            ]
          },
          {
            "name": "block1_conv2_act",
            "class_name": "Activation",
            "config": {
              "name": "block1_conv2_act",
              "trainable": true,
              "activation": "relu"
            },
            "inbound_nodes": [
              [
                [
                  "block1_conv2_bn",
                  0,
                  0,
                  {}
                ]
              ]
            ]
          },
          {
            "name": "block2_sepconv1",
            "class_name": "SeparableConv2D",
            "config": {
              "name": "block2_sepconv1",
              "trainable": true,
              "filters": 128,
              "kernel_size": [
                3,
                3
              ],
              "strides": [
                1,
                1
              ],
              "padding": "same",
              "data_format": "channels_last",
              "dilation_rate": [
                1,
                1
              ],
              "activation": "linear",
              "use_bias": false,
              "bias_initializer": {
                "class_name": "Zeros",
                "config": {}
              },
              "bias_regularizer": null,
              "activity_regularizer": null,
              "bias_constraint": null,
              "depth_multiplier": 1,
              "depthwise_initializer": {
                "class_name": "VarianceScaling",
                "config": {
                  "scale": 1.0,
                  "mode": "fan_avg",
                  "distribution": "uniform",
                  "seed": null
                }
              },
              "pointwise_initializer": {
                "class_name": "VarianceScaling",
                "config": {
                  "scale": 1.0,
                  "mode": "fan_avg",
                  "distribution": "uniform",
                  "seed": null
                }
              },
              "depthwise_regularizer": null,
              "pointwise_regularizer": null,
              "depthwise_constraint": null,
              "pointwise_constraint": null
            },
            "inbound_nodes": [
              [
                [
                  "block1_conv2_act",
                  0,
                  0,
                  {}
                ]
              ]
            ]
          },
          {
            "name": "block2_sepconv1_bn",
            "class_name": "BatchNormalization",
            "config": {
              "name": "block2_sepconv1_bn",
              "trainable": true,
              "axis": -1,
              "momentum": 0.99,
              "epsilon": 0.001,
              "center": true,
              "scale": true,
              "beta_initializer": {
                "class_name": "Zeros",
                "config": {}
              },
              "gamma_initializer": {
                "class_name": "Ones",
                "config": {}
              },
              "moving_mean_initializer": {
                "class_name": "Zeros",
                "config": {}
              },
              "moving_variance_initializer": {
                "class_name": "Ones",
                "config": {}
              },
              "beta_regularizer": null,
              "gamma_regularizer": null,
              "beta_constraint": null,
              "gamma_constraint": null
            },
            "inbound_nodes": [
              [
                [
                  "block2_sepconv1",
                  0,
                  0,
                  {}
                ]
              ]
            ]
          },
          {
            "name": "block2_sepconv2_act",
            "class_name": "Activation",
            "config": {
              "name": "block2_sepconv2_act",
              "trainable": true,
              "activation": "relu"
            },
            "inbound_nodes": [
              [
                [
                  "block2_sepconv1_bn",
                  0,
                  0,
                  {}
                ]
              ]
            ]
          },
          {
            "name": "block2_sepconv2",
            "class_name": "SeparableConv2D",
            "config": {
              "name": "block2_sepconv2",
              "trainable": true,
              "filters": 128,
              "kernel_size": [
                3,
                3
              ],
              "strides": [
                1,
                1
              ],
              "padding": "same",
              "data_format": "channels_last",
              "dilation_rate": [
                1,
                1
              ],
              "activation": "linear",
              "use_bias": false,
              "bias_initializer": {
                "class_name": "Zeros",
                "config": {}
              },
              "bias_regularizer": null,
              "activity_regularizer": null,
              "bias_constraint": null,
              "depth_multiplier": 1,
              "depthwise_initializer": {
                "class_name": "VarianceScaling",
                "config": {
                  "scale": 1.0,
                  "mode": "fan_avg",
                  "distribution": "uniform",
                  "seed": null
                }
              },
              "pointwise_initializer": {
                "class_name": "VarianceScaling",
                "config": {
                  "scale": 1.0,
                  "mode": "fan_avg",
                  "distribution": "uniform",
                  "seed": null
                }
              },
              "depthwise_regularizer": null,
              "pointwise_regularizer": null,
              "depthwise_constraint": null,
              "pointwise_constraint": null
            },
            "inbound_nodes": [
              [
                [
                  "block2_sepconv2_act",
                  0,
                  0,
                  {}
                ]
              ]
            ]
          },
          {
            "name": "block2_sepconv2_bn",
            "class_name": "BatchNormalization",
            "config": {
              "name": "block2_sepconv2_bn",
              "trainable": true,
              "axis": -1,
              "momentum": 0.99,
              "epsilon": 0.001,
              "center": true,
              "scale": true,
              "beta_initializer": {
                "class_name": "Zeros",
                "config": {}
              },
              "gamma_initializer": {
                "class_name": "Ones",
                "config": {}
              },
              "moving_mean_initializer": {
                "class_name": "Zeros",
                "config": {}
              },
              "moving_variance_initializer": {
                "class_name": "Ones",
                "config": {}
              },
              "beta_regularizer": null,
              "gamma_regularizer": null,
              "beta_constraint": null,
              "gamma_constraint": null
            },
            "inbound_nodes": [
              [
                [
                  "block2_sepconv2",
                  0,
                  0,
                  {}
                ]
              ]
            ]
          },
          {
            "name": "conv2d_95",
            "class_name": "Conv2D",
            "config": {
              "name": "conv2d_95",
              "trainable": true,
              "filters": 128,
              "kernel_size": [
                1,
                1
              ],
              "strides": [
                2,
                2
              ],
              "padding": "same",
              "data_format": "channels_last",
              "dilation_rate": [
                1,
                1
              ],
              "activation": "linear",
              "use_bias": false,
              "kernel_initializer": {
                "class_name": "VarianceScaling",
                "config": {
                  "scale": 1.0,
                  "mode": "fan_avg",
                  "distribution": "uniform",
                  "seed": null
                }
              },
              "bias_initializer": {
                "class_name": "Zeros",
                "config": {}
              },
              "kernel_regularizer": null,
              "bias_regularizer": null,
              "activity_regularizer": null,
              "kernel_constraint": null,
              "bias_constraint": null
            },
            "inbound_nodes": [
              [
                [
                  "block1_conv2_act",
                  0,
                  0,
                  {}
                ]
              ]
            ]
          },
          {
            "name": "block2_pool",
            "class_name": "MaxPooling2D",
            "config": {
              "name": "block2_pool",
              "trainable": true,
              "pool_size": [
                3,
                3
              ],
              "padding": "same",
              "strides": [
                2,
                2
              ],
              "data_format": "channels_last"
            },
            "inbound_nodes": [
              [
                [
                  "block2_sepconv2_bn",
                  0,
                  0,
                  {}
                ]
              ]
            ]
          },
          {
            "name": "batch_normalization_95",
            "class_name": "BatchNormalization",
            "config": {
              "name": "batch_normalization_95",
              "trainable": true,
              "axis": -1,
              "momentum": 0.99,
              "epsilon": 0.001,
              "center": true,
              "scale": true,
              "beta_initializer": {
                "class_name": "Zeros",
                "config": {}
              },
              "gamma_initializer": {
                "class_name": "Ones",
                "config": {}
              },
              "moving_mean_initializer": {
                "class_name": "Zeros",
                "config": {}
              },
              "moving_variance_initializer": {
                "class_name": "Ones",
                "config": {}
              },
              "beta_regularizer": null,
              "gamma_regularizer": null,
              "beta_constraint": null,
              "gamma_constraint": null
            },
            "inbound_nodes": [
              [
                [
                  "conv2d_95",
                  0,
                  0,
                  {}
                ]
              ]
            ]
          },
          {
            "name": "add_21",
            "class_name": "Add",
            "config": {
              "name": "add_21",
              "trainable": true
            },
            "inbound_nodes": [
              [
                [
                  "block2_pool",
                  0,
                  0,
                  {}
                ],
                [
                  "batch_normalization_95",
                  0,
                  0,
                  {}
                ]
              ]
            ]
          },
          {
            "name": "block3_sepconv1_act",
            "class_name": "Activation",
            "config": {
              "name": "block3_sepconv1_act",
              "trainable": true,
              "activation": "relu"
            },
            "inbound_nodes": [
              [
                [
                  "add_21",
                  0,
                  0,
                  {}
                ]
              ]
            ]
          },
          {
            "name": "block3_sepconv1",
            "class_name": "SeparableConv2D",
            "config": {
              "name": "block3_sepconv1",
              "trainable": true,
              "filters": 256,
              "kernel_size": [
                3,
                3
              ],
              "strides": [
                1,
                1
              ],
              "padding": "same",
              "data_format": "channels_last",
              "dilation_rate": [
                1,
                1
              ],
              "activation": "linear",
              "use_bias": false,
              "bias_initializer": {
                "class_name": "Zeros",
                "config": {}
              },
              "bias_regularizer": null,
              "activity_regularizer": null,
              "bias_constraint": null,
              "depth_multiplier": 1,
              "depthwise_initializer": {
                "class_name": "VarianceScaling",
                "config": {
                  "scale": 1.0,
                  "mode": "fan_avg",
                  "distribution": "uniform",
                  "seed": null
                }
              },
              "pointwise_initializer": {
                "class_name": "VarianceScaling",
                "config": {
                  "scale": 1.0,
                  "mode": "fan_avg",
                  "distribution": "uniform",
                  "seed": null
                }
              },
              "depthwise_regularizer": null,
              "pointwise_regularizer": null,
              "depthwise_constraint": null,
              "pointwise_constraint": null
            },
            "inbound_nodes": [
              [
                [
                  "block3_sepconv1_act",
                  0,
                  0,
                  {}
                ]
              ]
            ]
          },
          {
            "name": "block3_sepconv1_bn",
            "class_name": "BatchNormalization",
            "config": {
              "name": "block3_sepconv1_bn",
              "trainable": true,
              "axis": -1,
              "momentum": 0.99,
              "epsilon": 0.001,
              "center": true,
              "scale": true,
              "beta_initializer": {
                "class_name": "Zeros",
                "config": {}
              },
              "gamma_initializer": {
                "class_name": "Ones",
                "config": {}
              },
              "moving_mean_initializer": {
                "class_name": "Zeros",
                "config": {}
              },
              "moving_variance_initializer": {
                "class_name": "Ones",
                "config": {}
              },
              "beta_regularizer": null,
              "gamma_regularizer": null,
              "beta_constraint": null,
              "gamma_constraint": null
            },
            "inbound_nodes": [
              [
                [
                  "block3_sepconv1",
                  0,
                  0,
                  {}
                ]
              ]
            ]
          },
          {
            "name": "block3_sepconv2_act",
            "class_name": "Activation",
            "config": {
              "name": "block3_sepconv2_act",
              "trainable": true,
              "activation": "relu"
            },
            "inbound_nodes": [
              [
                [
                  "block3_sepconv1_bn",
                  0,
                  0,
                  {}
                ]
              ]
            ]
          },
          {
            "name": "block3_sepconv2",
            "class_name": "SeparableConv2D",
            "config": {
              "name": "block3_sepconv2",
              "trainable": true,
              "filters": 256,
              "kernel_size": [
                3,
                3
              ],
              "strides": [
                1,
                1
              ],
              "padding": "same",
              "data_format": "channels_last",
              "dilation_rate": [
                1,
                1
              ],
              "activation": "linear",
              "use_bias": false,
              "bias_initializer": {
                "class_name": "Zeros",
                "config": {}
              },
              "bias_regularizer": null,
              "activity_regularizer": null,
              "bias_constraint": null,
              "depth_multiplier": 1,
              "depthwise_initializer": {
                "class_name": "VarianceScaling",
                "config": {
                  "scale": 1.0,
                  "mode": "fan_avg",
                  "distribution": "uniform",
                  "seed": null
                }
              },
              "pointwise_initializer": {
                "class_name": "VarianceScaling",
                "config": {
                  "scale": 1.0,
                  "mode": "fan_avg",
                  "distribution": "uniform",
                  "seed": null
                }
              },
              "depthwise_regularizer": null,
              "pointwise_regularizer": null,
              "depthwise_constraint": null,
              "pointwise_constraint": null
            },
            "inbound_nodes": [
              [
                [
                  "block3_sepconv2_act",
                  0,
                  0,
                  {}
                ]
              ]
            ]
          },
          {
            "name": "block3_sepconv2_bn",
            "class_name": "BatchNormalization",
            "config": {
              "name": "block3_sepconv2_bn",
              "trainable": true,
              "axis": -1,
              "momentum": 0.99,
              "epsilon": 0.001,
              "center": true,
              "scale": true,
              "beta_initializer": {
                "class_name": "Zeros",
                "config": {}
              },
              "gamma_initializer": {
                "class_name": "Ones",
                "config": {}
              },
              "moving_mean_initializer": {
                "class_name": "Zeros",
                "config": {}
              },
              "moving_variance_initializer": {
                "class_name": "Ones",
                "config": {}
              },
              "beta_regularizer": null,
              "gamma_regularizer": null,
              "beta_constraint": null,
              "gamma_constraint": null
            },
            "inbound_nodes": [
              [
                [
                  "block3_sepconv2",
                  0,
                  0,
                  {}
                ]
              ]
            ]
          },
          {
            "name": "conv2d_96",
            "class_name": "Conv2D",
            "config": {
              "name": "conv2d_96",
              "trainable": true,
              "filters": 256,
              "kernel_size": [
                1,
                1
              ],
              "strides": [
                2,
                2
              ],
              "padding": "same",
              "data_format": "channels_last",
              "dilation_rate": [
                1,
                1
              ],
              "activation": "linear",
              "use_bias": false,
              "kernel_initializer": {
                "class_name": "VarianceScaling",
                "config": {
                  "scale": 1.0,
                  "mode": "fan_avg",
                  "distribution": "uniform",
                  "seed": null
                }
              },
              "bias_initializer": {
                "class_name": "Zeros",
                "config": {}
              },
              "kernel_regularizer": null,
              "bias_regularizer": null,
              "activity_regularizer": null,
              "kernel_constraint": null,
              "bias_constraint": null
            },
            "inbound_nodes": [
              [
                [
                  "add_21",
                  0,
                  0,
                  {}
                ]
              ]
            ]
          },
          {
            "name": "block3_pool",
            "class_name": "MaxPooling2D",
            "config": {
              "name": "block3_pool",
              "trainable": true,
              "pool_size": [
                3,
                3
              ],
              "padding": "same",
              "strides": [
                2,
                2
              ],
              "data_format": "channels_last"
            },
            "inbound_nodes": [
              [
                [
                  "block3_sepconv2_bn",
                  0,
                  0,
                  {}
                ]
              ]
            ]
          },
          {
            "name": "batch_normalization_96",
            "class_name": "BatchNormalization",
            "config": {
              "name": "batch_normalization_96",
              "trainable": true,
              "axis": -1,
              "momentum": 0.99,
              "epsilon": 0.001,
              "center": true,
              "scale": true,
              "beta_initializer": {
                "class_name": "Zeros",
                "config": {}
              },
              "gamma_initializer": {
                "class_name": "Ones",
                "config": {}
              },
              "moving_mean_initializer": {
                "class_name": "Zeros",
                "config": {}
              },
              "moving_variance_initializer": {
                "class_name": "Ones",
                "config": {}
              },
              "beta_regularizer": null,
              "gamma_regularizer": null,
              "beta_constraint": null,
              "gamma_constraint": null
            },
            "inbound_nodes": [
              [
                [
                  "conv2d_96",
                  0,
                  0,
                  {}
                ]
              ]
            ]
          },
          {
            "name": "add_22",
            "class_name": "Add",
            "config": {
              "name": "add_22",
              "trainable": true
            },
            "inbound_nodes": [
              [
                [
                  "block3_pool",
                  0,
                  0,
                  {}
                ],
                [
                  "batch_normalization_96",
                  0,
                  0,
                  {}
                ]
              ]
            ]
          },
          {
            "name": "block4_sepconv1_act",
            "class_name": "Activation",
            "config": {
              "name": "block4_sepconv1_act",
              "trainable": true,
              "activation": "relu"
            },
            "inbound_nodes": [
              [
                [
                  "add_22",
                  0,
                  0,
                  {}
                ]
              ]
            ]
          },
          {
            "name": "block4_sepconv1",
            "class_name": "SeparableConv2D",
            "config": {
              "name": "block4_sepconv1",
              "trainable": true,
              "filters": 728,
              "kernel_size": [
                3,
                3
              ],
              "strides": [
                1,
                1
              ],
              "padding": "same",
              "data_format": "channels_last",
              "dilation_rate": [
                1,
                1
              ],
              "activation": "linear",
              "use_bias": false,
              "bias_initializer": {
                "class_name": "Zeros",
                "config": {}
              },
              "bias_regularizer": null,
              "activity_regularizer": null,
              "bias_constraint": null,
              "depth_multiplier": 1,
              "depthwise_initializer": {
                "class_name": "VarianceScaling",
                "config": {
                  "scale": 1.0,
                  "mode": "fan_avg",
                  "distribution": "uniform",
                  "seed": null
                }
              },
              "pointwise_initializer": {
                "class_name": "VarianceScaling",
                "config": {
                  "scale": 1.0,
                  "mode": "fan_avg",
                  "distribution": "uniform",
                  "seed": null
                }
              },
              "depthwise_regularizer": null,
              "pointwise_regularizer": null,
              "depthwise_constraint": null,
              "pointwise_constraint": null
            },
            "inbound_nodes": [
              [
                [
                  "block4_sepconv1_act",
                  0,
                  0,
                  {}
                ]
              ]
            ]
          },
          {
            "name": "block4_sepconv1_bn",
            "class_name": "BatchNormalization",
            "config": {
              "name": "block4_sepconv1_bn",
              "trainable": true,
              "axis": -1,
              "momentum": 0.99,
              "epsilon": 0.001,
              "center": true,
              "scale": true,
              "beta_initializer": {
                "class_name": "Zeros",
                "config": {}
              },
              "gamma_initializer": {
                "class_name": "Ones",
                "config": {}
              },
              "moving_mean_initializer": {
                "class_name": "Zeros",
                "config": {}
              },
              "moving_variance_initializer": {
                "class_name": "Ones",
                "config": {}
              },
              "beta_regularizer": null,
              "gamma_regularizer": null,
              "beta_constraint": null,
              "gamma_constraint": null
            },
            "inbound_nodes": [
              [
                [
                  "block4_sepconv1",
                  0,
                  0,
                  {}
                ]
              ]
            ]
          },
          {
            "name": "block4_sepconv2_act",
            "class_name": "Activation",
            "config": {
              "name": "block4_sepconv2_act",
              "trainable": true,
              "activation": "relu"
            },
            "inbound_nodes": [
              [
                [
                  "block4_sepconv1_bn",
                  0,
                  0,
                  {}
                ]
              ]
            ]
          },
          {
            "name": "block4_sepconv2",
            "class_name": "SeparableConv2D",
            "config": {
              "name": "block4_sepconv2",
              "trainable": true,
              "filters": 728,
              "kernel_size": [
                3,
                3
              ],
              "strides": [
                1,
                1
              ],
              "padding": "same",
              "data_format": "channels_last",
              "dilation_rate": [
                1,
                1
              ],
              "activation": "linear",
              "use_bias": false,
              "bias_initializer": {
                "class_name": "Zeros",
                "config": {}
              },
              "bias_regularizer": null,
              "activity_regularizer": null,
              "bias_constraint": null,
              "depth_multiplier": 1,
              "depthwise_initializer": {
                "class_name": "VarianceScaling",
                "config": {
                  "scale": 1.0,
                  "mode": "fan_avg",
                  "distribution": "uniform",
                  "seed": null
                }
              },
              "pointwise_initializer": {
                "class_name": "VarianceScaling",
                "config": {
                  "scale": 1.0,
                  "mode": "fan_avg",
                  "distribution": "uniform",
                  "seed": null
                }
              },
              "depthwise_regularizer": null,
              "pointwise_regularizer": null,
              "depthwise_constraint": null,
              "pointwise_constraint": null
            },
            "inbound_nodes": [
              [
                [
                  "block4_sepconv2_act",
                  0,
                  0,
                  {}
                ]
              ]
            ]
          },
          {
            "name": "block4_sepconv2_bn",
            "class_name": "BatchNormalization",
            "config": {
              "name": "block4_sepconv2_bn",
              "trainable": true,
              "axis": -1,
              "momentum": 0.99,
              "epsilon": 0.001,
              "center": true,
              "scale": true,
              "beta_initializer": {
                "class_name": "Zeros",
                "config": {}
              },
              "gamma_initializer": {
                "class_name": "Ones",
                "config": {}
              },
              "moving_mean_initializer": {
                "class_name": "Zeros",
                "config": {}
              },
              "moving_variance_initializer": {
                "class_name": "Ones",
                "config": {}
              },
              "beta_regularizer": null,
              "gamma_regularizer": null,
              "beta_constraint": null,
              "gamma_constraint": null
            },
            "inbound_nodes": [
              [
                [
                  "block4_sepconv2",
                  0,
                  0,
                  {}
                ]
              ]
            ]
          },
          {
            "name": "conv2d_97",
            "class_name": "Conv2D",
            "config": {
              "name": "conv2d_97",
              "trainable": true,
              "filters": 728,
              "kernel_size": [
                1,
                1
              ],
              "strides": [
                2,
                2
              ],
              "padding": "same",
              "data_format": "channels_last",
              "dilation_rate": [
                1,
                1
              ],
              "activation": "linear",
              "use_bias": false,
              "kernel_initializer": {
                "class_name": "VarianceScaling",
                "config": {
                  "scale": 1.0,
                  "mode": "fan_avg",
                  "distribution": "uniform",
                  "seed": null
                }
              },
              "bias_initializer": {
                "class_name": "Zeros",
                "config": {}
              },
              "kernel_regularizer": null,
              "bias_regularizer": null,
              "activity_regularizer": null,
              "kernel_constraint": null,
              "bias_constraint": null
            },
            "inbound_nodes": [
              [
                [
                  "add_22",
                  0,
                  0,
                  {}
                ]
              ]
            ]
          },
          {
            "name": "block4_pool",
            "class_name": "MaxPooling2D",
            "config": {
              "name": "block4_pool",
              "trainable": true,
              "pool_size": [
                3,
                3
              ],
              "padding": "same",
              "strides": [
                2,
                2
              ],
              "data_format": "channels_last"
            },
            "inbound_nodes": [
              [
                [
                  "block4_sepconv2_bn",
                  0,
                  0,
                  {}
                ]
              ]
            ]
          },
          {
            "name": "batch_normalization_97",
            "class_name": "BatchNormalization",
            "config": {
              "name": "batch_normalization_97",
              "trainable": true,
              "axis": -1,
              "momentum": 0.99,
              "epsilon": 0.001,
              "center": true,
              "scale": true,
              "beta_initializer": {
                "class_name": "Zeros",
                "config": {}
              },
              "gamma_initializer": {
                "class_name": "Ones",
                "config": {}
              },
              "moving_mean_initializer": {
                "class_name": "Zeros",
                "config": {}
              },
              "moving_variance_initializer": {
                "class_name": "Ones",
                "config": {}
              },
              "beta_regularizer": null,
              "gamma_regularizer": null,
              "beta_constraint": null,
              "gamma_constraint": null
            },
            "inbound_nodes": [
              [
                [
                  "conv2d_97",
                  0,
                  0,
                  {}
                ]
              ]
            ]
          },
          {
            "name": "add_23",
            "class_name": "Add",
            "config": {
              "name": "add_23",
              "trainable": true
            },
            "inbound_nodes": [
              [
                [
                  "block4_pool",
                  0,
                  0,
                  {}
                ],
                [
                  "batch_normalization_97",
                  0,
                  0,
                  {}
                ]
              ]
            ]
          },
          {
            "name": "block5_sepconv1_act",
            "class_name": "Activation",
            "config": {
              "name": "block5_sepconv1_act",
              "trainable": true,
              "activation": "relu"
            },
            "inbound_nodes": [
              [
                [
                  "add_23",
                  0,
                  0,
                  {}
                ]
              ]
            ]
          },
          {
            "name": "block5_sepconv1",
            "class_name": "SeparableConv2D",
            "config": {
              "name": "block5_sepconv1",
              "trainable": true,
              "filters": 728,
              "kernel_size": [
                3,
                3
              ],
              "strides": [
                1,
                1
              ],
              "padding": "same",
              "data_format": "channels_last",
              "dilation_rate": [
                1,
                1
              ],
              "activation": "linear",
              "use_bias": false,
              "bias_initializer": {
                "class_name": "Zeros",
                "config": {}
              },
              "bias_regularizer": null,
              "activity_regularizer": null,
              "bias_constraint": null,
              "depth_multiplier": 1,
              "depthwise_initializer": {
                "class_name": "VarianceScaling",
                "config": {
                  "scale": 1.0,
                  "mode": "fan_avg",
                  "distribution": "uniform",
                  "seed": null
                }
              },
              "pointwise_initializer": {
                "class_name": "VarianceScaling",
                "config": {
                  "scale": 1.0,
                  "mode": "fan_avg",
                  "distribution": "uniform",
                  "seed": null
                }
              },
              "depthwise_regularizer": null,
              "pointwise_regularizer": null,
              "depthwise_constraint": null,
              "pointwise_constraint": null
            },
            "inbound_nodes": [
              [
                [
                  "block5_sepconv1_act",
                  0,
                  0,
                  {}
                ]
              ]
            ]
          },
          {
            "name": "block5_sepconv1_bn",
            "class_name": "BatchNormalization",
            "config": {
              "name": "block5_sepconv1_bn",
              "trainable": true,
              "axis": -1,
              "momentum": 0.99,
              "epsilon": 0.001,
              "center": true,
              "scale": true,
              "beta_initializer": {
                "class_name": "Zeros",
                "config": {}
              },
              "gamma_initializer": {
                "class_name": "Ones",
                "config": {}
              },
              "moving_mean_initializer": {
                "class_name": "Zeros",
                "config": {}
              },
              "moving_variance_initializer": {
                "class_name": "Ones",
                "config": {}
              },
              "beta_regularizer": null,
              "gamma_regularizer": null,
              "beta_constraint": null,
              "gamma_constraint": null
            },
            "inbound_nodes": [
              [
                [
                  "block5_sepconv1",
                  0,
                  0,
                  {}
                ]
              ]
            ]
          },
          {
            "name": "block5_sepconv2_act",
            "class_name": "Activation",
            "config": {
              "name": "block5_sepconv2_act",
              "trainable": true,
              "activation": "relu"
            },
            "inbound_nodes": [
              [
                [
                  "block5_sepconv1_bn",
                  0,
                  0,
                  {}
                ]
              ]
            ]
          },
          {
            "name": "block5_sepconv2",
            "class_name": "SeparableConv2D",
            "config": {
              "name": "block5_sepconv2",
              "trainable": true,
              "filters": 728,
              "kernel_size": [
                3,
                3
              ],
              "strides": [
                1,
                1
              ],
              "padding": "same",
              "data_format": "channels_last",
              "dilation_rate": [
                1,
                1
              ],
              "activation": "linear",
              "use_bias": false,
              "bias_initializer": {
                "class_name": "Zeros",
                "config": {}
              },
              "bias_regularizer": null,
              "activity_regularizer": null,
              "bias_constraint": null,
              "depth_multiplier": 1,
              "depthwise_initializer": {
                "class_name": "VarianceScaling",
                "config": {
                  "scale": 1.0,
                  "mode": "fan_avg",
                  "distribution": "uniform",
                  "seed": null
                }
              },
              "pointwise_initializer": {
                "class_name": "VarianceScaling",
                "config": {
                  "scale": 1.0,
                  "mode": "fan_avg",
                  "distribution": "uniform",
                  "seed": null
                }
              },
              "depthwise_regularizer": null,
              "pointwise_regularizer": null,
              "depthwise_constraint": null,
              "pointwise_constraint": null
            },
            "inbound_nodes": [
              [
                [
                  "block5_sepconv2_act",
                  0,
                  0,
                  {}
                ]
              ]
            ]
          },
          {
            "name": "block5_sepconv2_bn",
            "class_name": "BatchNormalization",
            "config": {
              "name": "block5_sepconv2_bn",
              "trainable": true,
              "axis": -1,
              "momentum": 0.99,
              "epsilon": 0.001,
              "center": true,
              "scale": true,
              "beta_initializer": {
                "class_name": "Zeros",
                "config": {}
              },
              "gamma_initializer": {
                "class_name": "Ones",
                "config": {}
              },
              "moving_mean_initializer": {
                "class_name": "Zeros",
                "config": {}
              },
              "moving_variance_initializer": {
                "class_name": "Ones",
                "config": {}
              },
              "beta_regularizer": null,
              "gamma_regularizer": null,
              "beta_constraint": null,
              "gamma_constraint": null
            },
            "inbound_nodes": [
              [
                [
                  "block5_sepconv2",
                  0,
                  0,
                  {}
                ]
              ]
            ]
          },
          {
            "name": "block5_sepconv3_act",
            "class_name": "Activation",
            "config": {
              "name": "block5_sepconv3_act",
              "trainable": true,
              "activation": "relu"
            },
            "inbound_nodes": [
              [
                [
                  "block5_sepconv2_bn",
                  0,
                  0,
                  {}
                ]
              ]
            ]
          },
          {
            "name": "block5_sepconv3",
            "class_name": "SeparableConv2D",
            "config": {
              "name": "block5_sepconv3",
              "trainable": true,
              "filters": 728,
              "kernel_size": [
                3,
                3
              ],
              "strides": [
                1,
                1
              ],
              "padding": "same",
              "data_format": "channels_last",
              "dilation_rate": [
                1,
                1
              ],
              "activation": "linear",
              "use_bias": false,
              "bias_initializer": {
                "class_name": "Zeros",
                "config": {}
              },
              "bias_regularizer": null,
              "activity_regularizer": null,
              "bias_constraint": null,
              "depth_multiplier": 1,
              "depthwise_initializer": {
                "class_name": "VarianceScaling",
                "config": {
                  "scale": 1.0,
                  "mode": "fan_avg",
                  "distribution": "uniform",
                  "seed": null
                }
              },
              "pointwise_initializer": {
                "class_name": "VarianceScaling",
                "config": {
                  "scale": 1.0,
                  "mode": "fan_avg",
                  "distribution": "uniform",
                  "seed": null
                }
              },
              "depthwise_regularizer": null,
              "pointwise_regularizer": null,
              "depthwise_constraint": null,
              "pointwise_constraint": null
            },
            "inbound_nodes": [
              [
                [
                  "block5_sepconv3_act",
                  0,
                  0,
                  {}
                ]
              ]
            ]
          },
          {
            "name": "block5_sepconv3_bn",
            "class_name": "BatchNormalization",
            "config": {
              "name": "block5_sepconv3_bn",
              "trainable": true,
              "axis": -1,
              "momentum": 0.99,
              "epsilon": 0.001,
              "center": true,
              "scale": true,
              "beta_initializer": {
                "class_name": "Zeros",
                "config": {}
              },
              "gamma_initializer": {
                "class_name": "Ones",
                "config": {}
              },
              "moving_mean_initializer": {
                "class_name": "Zeros",
                "config": {}
              },
              "moving_variance_initializer": {
                "class_name": "Ones",
                "config": {}
              },
              "beta_regularizer": null,
              "gamma_regularizer": null,
              "beta_constraint": null,
              "gamma_constraint": null
            },
            "inbound_nodes": [
              [
                [
                  "block5_sepconv3",
                  0,
                  0,
                  {}
                ]
              ]
            ]
          },
          {
            "name": "add_24",
            "class_name": "Add",
            "config": {
              "name": "add_24",
              "trainable": true
            },
            "inbound_nodes": [
              [
                [
                  "block5_sepconv3_bn",
                  0,
                  0,
                  {}
                ],
                [
                  "add_23",
                  0,
                  0,
                  {}
                ]
              ]
            ]
          },
          {
            "name": "block6_sepconv1_act",
            "class_name": "Activation",
            "config": {
              "name": "block6_sepconv1_act",
              "trainable": true,
              "activation": "relu"
            },
            "inbound_nodes": [
              [
                [
                  "add_24",
                  0,
                  0,
                  {}
                ]
              ]
            ]
          },
          {
            "name": "block6_sepconv1",
            "class_name": "SeparableConv2D",
            "config": {
              "name": "block6_sepconv1",
              "trainable": true,
              "filters": 728,
              "kernel_size": [
                3,
                3
              ],
              "strides": [
                1,
                1
              ],
              "padding": "same",
              "data_format": "channels_last",
              "dilation_rate": [
                1,
                1
              ],
              "activation": "linear",
              "use_bias": false,
              "bias_initializer": {
                "class_name": "Zeros",
                "config": {}
              },
              "bias_regularizer": null,
              "activity_regularizer": null,
              "bias_constraint": null,
              "depth_multiplier": 1,
              "depthwise_initializer": {
                "class_name": "VarianceScaling",
                "config": {
                  "scale": 1.0,
                  "mode": "fan_avg",
                  "distribution": "uniform",
                  "seed": null
                }
              },
              "pointwise_initializer": {
                "class_name": "VarianceScaling",
                "config": {
                  "scale": 1.0,
                  "mode": "fan_avg",
                  "distribution": "uniform",
                  "seed": null
                }
              },
              "depthwise_regularizer": null,
              "pointwise_regularizer": null,
              "depthwise_constraint": null,
              "pointwise_constraint": null
            },
            "inbound_nodes": [
              [
                [
                  "block6_sepconv1_act",
                  0,
                  0,
                  {}
                ]
              ]
            ]
          },
          {
            "name": "block6_sepconv1_bn",
            "class_name": "BatchNormalization",
            "config": {
              "name": "block6_sepconv1_bn",
              "trainable": true,
              "axis": -1,
              "momentum": 0.99,
              "epsilon": 0.001,
              "center": true,
              "scale": true,
              "beta_initializer": {
                "class_name": "Zeros",
                "config": {}
              },
              "gamma_initializer": {
                "class_name": "Ones",
                "config": {}
              },
              "moving_mean_initializer": {
                "class_name": "Zeros",
                "config": {}
              },
              "moving_variance_initializer": {
                "class_name": "Ones",
                "config": {}
              },
              "beta_regularizer": null,
              "gamma_regularizer": null,
              "beta_constraint": null,
              "gamma_constraint": null
            },
            "inbound_nodes": [
              [
                [
                  "block6_sepconv1",
                  0,
                  0,
                  {}
                ]
              ]
            ]
          },
          {
            "name": "block6_sepconv2_act",
            "class_name": "Activation",
            "config": {
              "name": "block6_sepconv2_act",
              "trainable": true,
              "activation": "relu"
            },
            "inbound_nodes": [
              [
                [
                  "block6_sepconv1_bn",
                  0,
                  0,
                  {}
                ]
              ]
            ]
          },
          {
            "name": "block6_sepconv2",
            "class_name": "SeparableConv2D",
            "config": {
              "name": "block6_sepconv2",
              "trainable": true,
              "filters": 728,
              "kernel_size": [
                3,
                3
              ],
              "strides": [
                1,
                1
              ],
              "padding": "same",
              "data_format": "channels_last",
              "dilation_rate": [
                1,
                1
              ],
              "activation": "linear",
              "use_bias": false,
              "bias_initializer": {
                "class_name": "Zeros",
                "config": {}
              },
              "bias_regularizer": null,
              "activity_regularizer": null,
              "bias_constraint": null,
              "depth_multiplier": 1,
              "depthwise_initializer": {
                "class_name": "VarianceScaling",
                "config": {
                  "scale": 1.0,
                  "mode": "fan_avg",
                  "distribution": "uniform",
                  "seed": null
                }
              },
              "pointwise_initializer": {
                "class_name": "VarianceScaling",
                "config": {
                  "scale": 1.0,
                  "mode": "fan_avg",
                  "distribution": "uniform",
                  "seed": null
                }
              },
              "depthwise_regularizer": null,
              "pointwise_regularizer": null,
              "depthwise_constraint": null,
              "pointwise_constraint": null
            },
            "inbound_nodes": [
              [
                [
                  "block6_sepconv2_act",
                  0,
                  0,
                  {}
                ]
              ]
            ]
          },
          {
            "name": "block6_sepconv2_bn",
            "class_name": "BatchNormalization",
            "config": {
              "name": "block6_sepconv2_bn",
              "trainable": true,
              "axis": -1,
              "momentum": 0.99,
              "epsilon": 0.001,
              "center": true,
              "scale": true,
              "beta_initializer": {
                "class_name": "Zeros",
                "config": {}
              },
              "gamma_initializer": {
                "class_name": "Ones",
                "config": {}
              },
              "moving_mean_initializer": {
                "class_name": "Zeros",
                "config": {}
              },
              "moving_variance_initializer": {
                "class_name": "Ones",
                "config": {}
              },
              "beta_regularizer": null,
              "gamma_regularizer": null,
              "beta_constraint": null,
              "gamma_constraint": null
            },
            "inbound_nodes": [
              [
                [
                  "block6_sepconv2",
                  0,
                  0,
                  {}
                ]
              ]
            ]
          },
          {
            "name": "block6_sepconv3_act",
            "class_name": "Activation",
            "config": {
              "name": "block6_sepconv3_act",
              "trainable": true,
              "activation": "relu"
            },
            "inbound_nodes": [
              [
                [
                  "block6_sepconv2_bn",
                  0,
                  0,
                  {}
                ]
              ]
            ]
          },
          {
            "name": "block6_sepconv3",
            "class_name": "SeparableConv2D",
            "config": {
              "name": "block6_sepconv3",
              "trainable": true,
              "filters": 728,
              "kernel_size": [
                3,
                3
              ],
              "strides": [
                1,
                1
              ],
              "padding": "same",
              "data_format": "channels_last",
              "dilation_rate": [
                1,
                1
              ],
              "activation": "linear",
              "use_bias": false,
              "bias_initializer": {
                "class_name": "Zeros",
                "config": {}
              },
              "bias_regularizer": null,
              "activity_regularizer": null,
              "bias_constraint": null,
              "depth_multiplier": 1,
              "depthwise_initializer": {
                "class_name": "VarianceScaling",
                "config": {
                  "scale": 1.0,
                  "mode": "fan_avg",
                  "distribution": "uniform",
                  "seed": null
                }
              },
              "pointwise_initializer": {
                "class_name": "VarianceScaling",
                "config": {
                  "scale": 1.0,
                  "mode": "fan_avg",
                  "distribution": "uniform",
                  "seed": null
                }
              },
              "depthwise_regularizer": null,
              "pointwise_regularizer": null,
              "depthwise_constraint": null,
              "pointwise_constraint": null
            },
            "inbound_nodes": [
              [
                [
                  "block6_sepconv3_act",
                  0,
                  0,
                  {}
                ]
              ]
            ]
          },
          {
            "name": "block6_sepconv3_bn",
            "class_name": "BatchNormalization",
            "config": {
              "name": "block6_sepconv3_bn",
              "trainable": true,
              "axis": -1,
              "momentum": 0.99,
              "epsilon": 0.001,
              "center": true,
              "scale": true,
              "beta_initializer": {
                "class_name": "Zeros",
                "config": {}
              },
              "gamma_initializer": {
                "class_name": "Ones",
                "config": {}
              },
              "moving_mean_initializer": {
                "class_name": "Zeros",
                "config": {}
              },
              "moving_variance_initializer": {
                "class_name": "Ones",
                "config": {}
              },
              "beta_regularizer": null,
              "gamma_regularizer": null,
              "beta_constraint": null,
              "gamma_constraint": null
            },
            "inbound_nodes": [
              [
                [
                  "block6_sepconv3",
                  0,
                  0,
                  {}
                ]
              ]
            ]
          },
          {
            "name": "add_25",
            "class_name": "Add",
            "config": {
              "name": "add_25",
              "trainable": true
            },
            "inbound_nodes": [
              [
                [
                  "block6_sepconv3_bn",
                  0,
                  0,
                  {}
                ],
                [
                  "add_24",
                  0,
                  0,
                  {}
                ]
              ]
            ]
          },
          {
            "name": "block7_sepconv1_act",
            "class_name": "Activation",
            "config": {
              "name": "block7_sepconv1_act",
              "trainable": true,
              "activation": "relu"
            },
            "inbound_nodes": [
              [
                [
                  "add_25",
                  0,
                  0,
                  {}
                ]
              ]
            ]
          },
          {
            "name": "block7_sepconv1",
            "class_name": "SeparableConv2D",
            "config": {
              "name": "block7_sepconv1",
              "trainable": true,
              "filters": 728,
              "kernel_size": [
                3,
                3
              ],
              "strides": [
                1,
                1
              ],
              "padding": "same",
              "data_format": "channels_last",
              "dilation_rate": [
                1,
                1
              ],
              "activation": "linear",
              "use_bias": false,
              "bias_initializer": {
                "class_name": "Zeros",
                "config": {}
              },
              "bias_regularizer": null,
              "activity_regularizer": null,
              "bias_constraint": null,
              "depth_multiplier": 1,
              "depthwise_initializer": {
                "class_name": "VarianceScaling",
                "config": {
                  "scale": 1.0,
                  "mode": "fan_avg",
                  "distribution": "uniform",
                  "seed": null
                }
              },
              "pointwise_initializer": {
                "class_name": "VarianceScaling",
                "config": {
                  "scale": 1.0,
                  "mode": "fan_avg",
                  "distribution": "uniform",
                  "seed": null
                }
              },
              "depthwise_regularizer": null,
              "pointwise_regularizer": null,
              "depthwise_constraint": null,
              "pointwise_constraint": null
            },
            "inbound_nodes": [
              [
                [
                  "block7_sepconv1_act",
                  0,
                  0,
                  {}
                ]
              ]
            ]
          },
          {
            "name": "block7_sepconv1_bn",
            "class_name": "BatchNormalization",
            "config": {
              "name": "block7_sepconv1_bn",
              "trainable": true,
              "axis": -1,
              "momentum": 0.99,
              "epsilon": 0.001,
              "center": true,
              "scale": true,
              "beta_initializer": {
                "class_name": "Zeros",
                "config": {}
              },
              "gamma_initializer": {
                "class_name": "Ones",
                "config": {}
              },
              "moving_mean_initializer": {
                "class_name": "Zeros",
                "config": {}
              },
              "moving_variance_initializer": {
                "class_name": "Ones",
                "config": {}
              },
              "beta_regularizer": null,
              "gamma_regularizer": null,
              "beta_constraint": null,
              "gamma_constraint": null
            },
            "inbound_nodes": [
              [
                [
                  "block7_sepconv1",
                  0,
                  0,
                  {}
                ]
              ]
            ]
          },
          {
            "name": "block7_sepconv2_act",
            "class_name": "Activation",
            "config": {
              "name": "block7_sepconv2_act",
              "trainable": true,
              "activation": "relu"
            },
            "inbound_nodes": [
              [
                [
                  "block7_sepconv1_bn",
                  0,
                  0,
                  {}
                ]
              ]
            ]
          },
          {
            "name": "block7_sepconv2",
            "class_name": "SeparableConv2D",
            "config": {
              "name": "block7_sepconv2",
              "trainable": true,
              "filters": 728,
              "kernel_size": [
                3,
                3
              ],
              "strides": [
                1,
                1
              ],
              "padding": "same",
              "data_format": "channels_last",
              "dilation_rate": [
                1,
                1
              ],
              "activation": "linear",
              "use_bias": false,
              "bias_initializer": {
                "class_name": "Zeros",
                "config": {}
              },
              "bias_regularizer": null,
              "activity_regularizer": null,
              "bias_constraint": null,
              "depth_multiplier": 1,
              "depthwise_initializer": {
                "class_name": "VarianceScaling",
                "config": {
                  "scale": 1.0,
                  "mode": "fan_avg",
                  "distribution": "uniform",
                  "seed": null
                }
              },
              "pointwise_initializer": {
                "class_name": "VarianceScaling",
                "config": {
                  "scale": 1.0,
                  "mode": "fan_avg",
                  "distribution": "uniform",
                  "seed": null
                }
              },
              "depthwise_regularizer": null,
              "pointwise_regularizer": null,
              "depthwise_constraint": null,
              "pointwise_constraint": null
            },
            "inbound_nodes": [
              [
                [
                  "block7_sepconv2_act",
                  0,
                  0,
                  {}
                ]
              ]
            ]
          },
          {
            "name": "block7_sepconv2_bn",
            "class_name": "BatchNormalization",
            "config": {
              "name": "block7_sepconv2_bn",
              "trainable": true,
              "axis": -1,
              "momentum": 0.99,
              "epsilon": 0.001,
              "center": true,
              "scale": true,
              "beta_initializer": {
                "class_name": "Zeros",
                "config": {}
              },
              "gamma_initializer": {
                "class_name": "Ones",
                "config": {}
              },
              "moving_mean_initializer": {
                "class_name": "Zeros",
                "config": {}
              },
              "moving_variance_initializer": {
                "class_name": "Ones",
                "config": {}
              },
              "beta_regularizer": null,
              "gamma_regularizer": null,
              "beta_constraint": null,
              "gamma_constraint": null
            },
            "inbound_nodes": [
              [
                [
                  "block7_sepconv2",
                  0,
                  0,
                  {}
                ]
              ]
            ]
          },
          {
            "name": "block7_sepconv3_act",
            "class_name": "Activation",
            "config": {
              "name": "block7_sepconv3_act",
              "trainable": true,
              "activation": "relu"
            },
            "inbound_nodes": [
              [
                [
                  "block7_sepconv2_bn",
                  0,
                  0,
                  {}
                ]
              ]
            ]
          },
          {
            "name": "block7_sepconv3",
            "class_name": "SeparableConv2D",
            "config": {
              "name": "block7_sepconv3",
              "trainable": true,
              "filters": 728,
              "kernel_size": [
                3,
                3
              ],
              "strides": [
                1,
                1
              ],
              "padding": "same",
              "data_format": "channels_last",
              "dilation_rate": [
                1,
                1
              ],
              "activation": "linear",
              "use_bias": false,
              "bias_initializer": {
                "class_name": "Zeros",
                "config": {}
              },
              "bias_regularizer": null,
              "activity_regularizer": null,
              "bias_constraint": null,
              "depth_multiplier": 1,
              "depthwise_initializer": {
                "class_name": "VarianceScaling",
                "config": {
                  "scale": 1.0,
                  "mode": "fan_avg",
                  "distribution": "uniform",
                  "seed": null
                }
              },
              "pointwise_initializer": {
                "class_name": "VarianceScaling",
                "config": {
                  "scale": 1.0,
                  "mode": "fan_avg",
                  "distribution": "uniform",
                  "seed": null
                }
              },
              "depthwise_regularizer": null,
              "pointwise_regularizer": null,
              "depthwise_constraint": null,
              "pointwise_constraint": null
            },
            "inbound_nodes": [
              [
                [
                  "block7_sepconv3_act",
                  0,
                  0,
                  {}
                ]
              ]
            ]
          },
          {
            "name": "block7_sepconv3_bn",
            "class_name": "BatchNormalization",
            "config": {
              "name": "block7_sepconv3_bn",
              "trainable": true,
              "axis": -1,
              "momentum": 0.99,
              "epsilon": 0.001,
              "center": true,
              "scale": true,
              "beta_initializer": {
                "class_name": "Zeros",
                "config": {}
              },
              "gamma_initializer": {
                "class_name": "Ones",
                "config": {}
              },
              "moving_mean_initializer": {
                "class_name": "Zeros",
                "config": {}
              },
              "moving_variance_initializer": {
                "class_name": "Ones",
                "config": {}
              },
              "beta_regularizer": null,
              "gamma_regularizer": null,
              "beta_constraint": null,
              "gamma_constraint": null
            },
            "inbound_nodes": [
              [
                [
                  "block7_sepconv3",
                  0,
                  0,
                  {}
                ]
              ]
            ]
          },
          {
            "name": "add_26",
            "class_name": "Add",
            "config": {
              "name": "add_26",
              "trainable": true
            },
            "inbound_nodes": [
              [
                [
                  "block7_sepconv3_bn",
                  0,
                  0,
                  {}
                ],
                [
                  "add_25",
                  0,
                  0,
                  {}
                ]
              ]
            ]
          },
          {
            "name": "block8_sepconv1_act",
            "class_name": "Activation",
            "config": {
              "name": "block8_sepconv1_act",
              "trainable": true,
              "activation": "relu"
            },
            "inbound_nodes": [
              [
                [
                  "add_26",
                  0,
                  0,
                  {}
                ]
              ]
            ]
          },
          {
            "name": "block8_sepconv1",
            "class_name": "SeparableConv2D",
            "config": {
              "name": "block8_sepconv1",
              "trainable": true,
              "filters": 728,
              "kernel_size": [
                3,
                3
              ],
              "strides": [
                1,
                1
              ],
              "padding": "same",
              "data_format": "channels_last",
              "dilation_rate": [
                1,
                1
              ],
              "activation": "linear",
              "use_bias": false,
              "bias_initializer": {
                "class_name": "Zeros",
                "config": {}
              },
              "bias_regularizer": null,
              "activity_regularizer": null,
              "bias_constraint": null,
              "depth_multiplier": 1,
              "depthwise_initializer": {
                "class_name": "VarianceScaling",
                "config": {
                  "scale": 1.0,
                  "mode": "fan_avg",
                  "distribution": "uniform",
                  "seed": null
                }
              },
              "pointwise_initializer": {
                "class_name": "VarianceScaling",
                "config": {
                  "scale": 1.0,
                  "mode": "fan_avg",
                  "distribution": "uniform",
                  "seed": null
                }
              },
              "depthwise_regularizer": null,
              "pointwise_regularizer": null,
              "depthwise_constraint": null,
              "pointwise_constraint": null
            },
            "inbound_nodes": [
              [
                [
                  "block8_sepconv1_act",
                  0,
                  0,
                  {}
                ]
              ]
            ]
          },
          {
            "name": "block8_sepconv1_bn",
            "class_name": "BatchNormalization",
            "config": {
              "name": "block8_sepconv1_bn",
              "trainable": true,
              "axis": -1,
              "momentum": 0.99,
              "epsilon": 0.001,
              "center": true,
              "scale": true,
              "beta_initializer": {
                "class_name": "Zeros",
                "config": {}
              },
              "gamma_initializer": {
                "class_name": "Ones",
                "config": {}
              },
              "moving_mean_initializer": {
                "class_name": "Zeros",
                "config": {}
              },
              "moving_variance_initializer": {
                "class_name": "Ones",
                "config": {}
              },
              "beta_regularizer": null,
              "gamma_regularizer": null,
              "beta_constraint": null,
              "gamma_constraint": null
            },
            "inbound_nodes": [
              [
                [
                  "block8_sepconv1",
                  0,
                  0,
                  {}
                ]
              ]
            ]
          },
          {
            "name": "block8_sepconv2_act",
            "class_name": "Activation",
            "config": {
              "name": "block8_sepconv2_act",
              "trainable": true,
              "activation": "relu"
            },
            "inbound_nodes": [
              [
                [
                  "block8_sepconv1_bn",
                  0,
                  0,
                  {}
                ]
              ]
            ]
          },
          {
            "name": "block8_sepconv2",
            "class_name": "SeparableConv2D",
            "config": {
              "name": "block8_sepconv2",
              "trainable": true,
              "filters": 728,
              "kernel_size": [
                3,
                3
              ],
              "strides": [
                1,
                1
              ],
              "padding": "same",
              "data_format": "channels_last",
              "dilation_rate": [
                1,
                1
              ],
              "activation": "linear",
              "use_bias": false,
              "bias_initializer": {
                "class_name": "Zeros",
                "config": {}
              },
              "bias_regularizer": null,
              "activity_regularizer": null,
              "bias_constraint": null,
              "depth_multiplier": 1,
              "depthwise_initializer": {
                "class_name": "VarianceScaling",
                "config": {
                  "scale": 1.0,
                  "mode": "fan_avg",
                  "distribution": "uniform",
                  "seed": null
                }
              },
              "pointwise_initializer": {
                "class_name": "VarianceScaling",
                "config": {
                  "scale": 1.0,
                  "mode": "fan_avg",
                  "distribution": "uniform",
                  "seed": null
                }
              },
              "depthwise_regularizer": null,
              "pointwise_regularizer": null,
              "depthwise_constraint": null,
              "pointwise_constraint": null
            },
            "inbound_nodes": [
              [
                [
                  "block8_sepconv2_act",
                  0,
                  0,
                  {}
                ]
              ]
            ]
          },
          {
            "name": "block8_sepconv2_bn",
            "class_name": "BatchNormalization",
            "config": {
              "name": "block8_sepconv2_bn",
              "trainable": true,
              "axis": -1,
              "momentum": 0.99,
              "epsilon": 0.001,
              "center": true,
              "scale": true,
              "beta_initializer": {
                "class_name": "Zeros",
                "config": {}
              },
              "gamma_initializer": {
                "class_name": "Ones",
                "config": {}
              },
              "moving_mean_initializer": {
                "class_name": "Zeros",
                "config": {}
              },
              "moving_variance_initializer": {
                "class_name": "Ones",
                "config": {}
              },
              "beta_regularizer": null,
              "gamma_regularizer": null,
              "beta_constraint": null,
              "gamma_constraint": null
            },
            "inbound_nodes": [
              [
                [
                  "block8_sepconv2",
                  0,
                  0,
                  {}
                ]
              ]
            ]
          },
          {
            "name": "block8_sepconv3_act",
            "class_name": "Activation",
            "config": {
              "name": "block8_sepconv3_act",
              "trainable": true,
              "activation": "relu"
            },
            "inbound_nodes": [
              [
                [
                  "block8_sepconv2_bn",
                  0,
                  0,
                  {}
                ]
              ]
            ]
          },
          {
            "name": "block8_sepconv3",
            "class_name": "SeparableConv2D",
            "config": {
              "name": "block8_sepconv3",
              "trainable": true,
              "filters": 728,
              "kernel_size": [
                3,
                3
              ],
              "strides": [
                1,
                1
              ],
              "padding": "same",
              "data_format": "channels_last",
              "dilation_rate": [
                1,
                1
              ],
              "activation": "linear",
              "use_bias": false,
              "bias_initializer": {
                "class_name": "Zeros",
                "config": {}
              },
              "bias_regularizer": null,
              "activity_regularizer": null,
              "bias_constraint": null,
              "depth_multiplier": 1,
              "depthwise_initializer": {
                "class_name": "VarianceScaling",
                "config": {
                  "scale": 1.0,
                  "mode": "fan_avg",
                  "distribution": "uniform",
                  "seed": null
                }
              },
              "pointwise_initializer": {
                "class_name": "VarianceScaling",
                "config": {
                  "scale": 1.0,
                  "mode": "fan_avg",
                  "distribution": "uniform",
                  "seed": null
                }
              },
              "depthwise_regularizer": null,
              "pointwise_regularizer": null,
              "depthwise_constraint": null,
              "pointwise_constraint": null
            },
            "inbound_nodes": [
              [
                [
                  "block8_sepconv3_act",
                  0,
                  0,
                  {}
                ]
              ]
            ]
          },
          {
            "name": "block8_sepconv3_bn",
            "class_name": "BatchNormalization",
            "config": {
              "name": "block8_sepconv3_bn",
              "trainable": true,
              "axis": -1,
              "momentum": 0.99,
              "epsilon": 0.001,
              "center": true,
              "scale": true,
              "beta_initializer": {
                "class_name": "Zeros",
                "config": {}
              },
              "gamma_initializer": {
                "class_name": "Ones",
                "config": {}
              },
              "moving_mean_initializer": {
                "class_name": "Zeros",
                "config": {}
              },
              "moving_variance_initializer": {
                "class_name": "Ones",
                "config": {}
              },
              "beta_regularizer": null,
              "gamma_regularizer": null,
              "beta_constraint": null,
              "gamma_constraint": null
            },
            "inbound_nodes": [
              [
                [
                  "block8_sepconv3",
                  0,
                  0,
                  {}
                ]
              ]
            ]
          },
          {
            "name": "add_27",
            "class_name": "Add",
            "config": {
              "name": "add_27",
              "trainable": true
            },
            "inbound_nodes": [
              [
                [
                  "block8_sepconv3_bn",
                  0,
                  0,
                  {}
                ],
                [
                  "add_26",
                  0,
                  0,
                  {}
                ]
              ]
            ]
          },
          {
            "name": "block9_sepconv1_act",
            "class_name": "Activation",
            "config": {
              "name": "block9_sepconv1_act",
              "trainable": true,
              "activation": "relu"
            },
            "inbound_nodes": [
              [
                [
                  "add_27",
                  0,
                  0,
                  {}
                ]
              ]
            ]
          },
          {
            "name": "block9_sepconv1",
            "class_name": "SeparableConv2D",
            "config": {
              "name": "block9_sepconv1",
              "trainable": true,
              "filters": 728,
              "kernel_size": [
                3,
                3
              ],
              "strides": [
                1,
                1
              ],
              "padding": "same",
              "data_format": "channels_last",
              "dilation_rate": [
                1,
                1
              ],
              "activation": "linear",
              "use_bias": false,
              "bias_initializer": {
                "class_name": "Zeros",
                "config": {}
              },
              "bias_regularizer": null,
              "activity_regularizer": null,
              "bias_constraint": null,
              "depth_multiplier": 1,
              "depthwise_initializer": {
                "class_name": "VarianceScaling",
                "config": {
                  "scale": 1.0,
                  "mode": "fan_avg",
                  "distribution": "uniform",
                  "seed": null
                }
              },
              "pointwise_initializer": {
                "class_name": "VarianceScaling",
                "config": {
                  "scale": 1.0,
                  "mode": "fan_avg",
                  "distribution": "uniform",
                  "seed": null
                }
              },
              "depthwise_regularizer": null,
              "pointwise_regularizer": null,
              "depthwise_constraint": null,
              "pointwise_constraint": null
            },
            "inbound_nodes": [
              [
                [
                  "block9_sepconv1_act",
                  0,
                  0,
                  {}
                ]
              ]
            ]
          },
          {
            "name": "block9_sepconv1_bn",
            "class_name": "BatchNormalization",
            "config": {
              "name": "block9_sepconv1_bn",
              "trainable": true,
              "axis": -1,
              "momentum": 0.99,
              "epsilon": 0.001,
              "center": true,
              "scale": true,
              "beta_initializer": {
                "class_name": "Zeros",
                "config": {}
              },
              "gamma_initializer": {
                "class_name": "Ones",
                "config": {}
              },
              "moving_mean_initializer": {
                "class_name": "Zeros",
                "config": {}
              },
              "moving_variance_initializer": {
                "class_name": "Ones",
                "config": {}
              },
              "beta_regularizer": null,
              "gamma_regularizer": null,
              "beta_constraint": null,
              "gamma_constraint": null
            },
            "inbound_nodes": [
              [
                [
                  "block9_sepconv1",
                  0,
                  0,
                  {}
                ]
              ]
            ]
          },
          {
            "name": "block9_sepconv2_act",
            "class_name": "Activation",
            "config": {
              "name": "block9_sepconv2_act",
              "trainable": true,
              "activation": "relu"
            },
            "inbound_nodes": [
              [
                [
                  "block9_sepconv1_bn",
                  0,
                  0,
                  {}
                ]
              ]
            ]
          },
          {
            "name": "block9_sepconv2",
            "class_name": "SeparableConv2D",
            "config": {
              "name": "block9_sepconv2",
              "trainable": true,
              "filters": 728,
              "kernel_size": [
                3,
                3
              ],
              "strides": [
                1,
                1
              ],
              "padding": "same",
              "data_format": "channels_last",
              "dilation_rate": [
                1,
                1
              ],
              "activation": "linear",
              "use_bias": false,
              "bias_initializer": {
                "class_name": "Zeros",
                "config": {}
              },
              "bias_regularizer": null,
              "activity_regularizer": null,
              "bias_constraint": null,
              "depth_multiplier": 1,
              "depthwise_initializer": {
                "class_name": "VarianceScaling",
                "config": {
                  "scale": 1.0,
                  "mode": "fan_avg",
                  "distribution": "uniform",
                  "seed": null
                }
              },
              "pointwise_initializer": {
                "class_name": "VarianceScaling",
                "config": {
                  "scale": 1.0,
                  "mode": "fan_avg",
                  "distribution": "uniform",
                  "seed": null
                }
              },
              "depthwise_regularizer": null,
              "pointwise_regularizer": null,
              "depthwise_constraint": null,
              "pointwise_constraint": null
            },
            "inbound_nodes": [
              [
                [
                  "block9_sepconv2_act",
                  0,
                  0,
                  {}
                ]
              ]
            ]
          },
          {
            "name": "block9_sepconv2_bn",
            "class_name": "BatchNormalization",
            "config": {
              "name": "block9_sepconv2_bn",
              "trainable": true,
              "axis": -1,
              "momentum": 0.99,
              "epsilon": 0.001,
              "center": true,
              "scale": true,
              "beta_initializer": {
                "class_name": "Zeros",
                "config": {}
              },
              "gamma_initializer": {
                "class_name": "Ones",
                "config": {}
              },
              "moving_mean_initializer": {
                "class_name": "Zeros",
                "config": {}
              },
              "moving_variance_initializer": {
                "class_name": "Ones",
                "config": {}
              },
              "beta_regularizer": null,
              "gamma_regularizer": null,
              "beta_constraint": null,
              "gamma_constraint": null
            },
            "inbound_nodes": [
              [
                [
                  "block9_sepconv2",
                  0,
                  0,
                  {}
                ]
              ]
            ]
          },
          {
            "name": "block9_sepconv3_act",
            "class_name": "Activation",
            "config": {
              "name": "block9_sepconv3_act",
              "trainable": true,
              "activation": "relu"
            },
            "inbound_nodes": [
              [
                [
                  "block9_sepconv2_bn",
                  0,
                  0,
                  {}
                ]
              ]
            ]
          },
          {
            "name": "block9_sepconv3",
            "class_name": "SeparableConv2D",
            "config": {
              "name": "block9_sepconv3",
              "trainable": true,
              "filters": 728,
              "kernel_size": [
                3,
                3
              ],
              "strides": [
                1,
                1
              ],
              "padding": "same",
              "data_format": "channels_last",
              "dilation_rate": [
                1,
                1
              ],
              "activation": "linear",
              "use_bias": false,
              "bias_initializer": {
                "class_name": "Zeros",
                "config": {}
              },
              "bias_regularizer": null,
              "activity_regularizer": null,
              "bias_constraint": null,
              "depth_multiplier": 1,
              "depthwise_initializer": {
                "class_name": "VarianceScaling",
                "config": {
                  "scale": 1.0,
                  "mode": "fan_avg",
                  "distribution": "uniform",
                  "seed": null
                }
              },
              "pointwise_initializer": {
                "class_name": "VarianceScaling",
                "config": {
                  "scale": 1.0,
                  "mode": "fan_avg",
                  "distribution": "uniform",
                  "seed": null
                }
              },
              "depthwise_regularizer": null,
              "pointwise_regularizer": null,
              "depthwise_constraint": null,
              "pointwise_constraint": null
            },
            "inbound_nodes": [
              [
                [
                  "block9_sepconv3_act",
                  0,
                  0,
                  {}
                ]
              ]
            ]
          },
          {
            "name": "block9_sepconv3_bn",
            "class_name": "BatchNormalization",
            "config": {
              "name": "block9_sepconv3_bn",
              "trainable": true,
              "axis": -1,
              "momentum": 0.99,
              "epsilon": 0.001,
              "center": true,
              "scale": true,
              "beta_initializer": {
                "class_name": "Zeros",
                "config": {}
              },
              "gamma_initializer": {
                "class_name": "Ones",
                "config": {}
              },
              "moving_mean_initializer": {
                "class_name": "Zeros",
                "config": {}
              },
              "moving_variance_initializer": {
                "class_name": "Ones",
                "config": {}
              },
              "beta_regularizer": null,
              "gamma_regularizer": null,
              "beta_constraint": null,
              "gamma_constraint": null
            },
            "inbound_nodes": [
              [
                [
                  "block9_sepconv3",
                  0,
                  0,
                  {}
                ]
              ]
            ]
          },
          {
            "name": "add_28",
            "class_name": "Add",
            "config": {
              "name": "add_28",
              "trainable": true
            },
            "inbound_nodes": [
              [
                [
                  "block9_sepconv3_bn",
                  0,
                  0,
                  {}
                ],
                [
                  "add_27",
                  0,
                  0,
                  {}
                ]
              ]
            ]
          },
          {
            "name": "block10_sepconv1_act",
            "class_name": "Activation",
            "config": {
              "name": "block10_sepconv1_act",
              "trainable": true,
              "activation": "relu"
            },
            "inbound_nodes": [
              [
                [
                  "add_28",
                  0,
                  0,
                  {}
                ]
              ]
            ]
          },
          {
            "name": "block10_sepconv1",
            "class_name": "SeparableConv2D",
            "config": {
              "name": "block10_sepconv1",
              "trainable": true,
              "filters": 728,
              "kernel_size": [
                3,
                3
              ],
              "strides": [
                1,
                1
              ],
              "padding": "same",
              "data_format": "channels_last",
              "dilation_rate": [
                1,
                1
              ],
              "activation": "linear",
              "use_bias": false,
              "bias_initializer": {
                "class_name": "Zeros",
                "config": {}
              },
              "bias_regularizer": null,
              "activity_regularizer": null,
              "bias_constraint": null,
              "depth_multiplier": 1,
              "depthwise_initializer": {
                "class_name": "VarianceScaling",
                "config": {
                  "scale": 1.0,
                  "mode": "fan_avg",
                  "distribution": "uniform",
                  "seed": null
                }
              },
              "pointwise_initializer": {
                "class_name": "VarianceScaling",
                "config": {
                  "scale": 1.0,
                  "mode": "fan_avg",
                  "distribution": "uniform",
                  "seed": null
                }
              },
              "depthwise_regularizer": null,
              "pointwise_regularizer": null,
              "depthwise_constraint": null,
              "pointwise_constraint": null
            },
            "inbound_nodes": [
              [
                [
                  "block10_sepconv1_act",
                  0,
                  0,
                  {}
                ]
              ]
            ]
          },
          {
            "name": "block10_sepconv1_bn",
            "class_name": "BatchNormalization",
            "config": {
              "name": "block10_sepconv1_bn",
              "trainable": true,
              "axis": -1,
              "momentum": 0.99,
              "epsilon": 0.001,
              "center": true,
              "scale": true,
              "beta_initializer": {
                "class_name": "Zeros",
                "config": {}
              },
              "gamma_initializer": {
                "class_name": "Ones",
                "config": {}
              },
              "moving_mean_initializer": {
                "class_name": "Zeros",
                "config": {}
              },
              "moving_variance_initializer": {
                "class_name": "Ones",
                "config": {}
              },
              "beta_regularizer": null,
              "gamma_regularizer": null,
              "beta_constraint": null,
              "gamma_constraint": null
            },
            "inbound_nodes": [
              [
                [
                  "block10_sepconv1",
                  0,
                  0,
                  {}
                ]
              ]
            ]
          },
          {
            "name": "block10_sepconv2_act",
            "class_name": "Activation",
            "config": {
              "name": "block10_sepconv2_act",
              "trainable": true,
              "activation": "relu"
            },
            "inbound_nodes": [
              [
                [
                  "block10_sepconv1_bn",
                  0,
                  0,
                  {}
                ]
              ]
            ]
          },
          {
            "name": "block10_sepconv2",
            "class_name": "SeparableConv2D",
            "config": {
              "name": "block10_sepconv2",
              "trainable": true,
              "filters": 728,
              "kernel_size": [
                3,
                3
              ],
              "strides": [
                1,
                1
              ],
              "padding": "same",
              "data_format": "channels_last",
              "dilation_rate": [
                1,
                1
              ],
              "activation": "linear",
              "use_bias": false,
              "bias_initializer": {
                "class_name": "Zeros",
                "config": {}
              },
              "bias_regularizer": null,
              "activity_regularizer": null,
              "bias_constraint": null,
              "depth_multiplier": 1,
              "depthwise_initializer": {
                "class_name": "VarianceScaling",
                "config": {
                  "scale": 1.0,
                  "mode": "fan_avg",
                  "distribution": "uniform",
                  "seed": null
                }
              },
              "pointwise_initializer": {
                "class_name": "VarianceScaling",
                "config": {
                  "scale": 1.0,
                  "mode": "fan_avg",
                  "distribution": "uniform",
                  "seed": null
                }
              },
              "depthwise_regularizer": null,
              "pointwise_regularizer": null,
              "depthwise_constraint": null,
              "pointwise_constraint": null
            },
            "inbound_nodes": [
              [
                [
                  "block10_sepconv2_act",
                  0,
                  0,
                  {}
                ]
              ]
            ]
          },
          {
            "name": "block10_sepconv2_bn",
            "class_name": "BatchNormalization",
            "config": {
              "name": "block10_sepconv2_bn",
              "trainable": true,
              "axis": -1,
              "momentum": 0.99,
              "epsilon": 0.001,
              "center": true,
              "scale": true,
              "beta_initializer": {
                "class_name": "Zeros",
                "config": {}
              },
              "gamma_initializer": {
                "class_name": "Ones",
                "config": {}
              },
              "moving_mean_initializer": {
                "class_name": "Zeros",
                "config": {}
              },
              "moving_variance_initializer": {
                "class_name": "Ones",
                "config": {}
              },
              "beta_regularizer": null,
              "gamma_regularizer": null,
              "beta_constraint": null,
              "gamma_constraint": null
            },
            "inbound_nodes": [
              [
                [
                  "block10_sepconv2",
                  0,
                  0,
                  {}
                ]
              ]
            ]
          },
          {
            "name": "block10_sepconv3_act",
            "class_name": "Activation",
            "config": {
              "name": "block10_sepconv3_act",
              "trainable": true,
              "activation": "relu"
            },
            "inbound_nodes": [
              [
                [
                  "block10_sepconv2_bn",
                  0,
                  0,
                  {}
                ]
              ]
            ]
          },
          {
            "name": "block10_sepconv3",
            "class_name": "SeparableConv2D",
            "config": {
              "name": "block10_sepconv3",
              "trainable": true,
              "filters": 728,
              "kernel_size": [
                3,
                3
              ],
              "strides": [
                1,
                1
              ],
              "padding": "same",
              "data_format": "channels_last",
              "dilation_rate": [
                1,
                1
              ],
              "activation": "linear",
              "use_bias": false,
              "bias_initializer": {
                "class_name": "Zeros",
                "config": {}
              },
              "bias_regularizer": null,
              "activity_regularizer": null,
              "bias_constraint": null,
              "depth_multiplier": 1,
              "depthwise_initializer": {
                "class_name": "VarianceScaling",
                "config": {
                  "scale": 1.0,
                  "mode": "fan_avg",
                  "distribution": "uniform",
                  "seed": null
                }
              },
              "pointwise_initializer": {
                "class_name": "VarianceScaling",
                "config": {
                  "scale": 1.0,
                  "mode": "fan_avg",
                  "distribution": "uniform",
                  "seed": null
                }
              },
              "depthwise_regularizer": null,
              "pointwise_regularizer": null,
              "depthwise_constraint": null,
              "pointwise_constraint": null
            },
            "inbound_nodes": [
              [
                [
                  "block10_sepconv3_act",
                  0,
                  0,
                  {}
                ]
              ]
            ]
          },
          {
            "name": "block10_sepconv3_bn",
            "class_name": "BatchNormalization",
            "config": {
              "name": "block10_sepconv3_bn",
              "trainable": true,
              "axis": -1,
              "momentum": 0.99,
              "epsilon": 0.001,
              "center": true,
              "scale": true,
              "beta_initializer": {
                "class_name": "Zeros",
                "config": {}
              },
              "gamma_initializer": {
                "class_name": "Ones",
                "config": {}
              },
              "moving_mean_initializer": {
                "class_name": "Zeros",
                "config": {}
              },
              "moving_variance_initializer": {
                "class_name": "Ones",
                "config": {}
              },
              "beta_regularizer": null,
              "gamma_regularizer": null,
              "beta_constraint": null,
              "gamma_constraint": null
            },
            "inbound_nodes": [
              [
                [
                  "block10_sepconv3",
                  0,
                  0,
                  {}
                ]
              ]
            ]
          },
          {
            "name": "add_29",
            "class_name": "Add",
            "config": {
              "name": "add_29",
              "trainable": true
            },
            "inbound_nodes": [
              [
                [
                  "block10_sepconv3_bn",
                  0,
                  0,
                  {}
                ],
                [
                  "add_28",
                  0,
                  0,
                  {}
                ]
              ]
            ]
          },
          {
            "name": "block11_sepconv1_act",
            "class_name": "Activation",
            "config": {
              "name": "block11_sepconv1_act",
              "trainable": true,
              "activation": "relu"
            },
            "inbound_nodes": [
              [
                [
                  "add_29",
                  0,
                  0,
                  {}
                ]
              ]
            ]
          },
          {
            "name": "block11_sepconv1",
            "class_name": "SeparableConv2D",
            "config": {
              "name": "block11_sepconv1",
              "trainable": true,
              "filters": 728,
              "kernel_size": [
                3,
                3
              ],
              "strides": [
                1,
                1
              ],
              "padding": "same",
              "data_format": "channels_last",
              "dilation_rate": [
                1,
                1
              ],
              "activation": "linear",
              "use_bias": false,
              "bias_initializer": {
                "class_name": "Zeros",
                "config": {}
              },
              "bias_regularizer": null,
              "activity_regularizer": null,
              "bias_constraint": null,
              "depth_multiplier": 1,
              "depthwise_initializer": {
                "class_name": "VarianceScaling",
                "config": {
                  "scale": 1.0,
                  "mode": "fan_avg",
                  "distribution": "uniform",
                  "seed": null
                }
              },
              "pointwise_initializer": {
                "class_name": "VarianceScaling",
                "config": {
                  "scale": 1.0,
                  "mode": "fan_avg",
                  "distribution": "uniform",
                  "seed": null
                }
              },
              "depthwise_regularizer": null,
              "pointwise_regularizer": null,
              "depthwise_constraint": null,
              "pointwise_constraint": null
            },
            "inbound_nodes": [
              [
                [
                  "block11_sepconv1_act",
                  0,
                  0,
                  {}
                ]
              ]
            ]
          },
          {
            "name": "block11_sepconv1_bn",
            "class_name": "BatchNormalization",
            "config": {
              "name": "block11_sepconv1_bn",
              "trainable": true,
              "axis": -1,
              "momentum": 0.99,
              "epsilon": 0.001,
              "center": true,
              "scale": true,
              "beta_initializer": {
                "class_name": "Zeros",
                "config": {}
              },
              "gamma_initializer": {
                "class_name": "Ones",
                "config": {}
              },
              "moving_mean_initializer": {
                "class_name": "Zeros",
                "config": {}
              },
              "moving_variance_initializer": {
                "class_name": "Ones",
                "config": {}
              },
              "beta_regularizer": null,
              "gamma_regularizer": null,
              "beta_constraint": null,
              "gamma_constraint": null
            },
            "inbound_nodes": [
              [
                [
                  "block11_sepconv1",
                  0,
                  0,
                  {}
                ]
              ]
            ]
          },
          {
            "name": "block11_sepconv2_act",
            "class_name": "Activation",
            "config": {
              "name": "block11_sepconv2_act",
              "trainable": true,
              "activation": "relu"
            },
            "inbound_nodes": [
              [
                [
                  "block11_sepconv1_bn",
                  0,
                  0,
                  {}
                ]
              ]
            ]
          },
          {
            "name": "block11_sepconv2",
            "class_name": "SeparableConv2D",
            "config": {
              "name": "block11_sepconv2",
              "trainable": true,
              "filters": 728,
              "kernel_size": [
                3,
                3
              ],
              "strides": [
                1,
                1
              ],
              "padding": "same",
              "data_format": "channels_last",
              "dilation_rate": [
                1,
                1
              ],
              "activation": "linear",
              "use_bias": false,
              "bias_initializer": {
                "class_name": "Zeros",
                "config": {}
              },
              "bias_regularizer": null,
              "activity_regularizer": null,
              "bias_constraint": null,
              "depth_multiplier": 1,
              "depthwise_initializer": {
                "class_name": "VarianceScaling",
                "config": {
                  "scale": 1.0,
                  "mode": "fan_avg",
                  "distribution": "uniform",
                  "seed": null
                }
              },
              "pointwise_initializer": {
                "class_name": "VarianceScaling",
                "config": {
                  "scale": 1.0,
                  "mode": "fan_avg",
                  "distribution": "uniform",
                  "seed": null
                }
              },
              "depthwise_regularizer": null,
              "pointwise_regularizer": null,
              "depthwise_constraint": null,
              "pointwise_constraint": null
            },
            "inbound_nodes": [
              [
                [
                  "block11_sepconv2_act",
                  0,
                  0,
                  {}
                ]
              ]
            ]
          },
          {
            "name": "block11_sepconv2_bn",
            "class_name": "BatchNormalization",
            "config": {
              "name": "block11_sepconv2_bn",
              "trainable": true,
              "axis": -1,
              "momentum": 0.99,
              "epsilon": 0.001,
              "center": true,
              "scale": true,
              "beta_initializer": {
                "class_name": "Zeros",
                "config": {}
              },
              "gamma_initializer": {
                "class_name": "Ones",
                "config": {}
              },
              "moving_mean_initializer": {
                "class_name": "Zeros",
                "config": {}
              },
              "moving_variance_initializer": {
                "class_name": "Ones",
                "config": {}
              },
              "beta_regularizer": null,
              "gamma_regularizer": null,
              "beta_constraint": null,
              "gamma_constraint": null
            },
            "inbound_nodes": [
              [
                [
                  "block11_sepconv2",
                  0,
                  0,
                  {}
                ]
              ]
            ]
          },
          {
            "name": "block11_sepconv3_act",
            "class_name": "Activation",
            "config": {
              "name": "block11_sepconv3_act",
              "trainable": true,
              "activation": "relu"
            },
            "inbound_nodes": [
              [
                [
                  "block11_sepconv2_bn",
                  0,
                  0,
                  {}
                ]
              ]
            ]
          },
          {
            "name": "block11_sepconv3",
            "class_name": "SeparableConv2D",
            "config": {
              "name": "block11_sepconv3",
              "trainable": true,
              "filters": 728,
              "kernel_size": [
                3,
                3
              ],
              "strides": [
                1,
                1
              ],
              "padding": "same",
              "data_format": "channels_last",
              "dilation_rate": [
                1,
                1
              ],
              "activation": "linear",
              "use_bias": false,
              "bias_initializer": {
                "class_name": "Zeros",
                "config": {}
              },
              "bias_regularizer": null,
              "activity_regularizer": null,
              "bias_constraint": null,
              "depth_multiplier": 1,
              "depthwise_initializer": {
                "class_name": "VarianceScaling",
                "config": {
                  "scale": 1.0,
                  "mode": "fan_avg",
                  "distribution": "uniform",
                  "seed": null
                }
              },
              "pointwise_initializer": {
                "class_name": "VarianceScaling",
                "config": {
                  "scale": 1.0,
                  "mode": "fan_avg",
                  "distribution": "uniform",
                  "seed": null
                }
              },
              "depthwise_regularizer": null,
              "pointwise_regularizer": null,
              "depthwise_constraint": null,
              "pointwise_constraint": null
            },
            "inbound_nodes": [
              [
                [
                  "block11_sepconv3_act",
                  0,
                  0,
                  {}
                ]
              ]
            ]
          },
          {
            "name": "block11_sepconv3_bn",
            "class_name": "BatchNormalization",
            "config": {
              "name": "block11_sepconv3_bn",
              "trainable": true,
              "axis": -1,
              "momentum": 0.99,
              "epsilon": 0.001,
              "center": true,
              "scale": true,
              "beta_initializer": {
                "class_name": "Zeros",
                "config": {}
              },
              "gamma_initializer": {
                "class_name": "Ones",
                "config": {}
              },
              "moving_mean_initializer": {
                "class_name": "Zeros",
                "config": {}
              },
              "moving_variance_initializer": {
                "class_name": "Ones",
                "config": {}
              },
              "beta_regularizer": null,
              "gamma_regularizer": null,
              "beta_constraint": null,
              "gamma_constraint": null
            },
            "inbound_nodes": [
              [
                [
                  "block11_sepconv3",
                  0,
                  0,
                  {}
                ]
              ]
            ]
          },
          {
            "name": "add_30",
            "class_name": "Add",
            "config": {
              "name": "add_30",
              "trainable": true
            },
            "inbound_nodes": [
              [
                [
                  "block11_sepconv3_bn",
                  0,
                  0,
                  {}
                ],
                [
                  "add_29",
                  0,
                  0,
                  {}
                ]
              ]
            ]
          },
          {
            "name": "block12_sepconv1_act",
            "class_name": "Activation",
            "config": {
              "name": "block12_sepconv1_act",
              "trainable": true,
              "activation": "relu"
            },
            "inbound_nodes": [
              [
                [
                  "add_30",
                  0,
                  0,
                  {}
                ]
              ]
            ]
          },
          {
            "name": "block12_sepconv1",
            "class_name": "SeparableConv2D",
            "config": {
              "name": "block12_sepconv1",
              "trainable": true,
              "filters": 728,
              "kernel_size": [
                3,
                3
              ],
              "strides": [
                1,
                1
              ],
              "padding": "same",
              "data_format": "channels_last",
              "dilation_rate": [
                1,
                1
              ],
              "activation": "linear",
              "use_bias": false,
              "bias_initializer": {
                "class_name": "Zeros",
                "config": {}
              },
              "bias_regularizer": null,
              "activity_regularizer": null,
              "bias_constraint": null,
              "depth_multiplier": 1,
              "depthwise_initializer": {
                "class_name": "VarianceScaling",
                "config": {
                  "scale": 1.0,
                  "mode": "fan_avg",
                  "distribution": "uniform",
                  "seed": null
                }
              },
              "pointwise_initializer": {
                "class_name": "VarianceScaling",
                "config": {
                  "scale": 1.0,
                  "mode": "fan_avg",
                  "distribution": "uniform",
                  "seed": null
                }
              },
              "depthwise_regularizer": null,
              "pointwise_regularizer": null,
              "depthwise_constraint": null,
              "pointwise_constraint": null
            },
            "inbound_nodes": [
              [
                [
                  "block12_sepconv1_act",
                  0,
                  0,
                  {}
                ]
              ]
            ]
          },
          {
            "name": "block12_sepconv1_bn",
            "class_name": "BatchNormalization",
            "config": {
              "name": "block12_sepconv1_bn",
              "trainable": true,
              "axis": -1,
              "momentum": 0.99,
              "epsilon": 0.001,
              "center": true,
              "scale": true,
              "beta_initializer": {
                "class_name": "Zeros",
                "config": {}
              },
              "gamma_initializer": {
                "class_name": "Ones",
                "config": {}
              },
              "moving_mean_initializer": {
                "class_name": "Zeros",
                "config": {}
              },
              "moving_variance_initializer": {
                "class_name": "Ones",
                "config": {}
              },
              "beta_regularizer": null,
              "gamma_regularizer": null,
              "beta_constraint": null,
              "gamma_constraint": null
            },
            "inbound_nodes": [
              [
                [
                  "block12_sepconv1",
                  0,
                  0,
                  {}
                ]
              ]
            ]
          },
          {
            "name": "block12_sepconv2_act",
            "class_name": "Activation",
            "config": {
              "name": "block12_sepconv2_act",
              "trainable": true,
              "activation": "relu"
            },
            "inbound_nodes": [
              [
                [
                  "block12_sepconv1_bn",
                  0,
                  0,
                  {}
                ]
              ]
            ]
          },
          {
            "name": "block12_sepconv2",
            "class_name": "SeparableConv2D",
            "config": {
              "name": "block12_sepconv2",
              "trainable": true,
              "filters": 728,
              "kernel_size": [
                3,
                3
              ],
              "strides": [
                1,
                1
              ],
              "padding": "same",
              "data_format": "channels_last",
              "dilation_rate": [
                1,
                1
              ],
              "activation": "linear",
              "use_bias": false,
              "bias_initializer": {
                "class_name": "Zeros",
                "config": {}
              },
              "bias_regularizer": null,
              "activity_regularizer": null,
              "bias_constraint": null,
              "depth_multiplier": 1,
              "depthwise_initializer": {
                "class_name": "VarianceScaling",
                "config": {
                  "scale": 1.0,
                  "mode": "fan_avg",
                  "distribution": "uniform",
                  "seed": null
                }
              },
              "pointwise_initializer": {
                "class_name": "VarianceScaling",
                "config": {
                  "scale": 1.0,
                  "mode": "fan_avg",
                  "distribution": "uniform",
                  "seed": null
                }
              },
              "depthwise_regularizer": null,
              "pointwise_regularizer": null,
              "depthwise_constraint": null,
              "pointwise_constraint": null
            },
            "inbound_nodes": [
              [
                [
                  "block12_sepconv2_act",
                  0,
                  0,
                  {}
                ]
              ]
            ]
          },
          {
            "name": "block12_sepconv2_bn",
            "class_name": "BatchNormalization",
            "config": {
              "name": "block12_sepconv2_bn",
              "trainable": true,
              "axis": -1,
              "momentum": 0.99,
              "epsilon": 0.001,
              "center": true,
              "scale": true,
              "beta_initializer": {
                "class_name": "Zeros",
                "config": {}
              },
              "gamma_initializer": {
                "class_name": "Ones",
                "config": {}
              },
              "moving_mean_initializer": {
                "class_name": "Zeros",
                "config": {}
              },
              "moving_variance_initializer": {
                "class_name": "Ones",
                "config": {}
              },
              "beta_regularizer": null,
              "gamma_regularizer": null,
              "beta_constraint": null,
              "gamma_constraint": null
            },
            "inbound_nodes": [
              [
                [
                  "block12_sepconv2",
                  0,
                  0,
                  {}
                ]
              ]
            ]
          },
          {
            "name": "block12_sepconv3_act",
            "class_name": "Activation",
            "config": {
              "name": "block12_sepconv3_act",
              "trainable": true,
              "activation": "relu"
            },
            "inbound_nodes": [
              [
                [
                  "block12_sepconv2_bn",
                  0,
                  0,
                  {}
                ]
              ]
            ]
          },
          {
            "name": "block12_sepconv3",
            "class_name": "SeparableConv2D",
            "config": {
              "name": "block12_sepconv3",
              "trainable": true,
              "filters": 728,
              "kernel_size": [
                3,
                3
              ],
              "strides": [
                1,
                1
              ],
              "padding": "same",
              "data_format": "channels_last",
              "dilation_rate": [
                1,
                1
              ],
              "activation": "linear",
              "use_bias": false,
              "bias_initializer": {
                "class_name": "Zeros",
                "config": {}
              },
              "bias_regularizer": null,
              "activity_regularizer": null,
              "bias_constraint": null,
              "depth_multiplier": 1,
              "depthwise_initializer": {
                "class_name": "VarianceScaling",
                "config": {
                  "scale": 1.0,
                  "mode": "fan_avg",
                  "distribution": "uniform",
                  "seed": null
                }
              },
              "pointwise_initializer": {
                "class_name": "VarianceScaling",
                "config": {
                  "scale": 1.0,
                  "mode": "fan_avg",
                  "distribution": "uniform",
                  "seed": null
                }
              },
              "depthwise_regularizer": null,
              "pointwise_regularizer": null,
              "depthwise_constraint": null,
              "pointwise_constraint": null
            },
            "inbound_nodes": [
              [
                [
                  "block12_sepconv3_act",
                  0,
                  0,
                  {}
                ]
              ]
            ]
          },
          {
            "name": "block12_sepconv3_bn",
            "class_name": "BatchNormalization",
            "config": {
              "name": "block12_sepconv3_bn",
              "trainable": true,
              "axis": -1,
              "momentum": 0.99,
              "epsilon": 0.001,
              "center": true,
              "scale": true,
              "beta_initializer": {
                "class_name": "Zeros",
                "config": {}
              },
              "gamma_initializer": {
                "class_name": "Ones",
                "config": {}
              },
              "moving_mean_initializer": {
                "class_name": "Zeros",
                "config": {}
              },
              "moving_variance_initializer": {
                "class_name": "Ones",
                "config": {}
              },
              "beta_regularizer": null,
              "gamma_regularizer": null,
              "beta_constraint": null,
              "gamma_constraint": null
            },
            "inbound_nodes": [
              [
                [
                  "block12_sepconv3",
                  0,
                  0,
                  {}
                ]
              ]
            ]
          },
          {
            "name": "add_31",
            "class_name": "Add",
            "config": {
              "name": "add_31",
              "trainable": true
            },
            "inbound_nodes": [
              [
                [
                  "block12_sepconv3_bn",
                  0,
                  0,
                  {}
                ],
                [
                  "add_30",
                  0,
                  0,
                  {}
                ]
              ]
            ]
          },
          {
            "name": "block13_sepconv1_act",
            "class_name": "Activation",
            "config": {
              "name": "block13_sepconv1_act",
              "trainable": true,
              "activation": "relu"
            },
            "inbound_nodes": [
              [
                [
                  "add_31",
                  0,
                  0,
                  {}
                ]
              ]
            ]
          },
          {
            "name": "block13_sepconv1",
            "class_name": "SeparableConv2D",
            "config": {
              "name": "block13_sepconv1",
              "trainable": true,
              "filters": 728,
              "kernel_size": [
                3,
                3
              ],
              "strides": [
                1,
                1
              ],
              "padding": "same",
              "data_format": "channels_last",
              "dilation_rate": [
                1,
                1
              ],
              "activation": "linear",
              "use_bias": false,
              "bias_initializer": {
                "class_name": "Zeros",
                "config": {}
              },
              "bias_regularizer": null,
              "activity_regularizer": null,
              "bias_constraint": null,
              "depth_multiplier": 1,
              "depthwise_initializer": {
                "class_name": "VarianceScaling",
                "config": {
                  "scale": 1.0,
                  "mode": "fan_avg",
                  "distribution": "uniform",
                  "seed": null
                }
              },
              "pointwise_initializer": {
                "class_name": "VarianceScaling",
                "config": {
                  "scale": 1.0,
                  "mode": "fan_avg",
                  "distribution": "uniform",
                  "seed": null
                }
              },
              "depthwise_regularizer": null,
              "pointwise_regularizer": null,
              "depthwise_constraint": null,
              "pointwise_constraint": null
            },
            "inbound_nodes": [
              [
                [
                  "block13_sepconv1_act",
                  0,
                  0,
                  {}
                ]
              ]
            ]
          },
          {
            "name": "block13_sepconv1_bn",
            "class_name": "BatchNormalization",
            "config": {
              "name": "block13_sepconv1_bn",
              "trainable": true,
              "axis": -1,
              "momentum": 0.99,
              "epsilon": 0.001,
              "center": true,
              "scale": true,
              "beta_initializer": {
                "class_name": "Zeros",
                "config": {}
              },
              "gamma_initializer": {
                "class_name": "Ones",
                "config": {}
              },
              "moving_mean_initializer": {
                "class_name": "Zeros",
                "config": {}
              },
              "moving_variance_initializer": {
                "class_name": "Ones",
                "config": {}
              },
              "beta_regularizer": null,
              "gamma_regularizer": null,
              "beta_constraint": null,
              "gamma_constraint": null
            },
            "inbound_nodes": [
              [
                [
                  "block13_sepconv1",
                  0,
                  0,
                  {}
                ]
              ]
            ]
          },
          {
            "name": "block13_sepconv2_act",
            "class_name": "Activation",
            "config": {
              "name": "block13_sepconv2_act",
              "trainable": true,
              "activation": "relu"
            },
            "inbound_nodes": [
              [
                [
                  "block13_sepconv1_bn",
                  0,
                  0,
                  {}
                ]
              ]
            ]
          },
          {
            "name": "block13_sepconv2",
            "class_name": "SeparableConv2D",
            "config": {
              "name": "block13_sepconv2",
              "trainable": true,
              "filters": 1024,
              "kernel_size": [
                3,
                3
              ],
              "strides": [
                1,
                1
              ],
              "padding": "same",
              "data_format": "channels_last",
              "dilation_rate": [
                1,
                1
              ],
              "activation": "linear",
              "use_bias": false,
              "bias_initializer": {
                "class_name": "Zeros",
                "config": {}
              },
              "bias_regularizer": null,
              "activity_regularizer": null,
              "bias_constraint": null,
              "depth_multiplier": 1,
              "depthwise_initializer": {
                "class_name": "VarianceScaling",
                "config": {
                  "scale": 1.0,
                  "mode": "fan_avg",
                  "distribution": "uniform",
                  "seed": null
                }
              },
              "pointwise_initializer": {
                "class_name": "VarianceScaling",
                "config": {
                  "scale": 1.0,
                  "mode": "fan_avg",
                  "distribution": "uniform",
                  "seed": null
                }
              },
              "depthwise_regularizer": null,
              "pointwise_regularizer": null,
              "depthwise_constraint": null,
              "pointwise_constraint": null
            },
            "inbound_nodes": [
              [
                [
                  "block13_sepconv2_act",
                  0,
                  0,
                  {}
                ]
              ]
            ]
          },
          {
            "name": "block13_sepconv2_bn",
            "class_name": "BatchNormalization",
            "config": {
              "name": "block13_sepconv2_bn",
              "trainable": true,
              "axis": -1,
              "momentum": 0.99,
              "epsilon": 0.001,
              "center": true,
              "scale": true,
              "beta_initializer": {
                "class_name": "Zeros",
                "config": {}
              },
              "gamma_initializer": {
                "class_name": "Ones",
                "config": {}
              },
              "moving_mean_initializer": {
                "class_name": "Zeros",
                "config": {}
              },
              "moving_variance_initializer": {
                "class_name": "Ones",
                "config": {}
              },
              "beta_regularizer": null,
              "gamma_regularizer": null,
              "beta_constraint": null,
              "gamma_constraint": null
            },
            "inbound_nodes": [
              [
                [
                  "block13_sepconv2",
                  0,
                  0,
                  {}
                ]
              ]
            ]
          },
          {
            "name": "conv2d_98",
            "class_name": "Conv2D",
            "config": {
              "name": "conv2d_98",
              "trainable": true,
              "filters": 1024,
              "kernel_size": [
                1,
                1
              ],
              "strides": [
                2,
                2
              ],
              "padding": "same",
              "data_format": "channels_last",
              "dilation_rate": [
                1,
                1
              ],
              "activation": "linear",
              "use_bias": false,
              "kernel_initializer": {
                "class_name": "VarianceScaling",
                "config": {
                  "scale": 1.0,
                  "mode": "fan_avg",
                  "distribution": "uniform",
                  "seed": null
                }
              },
              "bias_initializer": {
                "class_name": "Zeros",
                "config": {}
              },
              "kernel_regularizer": null,
              "bias_regularizer": null,
              "activity_regularizer": null,
              "kernel_constraint": null,
              "bias_constraint": null
            },
            "inbound_nodes": [
              [
                [
                  "add_31",
                  0,
                  0,
                  {}
                ]
              ]
            ]
          },
          {
            "name": "block13_pool",
            "class_name": "MaxPooling2D",
            "config": {
              "name": "block13_pool",
              "trainable": true,
              "pool_size": [
                3,
                3
              ],
              "padding": "same",
              "strides": [
                2,
                2
              ],
              "data_format": "channels_last"
            },
            "inbound_nodes": [
              [
                [
                  "block13_sepconv2_bn",
                  0,
                  0,
                  {}
                ]
              ]
            ]
          },
          {
            "name": "batch_normalization_98",
            "class_name": "BatchNormalization",
            "config": {
              "name": "batch_normalization_98",
              "trainable": true,
              "axis": -1,
              "momentum": 0.99,
              "epsilon": 0.001,
              "center": true,
              "scale": true,
              "beta_initializer": {
                "class_name": "Zeros",
                "config": {}
              },
              "gamma_initializer": {
                "class_name": "Ones",
                "config": {}
              },
              "moving_mean_initializer": {
                "class_name": "Zeros",
                "config": {}
              },
              "moving_variance_initializer": {
                "class_name": "Ones",
                "config": {}
              },
              "beta_regularizer": null,
              "gamma_regularizer": null,
              "beta_constraint": null,
              "gamma_constraint": null
            },
            "inbound_nodes": [
              [
                [
                  "conv2d_98",
                  0,
                  0,
                  {}
                ]
              ]
            ]
          },
          {
            "name": "add_32",
            "class_name": "Add",
            "config": {
              "name": "add_32",
              "trainable": true
            },
            "inbound_nodes": [
              [
                [
                  "block13_pool",
                  0,
                  0,
                  {}
                ],
                [
                  "batch_normalization_98",
                  0,
                  0,
                  {}
                ]
              ]
            ]
          },
          {
            "name": "block14_sepconv1",
            "class_name": "SeparableConv2D",
            "config": {
              "name": "block14_sepconv1",
              "trainable": true,
              "filters": 1536,
              "kernel_size": [
                3,
                3
              ],
              "strides": [
                1,
                1
              ],
              "padding": "same",
              "data_format": "channels_last",
              "dilation_rate": [
                1,
                1
              ],
              "activation": "linear",
              "use_bias": false,
              "bias_initializer": {
                "class_name": "Zeros",
                "config": {}
              },
              "bias_regularizer": null,
              "activity_regularizer": null,
              "bias_constraint": null,
              "depth_multiplier": 1,
              "depthwise_initializer": {
                "class_name": "VarianceScaling",
                "config": {
                  "scale": 1.0,
                  "mode": "fan_avg",
                  "distribution": "uniform",
                  "seed": null
                }
              },
              "pointwise_initializer": {
                "class_name": "VarianceScaling",
                "config": {
                  "scale": 1.0,
                  "mode": "fan_avg",
                  "distribution": "uniform",
                  "seed": null
                }
              },
              "depthwise_regularizer": null,
              "pointwise_regularizer": null,
              "depthwise_constraint": null,
              "pointwise_constraint": null
            },
            "inbound_nodes": [
              [
                [
                  "add_32",
                  0,
                  0,
                  {}
                ]
              ]
            ]
          },
          {
            "name": "block14_sepconv1_bn",
            "class_name": "BatchNormalization",
            "config": {
              "name": "block14_sepconv1_bn",
              "trainable": true,
              "axis": -1,
              "momentum": 0.99,
              "epsilon": 0.001,
              "center": true,
              "scale": true,
              "beta_initializer": {
                "class_name": "Zeros",
                "config": {}
              },
              "gamma_initializer": {
                "class_name": "Ones",
                "config": {}
              },
              "moving_mean_initializer": {
                "class_name": "Zeros",
                "config": {}
              },
              "moving_variance_initializer": {
                "class_name": "Ones",
                "config": {}
              },
              "beta_regularizer": null,
              "gamma_regularizer": null,
              "beta_constraint": null,
              "gamma_constraint": null
            },
            "inbound_nodes": [
              [
                [
                  "block14_sepconv1",
                  0,
                  0,
                  {}
                ]
              ]
            ]
          },
          {
            "name": "block14_sepconv1_act",
            "class_name": "Activation",
            "config": {
              "name": "block14_sepconv1_act",
              "trainable": true,
              "activation": "relu"
            },
            "inbound_nodes": [
              [
                [
                  "block14_sepconv1_bn",
                  0,
                  0,
                  {}
                ]
              ]
            ]
          },
          {
            "name": "block14_sepconv2",
            "class_name": "SeparableConv2D",
            "config": {
              "name": "block14_sepconv2",
              "trainable": true,
              "filters": 2048,
              "kernel_size": [
                3,
                3
              ],
              "strides": [
                1,
                1
              ],
              "padding": "same",
              "data_format": "channels_last",
              "dilation_rate": [
                1,
                1
              ],
              "activation": "linear",
              "use_bias": false,
              "bias_initializer": {
                "class_name": "Zeros",
                "config": {}
              },
              "bias_regularizer": null,
              "activity_regularizer": null,
              "bias_constraint": null,
              "depth_multiplier": 1,
              "depthwise_initializer": {
                "class_name": "VarianceScaling",
                "config": {
                  "scale": 1.0,
                  "mode": "fan_avg",
                  "distribution": "uniform",
                  "seed": null
                }
              },
              "pointwise_initializer": {
                "class_name": "VarianceScaling",
                "config": {
                  "scale": 1.0,
                  "mode": "fan_avg",
                  "distribution": "uniform",
                  "seed": null
                }
              },
              "depthwise_regularizer": null,
              "pointwise_regularizer": null,
              "depthwise_constraint": null,
              "pointwise_constraint": null
            },
            "inbound_nodes": [
              [
                [
                  "block14_sepconv1_act",
                  0,
                  0,
                  {}
                ]
              ]
            ]
          },
          {
            "name": "block14_sepconv2_bn",
            "class_name": "BatchNormalization",
            "config": {
              "name": "block14_sepconv2_bn",
              "trainable": true,
              "axis": -1,
              "momentum": 0.99,
              "epsilon": 0.001,
              "center": true,
              "scale": true,
              "beta_initializer": {
                "class_name": "Zeros",
                "config": {}
              },
              "gamma_initializer": {
                "class_name": "Ones",
                "config": {}
              },
              "moving_mean_initializer": {
                "class_name": "Zeros",
                "config": {}
              },
              "moving_variance_initializer": {
                "class_name": "Ones",
                "config": {}
              },
              "beta_regularizer": null,
              "gamma_regularizer": null,
              "beta_constraint": null,
              "gamma_constraint": null
            },
            "inbound_nodes": [
              [
                [
                  "block14_sepconv2",
                  0,
                  0,
                  {}
                ]
              ]
            ]
          },
          {
            "name": "block14_sepconv2_act",
            "class_name": "Activation",
            "config": {
              "name": "block14_sepconv2_act",
              "trainable": true,
              "activation": "relu"
            },
            "inbound_nodes": [
              [
                [
                  "block14_sepconv2_bn",
                  0,
                  0,
                  {}
                ]
              ]
            ]
          },
          {
            "name": "avg_pool",
            "class_name": "GlobalAveragePooling2D",
            "config": {
              "name": "avg_pool",
              "trainable": true,
              "data_format": "channels_last"
            },
            "inbound_nodes": [
              [
                [
                  "block14_sepconv2_act",
                  0,
                  0,
                  {}
                ]
              ]
            ]
          },
          {
            "name": "predictions",
            "class_name": "Dense",
            "config": {
              "name": "predictions",
              "trainable": true,
              "units": 1000,
              "use_bias": true,
              "kernel_initializer": {
                "class_name": "VarianceScaling",
                "config": {
                  "scale": 1.0,
                  "mode": "fan_avg",
                  "distribution": "uniform",
                  "seed": null
                }
              },
              "bias_initializer": {
                "class_name": "Zeros",
                "config": {}
              },
              "kernel_regularizer": null,
              "bias_regularizer": null,
              "activity_regularizer": null,
              "kernel_constraint": null,
              "bias_constraint": null
            },
            "inbound_nodes": [
              [
                [
                  "avg_pool",
                  0,
                  0,
                  {}
                ]
              ]
            ]
          }
        ],
        "input_layers": [
          [
            "input_6",
            0,
            0
          ]
        ],
        "output_layers": [
          [
            "predictions",
            0,
            0
          ]
        ]
      }
    }
  },
  "weightsManifest": [
    {
      "paths": [
        "group1-shard1of22.bin",
        "group1-shard2of22.bin",
        "group1-shard3of22.bin",
        "group1-shard4of22.bin",
        "group1-shard5of22.bin",
        "group1-shard6of22.bin",
        "group1-shard7of22.bin",
        "group1-shard8of22.bin",
        "group1-shard9of22.bin",
        "group1-shard10of22.bin",
        "group1-shard11of22.bin",
        "group1-shard12of22.bin",
        "group1-shard13of22.bin",
        "group1-shard14of22.bin",
        "group1-shard15of22.bin",
        "group1-shard16of22.bin",
        "group1-shard17of22.bin",
        "group1-shard18of22.bin",
        "group1-shard19of22.bin",
        "group1-shard20of22.bin",
        "group1-shard21of22.bin",
        "group1-shard22of22.bin"
      ],
      "weights": [
        {
          "name": "batch_normalization_95/gamma",
          "shape": [
            128
          ],
          "dtype": "float32"
        },
        {
          "name": "batch_normalization_95/beta",
          "shape": [
            128
          ],
          "dtype": "float32"
        },
        {
          "name": "batch_normalization_95/moving_mean",
          "shape": [
            128
          ],
          "dtype": "float32"
        },
        {
          "name": "batch_normalization_95/moving_variance",
          "shape": [
            128
          ],
          "dtype": "float32"
        },
        {
          "name": "batch_normalization_96/gamma",
          "shape": [
            256
          ],
          "dtype": "float32"
        },
        {
          "name": "batch_normalization_96/beta",
          "shape": [
            256
          ],
          "dtype": "float32"
        },
        {
          "name": "batch_normalization_96/moving_mean",
          "shape": [
            256
          ],
          "dtype": "float32"
        },
        {
          "name": "batch_normalization_96/moving_variance",
          "shape": [
            256
          ],
          "dtype": "float32"
        },
        {
          "name": "batch_normalization_97/gamma",
          "shape": [
            728
          ],
          "dtype": "float32"
        },
        {
          "name": "batch_normalization_97/beta",
          "shape": [
            728
          ],
          "dtype": "float32"
        },
        {
          "name": "batch_normalization_97/moving_mean",
          "shape": [
            728
          ],
          "dtype": "float32"
        },
        {
          "name": "batch_normalization_97/moving_variance",
          "shape": [
            728
          ],
          "dtype": "float32"
        },
        {
          "name": "batch_normalization_98/gamma",
          "shape": [
            1024
          ],
          "dtype": "float32"
        },
        {
          "name": "batch_normalization_98/beta",
          "shape": [
            1024
          ],
          "dtype": "float32"
        },
        {
          "name": "batch_normalization_98/moving_mean",
          "shape": [
            1024
          ],
          "dtype": "float32"
        },
        {
          "name": "batch_normalization_98/moving_variance",
          "shape": [
            1024
          ],
          "dtype": "float32"
        },
        {
          "name": "block10_sepconv1/depthwise_kernel",
          "shape": [
            3,
            3,
            728,
            1
          ],
          "dtype": "float32"
        },
        {
          "name": "block10_sepconv1/pointwise_kernel",
          "shape": [
            1,
            1,
            728,
            728
          ],
          "dtype": "float32"
        },
        {
          "name": "block10_sepconv1_bn/gamma",
          "shape": [
            728
          ],
          "dtype": "float32"
        },
        {
          "name": "block10_sepconv1_bn/beta",
          "shape": [
            728
          ],
          "dtype": "float32"
        },
        {
          "name": "block10_sepconv1_bn/moving_mean",
          "shape": [
            728
          ],
          "dtype": "float32"
        },
        {
          "name": "block10_sepconv1_bn/moving_variance",
          "shape": [
            728
          ],
          "dtype": "float32"
        },
        {
          "name": "block10_sepconv2/depthwise_kernel",
          "shape": [
            3,
            3,
            728,
            1
          ],
          "dtype": "float32"
        },
        {
          "name": "block10_sepconv2/pointwise_kernel",
          "shape": [
            1,
            1,
            728,
            728
          ],
          "dtype": "float32"
        },
        {
          "name": "block10_sepconv2_bn/gamma",
          "shape": [
            728
          ],
          "dtype": "float32"
        },
        {
          "name": "block10_sepconv2_bn/beta",
          "shape": [
            728
          ],
          "dtype": "float32"
        },
        {
          "name": "block10_sepconv2_bn/moving_mean",
          "shape": [
            728
          ],
          "dtype": "float32"
        },
        {
          "name": "block10_sepconv2_bn/moving_variance",
          "shape": [
            728
          ],
          "dtype": "float32"
        },
        {
          "name": "block10_sepconv3/depthwise_kernel",
          "shape": [
            3,
            3,
            728,
            1
          ],
          "dtype": "float32"
        },
        {
          "name": "block10_sepconv3/pointwise_kernel",
          "shape": [
            1,
            1,
            728,
            728
          ],
          "dtype": "float32"
        },
        {
          "name": "block10_sepconv3_bn/gamma",
          "shape": [
            728
          ],
          "dtype": "float32"
        },
        {
          "name": "block10_sepconv3_bn/beta",
          "shape": [
            728
          ],
          "dtype": "float32"
        },
        {
          "name": "block10_sepconv3_bn/moving_mean",
          "shape": [
            728
          ],
          "dtype": "float32"
        },
        {
          "name": "block10_sepconv3_bn/moving_variance",
          "shape": [
            728
          ],
          "dtype": "float32"
        },
        {
          "name": "block11_sepconv1/depthwise_kernel",
          "shape": [
            3,
            3,
            728,
            1
          ],
          "dtype": "float32"
        },
        {
          "name": "block11_sepconv1/pointwise_kernel",
          "shape": [
            1,
            1,
            728,
            728
          ],
          "dtype": "float32"
        },
        {
          "name": "block11_sepconv1_bn/gamma",
          "shape": [
            728
          ],
          "dtype": "float32"
        },
        {
          "name": "block11_sepconv1_bn/beta",
          "shape": [
            728
          ],
          "dtype": "float32"
        },
        {
          "name": "block11_sepconv1_bn/moving_mean",
          "shape": [
            728
          ],
          "dtype": "float32"
        },
        {
          "name": "block11_sepconv1_bn/moving_variance",
          "shape": [
            728
          ],
          "dtype": "float32"
        },
        {
          "name": "block11_sepconv2/depthwise_kernel",
          "shape": [
            3,
            3,
            728,
            1
          ],
          "dtype": "float32"
        },
        {
          "name": "block11_sepconv2/pointwise_kernel",
          "shape": [
            1,
            1,
            728,
            728
          ],
          "dtype": "float32"
        },
        {
          "name": "block11_sepconv2_bn/gamma",
          "shape": [
            728
          ],
          "dtype": "float32"
        },
        {
          "name": "block11_sepconv2_bn/beta",
          "shape": [
            728
          ],
          "dtype": "float32"
        },
        {
          "name": "block11_sepconv2_bn/moving_mean",
          "shape": [
            728
          ],
          "dtype": "float32"
        },
        {
          "name": "block11_sepconv2_bn/moving_variance",
          "shape": [
            728
          ],
          "dtype": "float32"
        },
        {
          "name": "block11_sepconv3/depthwise_kernel",
          "shape": [
            3,
            3,
            728,
            1
          ],
          "dtype": "float32"
        },
        {
          "name": "block11_sepconv3/pointwise_kernel",
          "shape": [
            1,
            1,
            728,
            728
          ],
          "dtype": "float32"
        },
        {
          "name": "block11_sepconv3_bn/gamma",
          "shape": [
            728
          ],
          "dtype": "float32"
        },
        {
          "name": "block11_sepconv3_bn/beta",
          "shape": [
            728
          ],
          "dtype": "float32"
        },
        {
          "name": "block11_sepconv3_bn/moving_mean",
          "shape": [
            728
          ],
          "dtype": "float32"
        },
        {
          "name": "block11_sepconv3_bn/moving_variance",
          "shape": [
            728
          ],
          "dtype": "float32"
        },
        {
          "name": "block12_sepconv1/depthwise_kernel",
          "shape": [
            3,
            3,
            728,
            1
          ],
          "dtype": "float32"
        },
        {
          "name": "block12_sepconv1/pointwise_kernel",
          "shape": [
            1,
            1,
            728,
            728
          ],
          "dtype": "float32"
        },
        {
          "name": "block12_sepconv1_bn/gamma",
          "shape": [
            728
          ],
          "dtype": "float32"
        },
        {
          "name": "block12_sepconv1_bn/beta",
          "shape": [
            728
          ],
          "dtype": "float32"
        },
        {
          "name": "block12_sepconv1_bn/moving_mean",
          "shape": [
            728
          ],
          "dtype": "float32"
        },
        {
          "name": "block12_sepconv1_bn/moving_variance",
          "shape": [
            728
          ],
          "dtype": "float32"
        },
        {
          "name": "block12_sepconv2/depthwise_kernel",
          "shape": [
            3,
            3,
            728,
            1
          ],
          "dtype": "float32"
        },
        {
          "name": "block12_sepconv2/pointwise_kernel",
          "shape": [
            1,
            1,
            728,
            728
          ],
          "dtype": "float32"
        },
        {
          "name": "block12_sepconv2_bn/gamma",
          "shape": [
            728
          ],
          "dtype": "float32"
        },
        {
          "name": "block12_sepconv2_bn/beta",
          "shape": [
            728
          ],
          "dtype": "float32"
        },
        {
          "name": "block12_sepconv2_bn/moving_mean",
          "shape": [
            728
          ],
          "dtype": "float32"
        },
        {
          "name": "block12_sepconv2_bn/moving_variance",
          "shape": [
            728
          ],
          "dtype": "float32"
        },
        {
          "name": "block12_sepconv3/depthwise_kernel",
          "shape": [
            3,
            3,
            728,
            1
          ],
          "dtype": "float32"
        },
        {
          "name": "block12_sepconv3/pointwise_kernel",
          "shape": [
            1,
            1,
            728,
            728
          ],
          "dtype": "float32"
        },
        {
          "name": "block12_sepconv3_bn/gamma",
          "shape": [
            728
          ],
          "dtype": "float32"
        },
        {
          "name": "block12_sepconv3_bn/beta",
          "shape": [
            728
          ],
          "dtype": "float32"
        },
        {
          "name": "block12_sepconv3_bn/moving_mean",
          "shape": [
            728
          ],
          "dtype": "float32"
        },
        {
          "name": "block12_sepconv3_bn/moving_variance",
          "shape": [
            728
          ],
          "dtype": "float32"
        },
        {
          "name": "block13_sepconv1/depthwise_kernel",
          "shape": [
            3,
            3,
            728,
            1
          ],
          "dtype": "float32"
        },
        {
          "name": "block13_sepconv1/pointwise_kernel",
          "shape": [
            1,
            1,
            728,
            728
          ],
          "dtype": "float32"
        },
        {
          "name": "block13_sepconv1_bn/gamma",
          "shape": [
            728
          ],
          "dtype": "float32"
        },
        {
          "name": "block13_sepconv1_bn/beta",
          "shape": [
            728
          ],
          "dtype": "float32"
        },
        {
          "name": "block13_sepconv1_bn/moving_mean",
          "shape": [
            728
          ],
          "dtype": "float32"
        },
        {
          "name": "block13_sepconv1_bn/moving_variance",
          "shape": [
            728
          ],
          "dtype": "float32"
        },
        {
          "name": "block13_sepconv2/depthwise_kernel",
          "shape": [
            3,
            3,
            728,
            1
          ],
          "dtype": "float32"
        },
        {
          "name": "block13_sepconv2/pointwise_kernel",
          "shape": [
            1,
            1,
            728,
            1024
          ],
          "dtype": "float32"
        },
        {
          "name": "block13_sepconv2_bn/gamma",
          "shape": [
            1024
          ],
          "dtype": "float32"
        },
        {
          "name": "block13_sepconv2_bn/beta",
          "shape": [
            1024
          ],
          "dtype": "float32"
        },
        {
          "name": "block13_sepconv2_bn/moving_mean",
          "shape": [
            1024
          ],
          "dtype": "float32"
        },
        {
          "name": "block13_sepconv2_bn/moving_variance",
          "shape": [
            1024
          ],
          "dtype": "float32"
        },
        {
          "name": "block14_sepconv1/depthwise_kernel",
          "shape": [
            3,
            3,
            1024,
            1
          ],
          "dtype": "float32"
        },
        {
          "name": "block14_sepconv1/pointwise_kernel",
          "shape": [
            1,
            1,
            1024,
            1536
          ],
          "dtype": "float32"
        },
        {
          "name": "block14_sepconv1_bn/gamma",
          "shape": [
            1536
          ],
          "dtype": "float32"
        },
        {
          "name": "block14_sepconv1_bn/beta",
          "shape": [
            1536
          ],
          "dtype": "float32"
        },
        {
          "name": "block14_sepconv1_bn/moving_mean",
          "shape": [
            1536
          ],
          "dtype": "float32"
        },
        {
          "name": "block14_sepconv1_bn/moving_variance",
          "shape": [
            1536
          ],
          "dtype": "float32"
        },
        {
          "name": "block14_sepconv2/depthwise_kernel",
          "shape": [
            3,
            3,
            1536,
            1
          ],
          "dtype": "float32"
        },
        {
          "name": "block14_sepconv2/pointwise_kernel",
          "shape": [
            1,
            1,
            1536,
            2048
          ],
          "dtype": "float32"
        },
        {
          "name": "block14_sepconv2_bn/gamma",
          "shape": [
            2048
          ],
          "dtype": "float32"
        },
        {
          "name": "block14_sepconv2_bn/beta",
          "shape": [
            2048
          ],
          "dtype": "float32"
        },
        {
          "name": "block14_sepconv2_bn/moving_mean",
          "shape": [
            2048
          ],
          "dtype": "float32"
        },
        {
          "name": "block14_sepconv2_bn/moving_variance",
          "shape": [
            2048
          ],
          "dtype": "float32"
        },
        {
          "name": "block1_conv1/kernel",
          "shape": [
            3,
            3,
            3,
            32
          ],
          "dtype": "float32"
        },
        {
          "name": "block1_conv1_bn/gamma",
          "shape": [
            32
          ],
          "dtype": "float32"
        },
        {
          "name": "block1_conv1_bn/beta",
          "shape": [
            32
          ],
          "dtype": "float32"
        },
        {
          "name": "block1_conv1_bn/moving_mean",
          "shape": [
            32
          ],
          "dtype": "float32"
        },
        {
          "name": "block1_conv1_bn/moving_variance",
          "shape": [
            32
          ],
          "dtype": "float32"
        },
        {
          "name": "block1_conv2/kernel",
          "shape": [
            3,
            3,
            32,
            64
          ],
          "dtype": "float32"
        },
        {
          "name": "block1_conv2_bn/gamma",
          "shape": [
            64
          ],
          "dtype": "float32"
        },
        {
          "name": "block1_conv2_bn/beta",
          "shape": [
            64
          ],
          "dtype": "float32"
        },
        {
          "name": "block1_conv2_bn/moving_mean",
          "shape": [
            64
          ],
          "dtype": "float32"
        },
        {
          "name": "block1_conv2_bn/moving_variance",
          "shape": [
            64
          ],
          "dtype": "float32"
        },
        {
          "name": "block2_sepconv1/depthwise_kernel",
          "shape": [
            3,
            3,
            64,
            1
          ],
          "dtype": "float32"
        },
        {
          "name": "block2_sepconv1/pointwise_kernel",
          "shape": [
            1,
            1,
            64,
            128
          ],
          "dtype": "float32"
        },
        {
          "name": "block2_sepconv1_bn/gamma",
          "shape": [
            128
          ],
          "dtype": "float32"
        },
        {
          "name": "block2_sepconv1_bn/beta",
          "shape": [
            128
          ],
          "dtype": "float32"
        },
        {
          "name": "block2_sepconv1_bn/moving_mean",
          "shape": [
            128
          ],
          "dtype": "float32"
        },
        {
          "name": "block2_sepconv1_bn/moving_variance",
          "shape": [
            128
          ],
          "dtype": "float32"
        },
        {
          "name": "block2_sepconv2/depthwise_kernel",
          "shape": [
            3,
            3,
            128,
            1
          ],
          "dtype": "float32"
        },
        {
          "name": "block2_sepconv2/pointwise_kernel",
          "shape": [
            1,
            1,
            128,
            128
          ],
          "dtype": "float32"
        },
        {
          "name": "block2_sepconv2_bn/gamma",
          "shape": [
            128
          ],
          "dtype": "float32"
        },
        {
          "name": "block2_sepconv2_bn/beta",
          "shape": [
            128
          ],
          "dtype": "float32"
        },
        {
          "name": "block2_sepconv2_bn/moving_mean",
          "shape": [
            128
          ],
          "dtype": "float32"
        },
        {
          "name": "block2_sepconv2_bn/moving_variance",
          "shape": [
            128
          ],
          "dtype": "float32"
        },
        {
          "name": "block3_sepconv1/depthwise_kernel",
          "shape": [
            3,
            3,
            128,
            1
          ],
          "dtype": "float32"
        },
        {
          "name": "block3_sepconv1/pointwise_kernel",
          "shape": [
            1,
            1,
            128,
            256
          ],
          "dtype": "float32"
        },
        {
          "name": "block3_sepconv1_bn/gamma",
          "shape": [
            256
          ],
          "dtype": "float32"
        },
        {
          "name": "block3_sepconv1_bn/beta",
          "shape": [
            256
          ],
          "dtype": "float32"
        },
        {
          "name": "block3_sepconv1_bn/moving_mean",
          "shape": [
            256
          ],
          "dtype": "float32"
        },
        {
          "name": "block3_sepconv1_bn/moving_variance",
          "shape": [
            256
          ],
          "dtype": "float32"
        },
        {
          "name": "block3_sepconv2/depthwise_kernel",
          "shape": [
            3,
            3,
            256,
            1
          ],
          "dtype": "float32"
        },
        {
          "name": "block3_sepconv2/pointwise_kernel",
          "shape": [
            1,
            1,
            256,
            256
          ],
          "dtype": "float32"
        },
        {
          "name": "block3_sepconv2_bn/gamma",
          "shape": [
            256
          ],
          "dtype": "float32"
        },
        {
          "name": "block3_sepconv2_bn/beta",
          "shape": [
            256
          ],
          "dtype": "float32"
        },
        {
          "name": "block3_sepconv2_bn/moving_mean",
          "shape": [
            256
          ],
          "dtype": "float32"
        },
        {
          "name": "block3_sepconv2_bn/moving_variance",
          "shape": [
            256
          ],
          "dtype": "float32"
        },
        {
          "name": "block4_sepconv1/depthwise_kernel",
          "shape": [
            3,
            3,
            256,
            1
          ],
          "dtype": "float32"
        },
        {
          "name": "block4_sepconv1/pointwise_kernel",
          "shape": [
            1,
            1,
            256,
            728
          ],
          "dtype": "float32"
        },
        {
          "name": "block4_sepconv1_bn/gamma",
          "shape": [
            728
          ],
          "dtype": "float32"
        },
        {
          "name": "block4_sepconv1_bn/beta",
          "shape": [
            728
          ],
          "dtype": "float32"
        },
        {
          "name": "block4_sepconv1_bn/moving_mean",
          "shape": [
            728
          ],
          "dtype": "float32"
        },
        {
          "name": "block4_sepconv1_bn/moving_variance",
          "shape": [
            728
          ],
          "dtype": "float32"
        },
        {
          "name": "block4_sepconv2/depthwise_kernel",
          "shape": [
            3,
            3,
            728,
            1
          ],
          "dtype": "float32"
        },
        {
          "name": "block4_sepconv2/pointwise_kernel",
          "shape": [
            1,
            1,
            728,
            728
          ],
          "dtype": "float32"
        },
        {
          "name": "block4_sepconv2_bn/gamma",
          "shape": [
            728
          ],
          "dtype": "float32"
        },
        {
          "name": "block4_sepconv2_bn/beta",
          "shape": [
            728
          ],
          "dtype": "float32"
        },
        {
          "name": "block4_sepconv2_bn/moving_mean",
          "shape": [
            728
          ],
          "dtype": "float32"
        },
        {
          "name": "block4_sepconv2_bn/moving_variance",
          "shape": [
            728
          ],
          "dtype": "float32"
        },
        {
          "name": "block5_sepconv1/depthwise_kernel",
          "shape": [
            3,
            3,
            728,
            1
          ],
          "dtype": "float32"
        },
        {
          "name": "block5_sepconv1/pointwise_kernel",
          "shape": [
            1,
            1,
            728,
            728
          ],
          "dtype": "float32"
        },
        {
          "name": "block5_sepconv1_bn/gamma",
          "shape": [
            728
          ],
          "dtype": "float32"
        },
        {
          "name": "block5_sepconv1_bn/beta",
          "shape": [
            728
          ],
          "dtype": "float32"
        },
        {
          "name": "block5_sepconv1_bn/moving_mean",
          "shape": [
            728
          ],
          "dtype": "float32"
        },
        {
          "name": "block5_sepconv1_bn/moving_variance",
          "shape": [
            728
          ],
          "dtype": "float32"
        },
        {
          "name": "block5_sepconv2/depthwise_kernel",
          "shape": [
            3,
            3,
            728,
            1
          ],
          "dtype": "float32"
        },
        {
          "name": "block5_sepconv2/pointwise_kernel",
          "shape": [
            1,
            1,
            728,
            728
          ],
          "dtype": "float32"
        },
        {
          "name": "block5_sepconv2_bn/gamma",
          "shape": [
            728
          ],
          "dtype": "float32"
        },
        {
          "name": "block5_sepconv2_bn/beta",
          "shape": [
            728
          ],
          "dtype": "float32"
        },
        {
          "name": "block5_sepconv2_bn/moving_mean",
          "shape": [
            728
          ],
          "dtype": "float32"
        },
        {
          "name": "block5_sepconv2_bn/moving_variance",
          "shape": [
            728
          ],
          "dtype": "float32"
        },
        {
          "name": "block5_sepconv3/depthwise_kernel",
          "shape": [
            3,
            3,
            728,
            1
          ],
          "dtype": "float32"
        },
        {
          "name": "block5_sepconv3/pointwise_kernel",
          "shape": [
            1,
            1,
            728,
            728
          ],
          "dtype": "float32"
        },
        {
          "name": "block5_sepconv3_bn/gamma",
          "shape": [
            728
          ],
          "dtype": "float32"
        },
        {
          "name": "block5_sepconv3_bn/beta",
          "shape": [
            728
          ],
          "dtype": "float32"
        },
        {
          "name": "block5_sepconv3_bn/moving_mean",
          "shape": [
            728
          ],
          "dtype": "float32"
        },
        {
          "name": "block5_sepconv3_bn/moving_variance",
          "shape": [
            728
          ],
          "dtype": "float32"
        },
        {
          "name": "block6_sepconv1/depthwise_kernel",
          "shape": [
            3,
            3,
            728,
            1
          ],
          "dtype": "float32"
        },
        {
          "name": "block6_sepconv1/pointwise_kernel",
          "shape": [
            1,
            1,
            728,
            728
          ],
          "dtype": "float32"
        },
        {
          "name": "block6_sepconv1_bn/gamma",
          "shape": [
            728
          ],
          "dtype": "float32"
        },
        {
          "name": "block6_sepconv1_bn/beta",
          "shape": [
            728
          ],
          "dtype": "float32"
        },
        {
          "name": "block6_sepconv1_bn/moving_mean",
          "shape": [
            728
          ],
          "dtype": "float32"
        },
        {
          "name": "block6_sepconv1_bn/moving_variance",
          "shape": [
            728
          ],
          "dtype": "float32"
        },
        {
          "name": "block6_sepconv2/depthwise_kernel",
          "shape": [
            3,
            3,
            728,
            1
          ],
          "dtype": "float32"
        },
        {
          "name": "block6_sepconv2/pointwise_kernel",
          "shape": [
            1,
            1,
            728,
            728
          ],
          "dtype": "float32"
        },
        {
          "name": "block6_sepconv2_bn/gamma",
          "shape": [
            728
          ],
          "dtype": "float32"
        },
        {
          "name": "block6_sepconv2_bn/beta",
          "shape": [
            728
          ],
          "dtype": "float32"
        },
        {
          "name": "block6_sepconv2_bn/moving_mean",
          "shape": [
            728
          ],
          "dtype": "float32"
        },
        {
          "name": "block6_sepconv2_bn/moving_variance",
          "shape": [
            728
          ],
          "dtype": "float32"
        },
        {
          "name": "block6_sepconv3/depthwise_kernel",
          "shape": [
            3,
            3,
            728,
            1
          ],
          "dtype": "float32"
        },
        {
          "name": "block6_sepconv3/pointwise_kernel",
          "shape": [
            1,
            1,
            728,
            728
          ],
          "dtype": "float32"
        },
        {
          "name": "block6_sepconv3_bn/gamma",
          "shape": [
            728
          ],
          "dtype": "float32"
        },
        {
          "name": "block6_sepconv3_bn/beta",
          "shape": [
            728
          ],
          "dtype": "float32"
        },
        {
          "name": "block6_sepconv3_bn/moving_mean",
          "shape": [
            728
          ],
          "dtype": "float32"
        },
        {
          "name": "block6_sepconv3_bn/moving_variance",
          "shape": [
            728
          ],
          "dtype": "float32"
        },
        {
          "name": "block7_sepconv1/depthwise_kernel",
          "shape": [
            3,
            3,
            728,
            1
          ],
          "dtype": "float32"
        },
        {
          "name": "block7_sepconv1/pointwise_kernel",
          "shape": [
            1,
            1,
            728,
            728
          ],
          "dtype": "float32"
        },
        {
          "name": "block7_sepconv1_bn/gamma",
          "shape": [
            728
          ],
          "dtype": "float32"
        },
        {
          "name": "block7_sepconv1_bn/beta",
          "shape": [
            728
          ],
          "dtype": "float32"
        },
        {
          "name": "block7_sepconv1_bn/moving_mean",
          "shape": [
            728
          ],
          "dtype": "float32"
        },
        {
          "name": "block7_sepconv1_bn/moving_variance",
          "shape": [
            728
          ],
          "dtype": "float32"
        },
        {
          "name": "block7_sepconv2/depthwise_kernel",
          "shape": [
            3,
            3,
            728,
            1
          ],
          "dtype": "float32"
        },
        {
          "name": "block7_sepconv2/pointwise_kernel",
          "shape": [
            1,
            1,
            728,
            728
          ],
          "dtype": "float32"
        },
        {
          "name": "block7_sepconv2_bn/gamma",
          "shape": [
            728
          ],
          "dtype": "float32"
        },
        {
          "name": "block7_sepconv2_bn/beta",
          "shape": [
            728
          ],
          "dtype": "float32"
        },
        {
          "name": "block7_sepconv2_bn/moving_mean",
          "shape": [
            728
          ],
          "dtype": "float32"
        },
        {
          "name": "block7_sepconv2_bn/moving_variance",
          "shape": [
            728
          ],
          "dtype": "float32"
        },
        {
          "name": "block7_sepconv3/depthwise_kernel",
          "shape": [
            3,
            3,
            728,
            1
          ],
          "dtype": "float32"
        },
        {
          "name": "block7_sepconv3/pointwise_kernel",
          "shape": [
            1,
            1,
            728,
            728
          ],
          "dtype": "float32"
        },
        {
          "name": "block7_sepconv3_bn/gamma",
          "shape": [
            728
          ],
          "dtype": "float32"
        },
        {
          "name": "block7_sepconv3_bn/beta",
          "shape": [
            728
          ],
          "dtype": "float32"
        },
        {
          "name": "block7_sepconv3_bn/moving_mean",
          "shape": [
            728
          ],
          "dtype": "float32"
        },
        {
          "name": "block7_sepconv3_bn/moving_variance",
          "shape": [
            728
          ],
          "dtype": "float32"
        },
        {
          "name": "block8_sepconv1/depthwise_kernel",
          "shape": [
            3,
            3,
            728,
            1
          ],
          "dtype": "float32"
        },
        {
          "name": "block8_sepconv1/pointwise_kernel",
          "shape": [
            1,
            1,
            728,
            728
          ],
          "dtype": "float32"
        },
        {
          "name": "block8_sepconv1_bn/gamma",
          "shape": [
            728
          ],
          "dtype": "float32"
        },
        {
          "name": "block8_sepconv1_bn/beta",
          "shape": [
            728
          ],
          "dtype": "float32"
        },
        {
          "name": "block8_sepconv1_bn/moving_mean",
          "shape": [
            728
          ],
          "dtype": "float32"
        },
        {
          "name": "block8_sepconv1_bn/moving_variance",
          "shape": [
            728
          ],
          "dtype": "float32"
        },
        {
          "name": "block8_sepconv2/depthwise_kernel",
          "shape": [
            3,
            3,
            728,
            1
          ],
          "dtype": "float32"
        },
        {
          "name": "block8_sepconv2/pointwise_kernel",
          "shape": [
            1,
            1,
            728,
            728
          ],
          "dtype": "float32"
        },
        {
          "name": "block8_sepconv2_bn/gamma",
          "shape": [
            728
          ],
          "dtype": "float32"
        },
        {
          "name": "block8_sepconv2_bn/beta",
          "shape": [
            728
          ],
          "dtype": "float32"
        },
        {
          "name": "block8_sepconv2_bn/moving_mean",
          "shape": [
            728
          ],
          "dtype": "float32"
        },
        {
          "name": "block8_sepconv2_bn/moving_variance",
          "shape": [
            728
          ],
          "dtype": "float32"
        },
        {
          "name": "block8_sepconv3/depthwise_kernel",
          "shape": [
            3,
            3,
            728,
            1
          ],
          "dtype": "float32"
        },
        {
          "name": "block8_sepconv3/pointwise_kernel",
          "shape": [
            1,
            1,
            728,
            728
          ],
          "dtype": "float32"
        },
        {
          "name": "block8_sepconv3_bn/gamma",
          "shape": [
            728
          ],
          "dtype": "float32"
        },
        {
          "name": "block8_sepconv3_bn/beta",
          "shape": [
            728
          ],
          "dtype": "float32"
        },
        {
          "name": "block8_sepconv3_bn/moving_mean",
          "shape": [
            728
          ],
          "dtype": "float32"
        },
        {
          "name": "block8_sepconv3_bn/moving_variance",
          "shape": [
            728
          ],
          "dtype": "float32"
        },
        {
          "name": "block9_sepconv1/depthwise_kernel",
          "shape": [
            3,
            3,
            728,
            1
          ],
          "dtype": "float32"
        },
        {
          "name": "block9_sepconv1/pointwise_kernel",
          "shape": [
            1,
            1,
            728,
            728
          ],
          "dtype": "float32"
        },
        {
          "name": "block9_sepconv1_bn/gamma",
          "shape": [
            728
          ],
          "dtype": "float32"
        },
        {
          "name": "block9_sepconv1_bn/beta",
          "shape": [
            728
          ],
          "dtype": "float32"
        },
        {
          "name": "block9_sepconv1_bn/moving_mean",
          "shape": [
            728
          ],
          "dtype": "float32"
        },
        {
          "name": "block9_sepconv1_bn/moving_variance",
          "shape": [
            728
          ],
          "dtype": "float32"
        },
        {
          "name": "block9_sepconv2/depthwise_kernel",
          "shape": [
            3,
            3,
            728,
            1
          ],
          "dtype": "float32"
        },
        {
          "name": "block9_sepconv2/pointwise_kernel",
          "shape": [
            1,
            1,
            728,
            728
          ],
          "dtype": "float32"
        },
        {
          "name": "block9_sepconv2_bn/gamma",
          "shape": [
            728
          ],
          "dtype": "float32"
        },
        {
          "name": "block9_sepconv2_bn/beta",
          "shape": [
            728
          ],
          "dtype": "float32"
        },
        {
          "name": "block9_sepconv2_bn/moving_mean",
          "shape": [
            728
          ],
          "dtype": "float32"
        },
        {
          "name": "block9_sepconv2_bn/moving_variance",
          "shape": [
            728
          ],
          "dtype": "float32"
        },
        {
          "name": "block9_sepconv3/depthwise_kernel",
          "shape": [
            3,
            3,
            728,
            1
          ],
          "dtype": "float32"
        },
        {
          "name": "block9_sepconv3/pointwise_kernel",
          "shape": [
            1,
            1,
            728,
            728
          ],
          "dtype": "float32"
        },
        {
          "name": "block9_sepconv3_bn/gamma",
          "shape": [
            728
          ],
          "dtype": "float32"
        },
        {
          "name": "block9_sepconv3_bn/beta",
          "shape": [
            728
          ],
          "dtype": "float32"
        },
        {
          "name": "block9_sepconv3_bn/moving_mean",
          "shape": [
            728
          ],
          "dtype": "float32"
        },
        {
          "name": "block9_sepconv3_bn/moving_variance",
          "shape": [
            728
          ],
          "dtype": "float32"
        },
        {
          "name": "conv2d_95/kernel",
          "shape": [
            1,
            1,
            64,
            128
          ],
          "dtype": "float32"
        },
        {
          "name": "conv2d_96/kernel",
          "shape": [
            1,
            1,
            128,
            256
          ],
          "dtype": "float32"
        },
        {
          "name": "conv2d_97/kernel",
          "shape": [
            1,
            1,
            256,
            728
          ],
          "dtype": "float32"
        },
        {
          "name": "conv2d_98/kernel",
          "shape": [
            1,
            1,
            728,
            1024
          ],
          "dtype": "float32"
        },
        {
          "name": "predictions/kernel",
          "shape": [
            2048,
            1000
          ],
          "dtype": "float32"
        },
        {
          "name": "predictions/bias",
          "shape": [
            1000
          ],
          "dtype": "float32"
        }
      ]
    }
  ]
}