{
  "modelTopology": {
    "keras_version": "2.1.6-tf",
    "backend": "tensorflow",
    "model_config": {
      "config": {
        "name": "mobilenetv2_1.00_224",
        "layers": [
          {
            "name": "input_1",
            "config": {
              "name": "input_1",
              "sparse": false,
              "dtype": "float32",
              "batch_input_shape": [
                null,
                224,
                224,
                3
              ]
            },
            "class_name": "InputLayer",
            "inbound_nodes": []
          },
          {
            "name": "Conv1_pad",
            "config": {
              "name": "Conv1_pad",
              "padding": [
                [
                  0,
                  1
                ],
                [
                  0,
                  1
                ]
              ],
              "trainable": true,
              "data_format": "channels_last",
              "dtype": "float32"
            },
            "class_name": "ZeroPadding2D",
            "inbound_nodes": [
              [
                [
                  "input_1",
                  0,
                  0,
                  {}
                ]
              ]
            ]
          },
          {
            "name": "Conv1",
            "config": {
              "bias_regularizer": null,
              "trainable": true,
              "bias_initializer": {
                "config": {
                  "dtype": "float32"
                },
                "class_name": "Zeros"
              },
              "kernel_initializer": {
                "config": {
                  "seed": null,
                  "mode": "fan_avg",
                  "dtype": "float32",
                  "distribution": "uniform",
                  "scale": 1.0
                },
                "class_name": "VarianceScaling"
              },
              "dtype": "float32",
              "filters": 32,
              "kernel_constraint": null,
              "dilation_rate": [
                1,
                1
              ],
              "activation": "linear",
              "padding": "valid",
              "data_format": "channels_last",
              "use_bias": false,
              "activity_regularizer": null,
              "strides": [
                2,
                2
              ],
              "kernel_size": [
                3,
                3
              ],
              "name": "Conv1",
              "kernel_regularizer": null,
              "bias_constraint": null
            },
            "class_name": "Conv2D",
            "inbound_nodes": [
              [
                [
                  "Conv1_pad",
                  0,
                  0,
                  {}
                ]
              ]
            ]
          },
          {
            "name": "bn_Conv1",
            "config": {
              "beta_initializer": {
                "config": {
                  "dtype": "float32"
                },
                "class_name": "Zeros"
              },
              "trainable": true,
              "epsilon": 0.001,
              "center": true,
              "dtype": "float32",
              "scale": true,
              "momentum": 0.999,
              "moving_mean_initializer": {
                "config": {
                  "dtype": "float32"
                },
                "class_name": "Zeros"
              },
              "axis": [
                3
              ],
              "beta_constraint": null,
              "name": "bn_Conv1",
              "moving_variance_initializer": {
                "config": {
                  "dtype": "float32"
                },
                "class_name": "Ones"
              },
              "gamma_initializer": {
                "config": {
                  "dtype": "float32"
                },
                "class_name": "Ones"
              },
              "gamma_regularizer": null,
              "beta_regularizer": null,
              "gamma_constraint": null
            },
            "class_name": "BatchNormalization",
            "inbound_nodes": [
              [
                [
                  "Conv1",
                  0,
                  0,
                  {}
                ]
              ]
            ]
          },
          {
            "name": "Conv1_relu",
            "config": {
              "trainable": true,
              "dtype": "float32",
              "name": "Conv1_relu",
              "max_value":6,
              "negative_slope": {
                "value": 0.0,
                "type": "ndarray"
              },
              "threshold": {
                "value": 0.0,
                "type": "ndarray"
              }
            },
            "class_name": "ReLU",
            "inbound_nodes": [
              [
                [
                  "bn_Conv1",
                  0,
                  0,
                  {}
                ]
              ]
            ]
          },
          {
            "name": "expanded_conv_depthwise",
            "config": {
              "bias_regularizer": null,
              "trainable": true,
              "bias_initializer": {
                "config": {
                  "dtype": "float32"
                },
                "class_name": "Zeros"
              },
              "depthwise_regularizer": null,
              "depthwise_constraint": null,
              "dtype": "float32",
              "dilation_rate": [
                1,
                1
              ],
              "activation": "linear",
              "padding": "same",
              "data_format": "channels_last",
              "use_bias": false,
              "activity_regularizer": null,
              "strides": [
                1,
                1
              ],
              "kernel_size": [
                3,
                3
              ],
              "name": "expanded_conv_depthwise",
              "depth_multiplier": 1,
              "depthwise_initializer": {
                "config": {
                  "seed": null,
                  "mode": "fan_avg",
                  "dtype": "float32",
                  "distribution": "uniform",
                  "scale": 1.0
                },
                "class_name": "VarianceScaling"
              },
              "bias_constraint": null
            },
            "class_name": "DepthwiseConv2D",
            "inbound_nodes": [
              [
                [
                  "Conv1_relu",
                  0,
                  0,
                  {}
                ]
              ]
            ]
          },
          {
            "name": "expanded_conv_depthwise_BN",
            "config": {
              "beta_initializer": {
                "config": {
                  "dtype": "float32"
                },
                "class_name": "Zeros"
              },
              "trainable": true,
              "epsilon": 0.001,
              "center": true,
              "dtype": "float32",
              "scale": true,
              "momentum": 0.999,
              "moving_mean_initializer": {
                "config": {
                  "dtype": "float32"
                },
                "class_name": "Zeros"
              },
              "axis": [
                3
              ],
              "beta_constraint": null,
              "name": "expanded_conv_depthwise_BN",
              "moving_variance_initializer": {
                "config": {
                  "dtype": "float32"
                },
                "class_name": "Ones"
              },
              "gamma_initializer": {
                "config": {
                  "dtype": "float32"
                },
                "class_name": "Ones"
              },
              "gamma_regularizer": null,
              "beta_regularizer": null,
              "gamma_constraint": null
            },
            "class_name": "BatchNormalization",
            "inbound_nodes": [
              [
                [
                  "expanded_conv_depthwise",
                  0,
                  0,
                  {}
                ]
              ]
            ]
          },
          {
            "name": "expanded_conv_depthwise_relu",
            "config": {
              "trainable": true,
              "dtype": "float32",
              "name": "expanded_conv_depthwise_relu",
              "max_value":6,
              "negative_slope": {
                "value": 0.0,
                "type": "ndarray"
              },
              "threshold": {
                "value": 0.0,
                "type": "ndarray"
              }
            },
            "class_name": "ReLU",
            "inbound_nodes": [
              [
                [
                  "expanded_conv_depthwise_BN",
                  0,
                  0,
                  {}
                ]
              ]
            ]
          },
          {
            "name": "expanded_conv_project",
            "config": {
              "bias_regularizer": null,
              "trainable": true,
              "bias_initializer": {
                "config": {
                  "dtype": "float32"
                },
                "class_name": "Zeros"
              },
              "kernel_initializer": {
                "config": {
                  "seed": null,
                  "mode": "fan_avg",
                  "dtype": "float32",
                  "distribution": "uniform",
                  "scale": 1.0
                },
                "class_name": "VarianceScaling"
              },
              "dtype": "float32",
              "filters": 16,
              "kernel_constraint": null,
              "dilation_rate": [
                1,
                1
              ],
              "activation": "linear",
              "padding": "same",
              "data_format": "channels_last",
              "use_bias": false,
              "activity_regularizer": null,
              "strides": [
                1,
                1
              ],
              "kernel_size": [
                1,
                1
              ],
              "name": "expanded_conv_project",
              "kernel_regularizer": null,
              "bias_constraint": null
            },
            "class_name": "Conv2D",
            "inbound_nodes": [
              [
                [
                  "expanded_conv_depthwise_relu",
                  0,
                  0,
                  {}
                ]
              ]
            ]
          },
          {
            "name": "expanded_conv_project_BN",
            "config": {
              "beta_initializer": {
                "config": {
                  "dtype": "float32"
                },
                "class_name": "Zeros"
              },
              "trainable": true,
              "epsilon": 0.001,
              "center": true,
              "dtype": "float32",
              "scale": true,
              "momentum": 0.999,
              "moving_mean_initializer": {
                "config": {
                  "dtype": "float32"
                },
                "class_name": "Zeros"
              },
              "axis": [
                3
              ],
              "beta_constraint": null,
              "name": "expanded_conv_project_BN",
              "moving_variance_initializer": {
                "config": {
                  "dtype": "float32"
                },
                "class_name": "Ones"
              },
              "gamma_initializer": {
                "config": {
                  "dtype": "float32"
                },
                "class_name": "Ones"
              },
              "gamma_regularizer": null,
              "beta_regularizer": null,
              "gamma_constraint": null
            },
            "class_name": "BatchNormalization",
            "inbound_nodes": [
              [
                [
                  "expanded_conv_project",
                  0,
                  0,
                  {}
                ]
              ]
            ]
          },
          {
            "name": "block_1_expand",
            "config": {
              "bias_regularizer": null,
              "trainable": true,
              "bias_initializer": {
                "config": {
                  "dtype": "float32"
                },
                "class_name": "Zeros"
              },
              "kernel_initializer": {
                "config": {
                  "seed": null,
                  "mode": "fan_avg",
                  "dtype": "float32",
                  "distribution": "uniform",
                  "scale": 1.0
                },
                "class_name": "VarianceScaling"
              },
              "dtype": "float32",
              "filters": 96,
              "kernel_constraint": null,
              "dilation_rate": [
                1,
                1
              ],
              "activation": "linear",
              "padding": "same",
              "data_format": "channels_last",
              "use_bias": false,
              "activity_regularizer": null,
              "strides": [
                1,
                1
              ],
              "kernel_size": [
                1,
                1
              ],
              "name": "block_1_expand",
              "kernel_regularizer": null,
              "bias_constraint": null
            },
            "class_name": "Conv2D",
            "inbound_nodes": [
              [
                [
                  "expanded_conv_project_BN",
                  0,
                  0,
                  {}
                ]
              ]
            ]
          },
          {
            "name": "block_1_expand_BN",
            "config": {
              "beta_initializer": {
                "config": {
                  "dtype": "float32"
                },
                "class_name": "Zeros"
              },
              "trainable": true,
              "epsilon": 0.001,
              "center": true,
              "dtype": "float32",
              "scale": true,
              "momentum": 0.999,
              "moving_mean_initializer": {
                "config": {
                  "dtype": "float32"
                },
                "class_name": "Zeros"
              },
              "axis": [
                3
              ],
              "beta_constraint": null,
              "name": "block_1_expand_BN",
              "moving_variance_initializer": {
                "config": {
                  "dtype": "float32"
                },
                "class_name": "Ones"
              },
              "gamma_initializer": {
                "config": {
                  "dtype": "float32"
                },
                "class_name": "Ones"
              },
              "gamma_regularizer": null,
              "beta_regularizer": null,
              "gamma_constraint": null
            },
            "class_name": "BatchNormalization",
            "inbound_nodes": [
              [
                [
                  "block_1_expand",
                  0,
                  0,
                  {}
                ]
              ]
            ]
          },
          {
            "name": "block_1_expand_relu",
            "config": {
              "trainable": true,
              "dtype": "float32",
              "name": "block_1_expand_relu",
              "max_value":6,
              "negative_slope": {
                "value": 0.0,
                "type": "ndarray"
              },
              "threshold": {
                "value": 0.0,
                "type": "ndarray"
              }
            },
            "class_name": "ReLU",
            "inbound_nodes": [
              [
                [
                  "block_1_expand_BN",
                  0,
                  0,
                  {}
                ]
              ]
            ]
          },
          {
            "name": "block_1_pad",
            "config": {
              "name": "block_1_pad",
              "padding": [
                [
                  0,
                  1
                ],
                [
                  0,
                  1
                ]
              ],
              "trainable": true,
              "data_format": "channels_last",
              "dtype": "float32"
            },
            "class_name": "ZeroPadding2D",
            "inbound_nodes": [
              [
                [
                  "block_1_expand_relu",
                  0,
                  0,
                  {}
                ]
              ]
            ]
          },
          {
            "name": "block_1_depthwise",
            "config": {
              "bias_regularizer": null,
              "trainable": true,
              "bias_initializer": {
                "config": {
                  "dtype": "float32"
                },
                "class_name": "Zeros"
              },
              "depthwise_regularizer": null,
              "depthwise_constraint": null,
              "dtype": "float32",
              "dilation_rate": [
                1,
                1
              ],
              "activation": "linear",
              "padding": "valid",
              "data_format": "channels_last",
              "use_bias": false,
              "activity_regularizer": null,
              "strides": [
                2,
                2
              ],
              "kernel_size": [
                3,
                3
              ],
              "name": "block_1_depthwise",
              "depth_multiplier": 1,
              "depthwise_initializer": {
                "config": {
                  "seed": null,
                  "mode": "fan_avg",
                  "dtype": "float32",
                  "distribution": "uniform",
                  "scale": 1.0
                },
                "class_name": "VarianceScaling"
              },
              "bias_constraint": null
            },
            "class_name": "DepthwiseConv2D",
            "inbound_nodes": [
              [
                [
                  "block_1_pad",
                  0,
                  0,
                  {}
                ]
              ]
            ]
          },
          {
            "name": "block_1_depthwise_BN",
            "config": {
              "beta_initializer": {
                "config": {
                  "dtype": "float32"
                },
                "class_name": "Zeros"
              },
              "trainable": true,
              "epsilon": 0.001,
              "center": true,
              "dtype": "float32",
              "scale": true,
              "momentum": 0.999,
              "moving_mean_initializer": {
                "config": {
                  "dtype": "float32"
                },
                "class_name": "Zeros"
              },
              "axis": [
                3
              ],
              "beta_constraint": null,
              "name": "block_1_depthwise_BN",
              "moving_variance_initializer": {
                "config": {
                  "dtype": "float32"
                },
                "class_name": "Ones"
              },
              "gamma_initializer": {
                "config": {
                  "dtype": "float32"
                },
                "class_name": "Ones"
              },
              "gamma_regularizer": null,
              "beta_regularizer": null,
              "gamma_constraint": null
            },
            "class_name": "BatchNormalization",
            "inbound_nodes": [
              [
                [
                  "block_1_depthwise",
                  0,
                  0,
                  {}
                ]
              ]
            ]
          },
          {
            "name": "block_1_depthwise_relu",
            "config": {
              "trainable": true,
              "dtype": "float32",
              "name": "block_1_depthwise_relu",
              "max_value":6,
              "negative_slope": {
                "value": 0.0,
                "type": "ndarray"
              },
              "threshold": {
                "value": 0.0,
                "type": "ndarray"
              }
            },
            "class_name": "ReLU",
            "inbound_nodes": [
              [
                [
                  "block_1_depthwise_BN",
                  0,
                  0,
                  {}
                ]
              ]
            ]
          },
          {
            "name": "block_1_project",
            "config": {
              "bias_regularizer": null,
              "trainable": true,
              "bias_initializer": {
                "config": {
                  "dtype": "float32"
                },
                "class_name": "Zeros"
              },
              "kernel_initializer": {
                "config": {
                  "seed": null,
                  "mode": "fan_avg",
                  "dtype": "float32",
                  "distribution": "uniform",
                  "scale": 1.0
                },
                "class_name": "VarianceScaling"
              },
              "dtype": "float32",
              "filters": 24,
              "kernel_constraint": null,
              "dilation_rate": [
                1,
                1
              ],
              "activation": "linear",
              "padding": "same",
              "data_format": "channels_last",
              "use_bias": false,
              "activity_regularizer": null,
              "strides": [
                1,
                1
              ],
              "kernel_size": [
                1,
                1
              ],
              "name": "block_1_project",
              "kernel_regularizer": null,
              "bias_constraint": null
            },
            "class_name": "Conv2D",
            "inbound_nodes": [
              [
                [
                  "block_1_depthwise_relu",
                  0,
                  0,
                  {}
                ]
              ]
            ]
          },
          {
            "name": "block_1_project_BN",
            "config": {
              "beta_initializer": {
                "config": {
                  "dtype": "float32"
                },
                "class_name": "Zeros"
              },
              "trainable": true,
              "epsilon": 0.001,
              "center": true,
              "dtype": "float32",
              "scale": true,
              "momentum": 0.999,
              "moving_mean_initializer": {
                "config": {
                  "dtype": "float32"
                },
                "class_name": "Zeros"
              },
              "axis": [
                3
              ],
              "beta_constraint": null,
              "name": "block_1_project_BN",
              "moving_variance_initializer": {
                "config": {
                  "dtype": "float32"
                },
                "class_name": "Ones"
              },
              "gamma_initializer": {
                "config": {
                  "dtype": "float32"
                },
                "class_name": "Ones"
              },
              "gamma_regularizer": null,
              "beta_regularizer": null,
              "gamma_constraint": null
            },
            "class_name": "BatchNormalization",
            "inbound_nodes": [
              [
                [
                  "block_1_project",
                  0,
                  0,
                  {}
                ]
              ]
            ]
          },
          {
            "name": "block_2_expand",
            "config": {
              "bias_regularizer": null,
              "trainable": true,
              "bias_initializer": {
                "config": {
                  "dtype": "float32"
                },
                "class_name": "Zeros"
              },
              "kernel_initializer": {
                "config": {
                  "seed": null,
                  "mode": "fan_avg",
                  "dtype": "float32",
                  "distribution": "uniform",
                  "scale": 1.0
                },
                "class_name": "VarianceScaling"
              },
              "dtype": "float32",
              "filters": 144,
              "kernel_constraint": null,
              "dilation_rate": [
                1,
                1
              ],
              "activation": "linear",
              "padding": "same",
              "data_format": "channels_last",
              "use_bias": false,
              "activity_regularizer": null,
              "strides": [
                1,
                1
              ],
              "kernel_size": [
                1,
                1
              ],
              "name": "block_2_expand",
              "kernel_regularizer": null,
              "bias_constraint": null
            },
            "class_name": "Conv2D",
            "inbound_nodes": [
              [
                [
                  "block_1_project_BN",
                  0,
                  0,
                  {}
                ]
              ]
            ]
          },
          {
            "name": "block_2_expand_BN",
            "config": {
              "beta_initializer": {
                "config": {
                  "dtype": "float32"
                },
                "class_name": "Zeros"
              },
              "trainable": true,
              "epsilon": 0.001,
              "center": true,
              "dtype": "float32",
              "scale": true,
              "momentum": 0.999,
              "moving_mean_initializer": {
                "config": {
                  "dtype": "float32"
                },
                "class_name": "Zeros"
              },
              "axis": [
                3
              ],
              "beta_constraint": null,
              "name": "block_2_expand_BN",
              "moving_variance_initializer": {
                "config": {
                  "dtype": "float32"
                },
                "class_name": "Ones"
              },
              "gamma_initializer": {
                "config": {
                  "dtype": "float32"
                },
                "class_name": "Ones"
              },
              "gamma_regularizer": null,
              "beta_regularizer": null,
              "gamma_constraint": null
            },
            "class_name": "BatchNormalization",
            "inbound_nodes": [
              [
                [
                  "block_2_expand",
                  0,
                  0,
                  {}
                ]
              ]
            ]
          },
          {
            "name": "block_2_expand_relu",
            "config": {
              "trainable": true,
              "dtype": "float32",
              "name": "block_2_expand_relu",
              "max_value":6,
              "negative_slope": {
                "value": 0.0,
                "type": "ndarray"
              },
              "threshold": {
                "value": 0.0,
                "type": "ndarray"
              }
            },
            "class_name": "ReLU",
            "inbound_nodes": [
              [
                [
                  "block_2_expand_BN",
                  0,
                  0,
                  {}
                ]
              ]
            ]
          },
          {
            "name": "block_2_depthwise",
            "config": {
              "bias_regularizer": null,
              "trainable": true,
              "bias_initializer": {
                "config": {
                  "dtype": "float32"
                },
                "class_name": "Zeros"
              },
              "depthwise_regularizer": null,
              "depthwise_constraint": null,
              "dtype": "float32",
              "dilation_rate": [
                1,
                1
              ],
              "activation": "linear",
              "padding": "same",
              "data_format": "channels_last",
              "use_bias": false,
              "activity_regularizer": null,
              "strides": [
                1,
                1
              ],
              "kernel_size": [
                3,
                3
              ],
              "name": "block_2_depthwise",
              "depth_multiplier": 1,
              "depthwise_initializer": {
                "config": {
                  "seed": null,
                  "mode": "fan_avg",
                  "dtype": "float32",
                  "distribution": "uniform",
                  "scale": 1.0
                },
                "class_name": "VarianceScaling"
              },
              "bias_constraint": null
            },
            "class_name": "DepthwiseConv2D",
            "inbound_nodes": [
              [
                [
                  "block_2_expand_relu",
                  0,
                  0,
                  {}
                ]
              ]
            ]
          },
          {
            "name": "block_2_depthwise_BN",
            "config": {
              "beta_initializer": {
                "config": {
                  "dtype": "float32"
                },
                "class_name": "Zeros"
              },
              "trainable": true,
              "epsilon": 0.001,
              "center": true,
              "dtype": "float32",
              "scale": true,
              "momentum": 0.999,
              "moving_mean_initializer": {
                "config": {
                  "dtype": "float32"
                },
                "class_name": "Zeros"
              },
              "axis": [
                3
              ],
              "beta_constraint": null,
              "name": "block_2_depthwise_BN",
              "moving_variance_initializer": {
                "config": {
                  "dtype": "float32"
                },
                "class_name": "Ones"
              },
              "gamma_initializer": {
                "config": {
                  "dtype": "float32"
                },
                "class_name": "Ones"
              },
              "gamma_regularizer": null,
              "beta_regularizer": null,
              "gamma_constraint": null
            },
            "class_name": "BatchNormalization",
            "inbound_nodes": [
              [
                [
                  "block_2_depthwise",
                  0,
                  0,
                  {}
                ]
              ]
            ]
          },
          {
            "name": "block_2_depthwise_relu",
            "config": {
              "trainable": true,
              "dtype": "float32",
              "name": "block_2_depthwise_relu",
              "max_value":6,
              "negative_slope": {
                "value": 0.0,
                "type": "ndarray"
              },
              "threshold": {
                "value": 0.0,
                "type": "ndarray"
              }
            },
            "class_name": "ReLU",
            "inbound_nodes": [
              [
                [
                  "block_2_depthwise_BN",
                  0,
                  0,
                  {}
                ]
              ]
            ]
          },
          {
            "name": "block_2_project",
            "config": {
              "bias_regularizer": null,
              "trainable": true,
              "bias_initializer": {
                "config": {
                  "dtype": "float32"
                },
                "class_name": "Zeros"
              },
              "kernel_initializer": {
                "config": {
                  "seed": null,
                  "mode": "fan_avg",
                  "dtype": "float32",
                  "distribution": "uniform",
                  "scale": 1.0
                },
                "class_name": "VarianceScaling"
              },
              "dtype": "float32",
              "filters": 24,
              "kernel_constraint": null,
              "dilation_rate": [
                1,
                1
              ],
              "activation": "linear",
              "padding": "same",
              "data_format": "channels_last",
              "use_bias": false,
              "activity_regularizer": null,
              "strides": [
                1,
                1
              ],
              "kernel_size": [
                1,
                1
              ],
              "name": "block_2_project",
              "kernel_regularizer": null,
              "bias_constraint": null
            },
            "class_name": "Conv2D",
            "inbound_nodes": [
              [
                [
                  "block_2_depthwise_relu",
                  0,
                  0,
                  {}
                ]
              ]
            ]
          },
          {
            "name": "block_2_project_BN",
            "config": {
              "beta_initializer": {
                "config": {
                  "dtype": "float32"
                },
                "class_name": "Zeros"
              },
              "trainable": true,
              "epsilon": 0.001,
              "center": true,
              "dtype": "float32",
              "scale": true,
              "momentum": 0.999,
              "moving_mean_initializer": {
                "config": {
                  "dtype": "float32"
                },
                "class_name": "Zeros"
              },
              "axis": [
                3
              ],
              "beta_constraint": null,
              "name": "block_2_project_BN",
              "moving_variance_initializer": {
                "config": {
                  "dtype": "float32"
                },
                "class_name": "Ones"
              },
              "gamma_initializer": {
                "config": {
                  "dtype": "float32"
                },
                "class_name": "Ones"
              },
              "gamma_regularizer": null,
              "beta_regularizer": null,
              "gamma_constraint": null
            },
            "class_name": "BatchNormalization",
            "inbound_nodes": [
              [
                [
                  "block_2_project",
                  0,
                  0,
                  {}
                ]
              ]
            ]
          },
          {
            "name": "block_2_add",
            "config": {
              "name": "block_2_add",
              "trainable": true,
              "dtype": "float32"
            },
            "class_name": "Add",
            "inbound_nodes": [
              [
                [
                  "block_1_project_BN",
                  0,
                  0,
                  {}
                ],
                [
                  "block_2_project_BN",
                  0,
                  0,
                  {}
                ]
              ]
            ]
          },
          {
            "name": "block_3_expand",
            "config": {
              "bias_regularizer": null,
              "trainable": true,
              "bias_initializer": {
                "config": {
                  "dtype": "float32"
                },
                "class_name": "Zeros"
              },
              "kernel_initializer": {
                "config": {
                  "seed": null,
                  "mode": "fan_avg",
                  "dtype": "float32",
                  "distribution": "uniform",
                  "scale": 1.0
                },
                "class_name": "VarianceScaling"
              },
              "dtype": "float32",
              "filters": 144,
              "kernel_constraint": null,
              "dilation_rate": [
                1,
                1
              ],
              "activation": "linear",
              "padding": "same",
              "data_format": "channels_last",
              "use_bias": false,
              "activity_regularizer": null,
              "strides": [
                1,
                1
              ],
              "kernel_size": [
                1,
                1
              ],
              "name": "block_3_expand",
              "kernel_regularizer": null,
              "bias_constraint": null
            },
            "class_name": "Conv2D",
            "inbound_nodes": [
              [
                [
                  "block_2_add",
                  0,
                  0,
                  {}
                ]
              ]
            ]
          },
          {
            "name": "block_3_expand_BN",
            "config": {
              "beta_initializer": {
                "config": {
                  "dtype": "float32"
                },
                "class_name": "Zeros"
              },
              "trainable": true,
              "epsilon": 0.001,
              "center": true,
              "dtype": "float32",
              "scale": true,
              "momentum": 0.999,
              "moving_mean_initializer": {
                "config": {
                  "dtype": "float32"
                },
                "class_name": "Zeros"
              },
              "axis": [
                3
              ],
              "beta_constraint": null,
              "name": "block_3_expand_BN",
              "moving_variance_initializer": {
                "config": {
                  "dtype": "float32"
                },
                "class_name": "Ones"
              },
              "gamma_initializer": {
                "config": {
                  "dtype": "float32"
                },
                "class_name": "Ones"
              },
              "gamma_regularizer": null,
              "beta_regularizer": null,
              "gamma_constraint": null
            },
            "class_name": "BatchNormalization",
            "inbound_nodes": [
              [
                [
                  "block_3_expand",
                  0,
                  0,
                  {}
                ]
              ]
            ]
          },
          {
            "name": "block_3_expand_relu",
            "config": {
              "trainable": true,
              "dtype": "float32",
              "name": "block_3_expand_relu",
              "max_value":6,
              "negative_slope": {
                "value": 0.0,
                "type": "ndarray"
              },
              "threshold": {
                "value": 0.0,
                "type": "ndarray"
              }
            },
            "class_name": "ReLU",
            "inbound_nodes": [
              [
                [
                  "block_3_expand_BN",
                  0,
                  0,
                  {}
                ]
              ]
            ]
          },
          {
            "name": "block_3_pad",
            "config": {
              "name": "block_3_pad",
              "padding": [
                [
                  0,
                  1
                ],
                [
                  0,
                  1
                ]
              ],
              "trainable": true,
              "data_format": "channels_last",
              "dtype": "float32"
            },
            "class_name": "ZeroPadding2D",
            "inbound_nodes": [
              [
                [
                  "block_3_expand_relu",
                  0,
                  0,
                  {}
                ]
              ]
            ]
          },
          {
            "name": "block_3_depthwise",
            "config": {
              "bias_regularizer": null,
              "trainable": true,
              "bias_initializer": {
                "config": {
                  "dtype": "float32"
                },
                "class_name": "Zeros"
              },
              "depthwise_regularizer": null,
              "depthwise_constraint": null,
              "dtype": "float32",
              "dilation_rate": [
                1,
                1
              ],
              "activation": "linear",
              "padding": "valid",
              "data_format": "channels_last",
              "use_bias": false,
              "activity_regularizer": null,
              "strides": [
                2,
                2
              ],
              "kernel_size": [
                3,
                3
              ],
              "name": "block_3_depthwise",
              "depth_multiplier": 1,
              "depthwise_initializer": {
                "config": {
                  "seed": null,
                  "mode": "fan_avg",
                  "dtype": "float32",
                  "distribution": "uniform",
                  "scale": 1.0
                },
                "class_name": "VarianceScaling"
              },
              "bias_constraint": null
            },
            "class_name": "DepthwiseConv2D",
            "inbound_nodes": [
              [
                [
                  "block_3_pad",
                  0,
                  0,
                  {}
                ]
              ]
            ]
          },
          {
            "name": "block_3_depthwise_BN",
            "config": {
              "beta_initializer": {
                "config": {
                  "dtype": "float32"
                },
                "class_name": "Zeros"
              },
              "trainable": true,
              "epsilon": 0.001,
              "center": true,
              "dtype": "float32",
              "scale": true,
              "momentum": 0.999,
              "moving_mean_initializer": {
                "config": {
                  "dtype": "float32"
                },
                "class_name": "Zeros"
              },
              "axis": [
                3
              ],
              "beta_constraint": null,
              "name": "block_3_depthwise_BN",
              "moving_variance_initializer": {
                "config": {
                  "dtype": "float32"
                },
                "class_name": "Ones"
              },
              "gamma_initializer": {
                "config": {
                  "dtype": "float32"
                },
                "class_name": "Ones"
              },
              "gamma_regularizer": null,
              "beta_regularizer": null,
              "gamma_constraint": null
            },
            "class_name": "BatchNormalization",
            "inbound_nodes": [
              [
                [
                  "block_3_depthwise",
                  0,
                  0,
                  {}
                ]
              ]
            ]
          },
          {
            "name": "block_3_depthwise_relu",
            "config": {
              "trainable": true,
              "dtype": "float32",
              "name": "block_3_depthwise_relu",
              "max_value":6,
              "negative_slope": {
                "value": 0.0,
                "type": "ndarray"
              },
              "threshold": {
                "value": 0.0,
                "type": "ndarray"
              }
            },
            "class_name": "ReLU",
            "inbound_nodes": [
              [
                [
                  "block_3_depthwise_BN",
                  0,
                  0,
                  {}
                ]
              ]
            ]
          },
          {
            "name": "block_3_project",
            "config": {
              "bias_regularizer": null,
              "trainable": true,
              "bias_initializer": {
                "config": {
                  "dtype": "float32"
                },
                "class_name": "Zeros"
              },
              "kernel_initializer": {
                "config": {
                  "seed": null,
                  "mode": "fan_avg",
                  "dtype": "float32",
                  "distribution": "uniform",
                  "scale": 1.0
                },
                "class_name": "VarianceScaling"
              },
              "dtype": "float32",
              "filters": 32,
              "kernel_constraint": null,
              "dilation_rate": [
                1,
                1
              ],
              "activation": "linear",
              "padding": "same",
              "data_format": "channels_last",
              "use_bias": false,
              "activity_regularizer": null,
              "strides": [
                1,
                1
              ],
              "kernel_size": [
                1,
                1
              ],
              "name": "block_3_project",
              "kernel_regularizer": null,
              "bias_constraint": null
            },
            "class_name": "Conv2D",
            "inbound_nodes": [
              [
                [
                  "block_3_depthwise_relu",
                  0,
                  0,
                  {}
                ]
              ]
            ]
          },
          {
            "name": "block_3_project_BN",
            "config": {
              "beta_initializer": {
                "config": {
                  "dtype": "float32"
                },
                "class_name": "Zeros"
              },
              "trainable": true,
              "epsilon": 0.001,
              "center": true,
              "dtype": "float32",
              "scale": true,
              "momentum": 0.999,
              "moving_mean_initializer": {
                "config": {
                  "dtype": "float32"
                },
                "class_name": "Zeros"
              },
              "axis": [
                3
              ],
              "beta_constraint": null,
              "name": "block_3_project_BN",
              "moving_variance_initializer": {
                "config": {
                  "dtype": "float32"
                },
                "class_name": "Ones"
              },
              "gamma_initializer": {
                "config": {
                  "dtype": "float32"
                },
                "class_name": "Ones"
              },
              "gamma_regularizer": null,
              "beta_regularizer": null,
              "gamma_constraint": null
            },
            "class_name": "BatchNormalization",
            "inbound_nodes": [
              [
                [
                  "block_3_project",
                  0,
                  0,
                  {}
                ]
              ]
            ]
          },
          {
            "name": "block_4_expand",
            "config": {
              "bias_regularizer": null,
              "trainable": true,
              "bias_initializer": {
                "config": {
                  "dtype": "float32"
                },
                "class_name": "Zeros"
              },
              "kernel_initializer": {
                "config": {
                  "seed": null,
                  "mode": "fan_avg",
                  "dtype": "float32",
                  "distribution": "uniform",
                  "scale": 1.0
                },
                "class_name": "VarianceScaling"
              },
              "dtype": "float32",
              "filters": 192,
              "kernel_constraint": null,
              "dilation_rate": [
                1,
                1
              ],
              "activation": "linear",
              "padding": "same",
              "data_format": "channels_last",
              "use_bias": false,
              "activity_regularizer": null,
              "strides": [
                1,
                1
              ],
              "kernel_size": [
                1,
                1
              ],
              "name": "block_4_expand",
              "kernel_regularizer": null,
              "bias_constraint": null
            },
            "class_name": "Conv2D",
            "inbound_nodes": [
              [
                [
                  "block_3_project_BN",
                  0,
                  0,
                  {}
                ]
              ]
            ]
          },
          {
            "name": "block_4_expand_BN",
            "config": {
              "beta_initializer": {
                "config": {
                  "dtype": "float32"
                },
                "class_name": "Zeros"
              },
              "trainable": true,
              "epsilon": 0.001,
              "center": true,
              "dtype": "float32",
              "scale": true,
              "momentum": 0.999,
              "moving_mean_initializer": {
                "config": {
                  "dtype": "float32"
                },
                "class_name": "Zeros"
              },
              "axis": [
                3
              ],
              "beta_constraint": null,
              "name": "block_4_expand_BN",
              "moving_variance_initializer": {
                "config": {
                  "dtype": "float32"
                },
                "class_name": "Ones"
              },
              "gamma_initializer": {
                "config": {
                  "dtype": "float32"
                },
                "class_name": "Ones"
              },
              "gamma_regularizer": null,
              "beta_regularizer": null,
              "gamma_constraint": null
            },
            "class_name": "BatchNormalization",
            "inbound_nodes": [
              [
                [
                  "block_4_expand",
                  0,
                  0,
                  {}
                ]
              ]
            ]
          },
          {
            "name": "block_4_expand_relu",
            "config": {
              "trainable": true,
              "dtype": "float32",
              "name": "block_4_expand_relu",
              "max_value":6,
              "negative_slope": {
                "value": 0.0,
                "type": "ndarray"
              },
              "threshold": {
                "value": 0.0,
                "type": "ndarray"
              }
            },
            "class_name": "ReLU",
            "inbound_nodes": [
              [
                [
                  "block_4_expand_BN",
                  0,
                  0,
                  {}
                ]
              ]
            ]
          },
          {
            "name": "block_4_depthwise",
            "config": {
              "bias_regularizer": null,
              "trainable": true,
              "bias_initializer": {
                "config": {
                  "dtype": "float32"
                },
                "class_name": "Zeros"
              },
              "depthwise_regularizer": null,
              "depthwise_constraint": null,
              "dtype": "float32",
              "dilation_rate": [
                1,
                1
              ],
              "activation": "linear",
              "padding": "same",
              "data_format": "channels_last",
              "use_bias": false,
              "activity_regularizer": null,
              "strides": [
                1,
                1
              ],
              "kernel_size": [
                3,
                3
              ],
              "name": "block_4_depthwise",
              "depth_multiplier": 1,
              "depthwise_initializer": {
                "config": {
                  "seed": null,
                  "mode": "fan_avg",
                  "dtype": "float32",
                  "distribution": "uniform",
                  "scale": 1.0
                },
                "class_name": "VarianceScaling"
              },
              "bias_constraint": null
            },
            "class_name": "DepthwiseConv2D",
            "inbound_nodes": [
              [
                [
                  "block_4_expand_relu",
                  0,
                  0,
                  {}
                ]
              ]
            ]
          },
          {
            "name": "block_4_depthwise_BN",
            "config": {
              "beta_initializer": {
                "config": {
                  "dtype": "float32"
                },
                "class_name": "Zeros"
              },
              "trainable": true,
              "epsilon": 0.001,
              "center": true,
              "dtype": "float32",
              "scale": true,
              "momentum": 0.999,
              "moving_mean_initializer": {
                "config": {
                  "dtype": "float32"
                },
                "class_name": "Zeros"
              },
              "axis": [
                3
              ],
              "beta_constraint": null,
              "name": "block_4_depthwise_BN",
              "moving_variance_initializer": {
                "config": {
                  "dtype": "float32"
                },
                "class_name": "Ones"
              },
              "gamma_initializer": {
                "config": {
                  "dtype": "float32"
                },
                "class_name": "Ones"
              },
              "gamma_regularizer": null,
              "beta_regularizer": null,
              "gamma_constraint": null
            },
            "class_name": "BatchNormalization",
            "inbound_nodes": [
              [
                [
                  "block_4_depthwise",
                  0,
                  0,
                  {}
                ]
              ]
            ]
          },
          {
            "name": "block_4_depthwise_relu",
            "config": {
              "trainable": true,
              "dtype": "float32",
              "name": "block_4_depthwise_relu",
              "max_value":6,
              "negative_slope": {
                "value": 0.0,
                "type": "ndarray"
              },
              "threshold": {
                "value": 0.0,
                "type": "ndarray"
              }
            },
            "class_name": "ReLU",
            "inbound_nodes": [
              [
                [
                  "block_4_depthwise_BN",
                  0,
                  0,
                  {}
                ]
              ]
            ]
          },
          {
            "name": "block_4_project",
            "config": {
              "bias_regularizer": null,
              "trainable": true,
              "bias_initializer": {
                "config": {
                  "dtype": "float32"
                },
                "class_name": "Zeros"
              },
              "kernel_initializer": {
                "config": {
                  "seed": null,
                  "mode": "fan_avg",
                  "dtype": "float32",
                  "distribution": "uniform",
                  "scale": 1.0
                },
                "class_name": "VarianceScaling"
              },
              "dtype": "float32",
              "filters": 32,
              "kernel_constraint": null,
              "dilation_rate": [
                1,
                1
              ],
              "activation": "linear",
              "padding": "same",
              "data_format": "channels_last",
              "use_bias": false,
              "activity_regularizer": null,
              "strides": [
                1,
                1
              ],
              "kernel_size": [
                1,
                1
              ],
              "name": "block_4_project",
              "kernel_regularizer": null,
              "bias_constraint": null
            },
            "class_name": "Conv2D",
            "inbound_nodes": [
              [
                [
                  "block_4_depthwise_relu",
                  0,
                  0,
                  {}
                ]
              ]
            ]
          },
          {
            "name": "block_4_project_BN",
            "config": {
              "beta_initializer": {
                "config": {
                  "dtype": "float32"
                },
                "class_name": "Zeros"
              },
              "trainable": true,
              "epsilon": 0.001,
              "center": true,
              "dtype": "float32",
              "scale": true,
              "momentum": 0.999,
              "moving_mean_initializer": {
                "config": {
                  "dtype": "float32"
                },
                "class_name": "Zeros"
              },
              "axis": [
                3
              ],
              "beta_constraint": null,
              "name": "block_4_project_BN",
              "moving_variance_initializer": {
                "config": {
                  "dtype": "float32"
                },
                "class_name": "Ones"
              },
              "gamma_initializer": {
                "config": {
                  "dtype": "float32"
                },
                "class_name": "Ones"
              },
              "gamma_regularizer": null,
              "beta_regularizer": null,
              "gamma_constraint": null
            },
            "class_name": "BatchNormalization",
            "inbound_nodes": [
              [
                [
                  "block_4_project",
                  0,
                  0,
                  {}
                ]
              ]
            ]
          },
          {
            "name": "block_4_add",
            "config": {
              "name": "block_4_add",
              "trainable": true,
              "dtype": "float32"
            },
            "class_name": "Add",
            "inbound_nodes": [
              [
                [
                  "block_3_project_BN",
                  0,
                  0,
                  {}
                ],
                [
                  "block_4_project_BN",
                  0,
                  0,
                  {}
                ]
              ]
            ]
          },
          {
            "name": "block_5_expand",
            "config": {
              "bias_regularizer": null,
              "trainable": true,
              "bias_initializer": {
                "config": {
                  "dtype": "float32"
                },
                "class_name": "Zeros"
              },
              "kernel_initializer": {
                "config": {
                  "seed": null,
                  "mode": "fan_avg",
                  "dtype": "float32",
                  "distribution": "uniform",
                  "scale": 1.0
                },
                "class_name": "VarianceScaling"
              },
              "dtype": "float32",
              "filters": 192,
              "kernel_constraint": null,
              "dilation_rate": [
                1,
                1
              ],
              "activation": "linear",
              "padding": "same",
              "data_format": "channels_last",
              "use_bias": false,
              "activity_regularizer": null,
              "strides": [
                1,
                1
              ],
              "kernel_size": [
                1,
                1
              ],
              "name": "block_5_expand",
              "kernel_regularizer": null,
              "bias_constraint": null
            },
            "class_name": "Conv2D",
            "inbound_nodes": [
              [
                [
                  "block_4_add",
                  0,
                  0,
                  {}
                ]
              ]
            ]
          },
          {
            "name": "block_5_expand_BN",
            "config": {
              "beta_initializer": {
                "config": {
                  "dtype": "float32"
                },
                "class_name": "Zeros"
              },
              "trainable": true,
              "epsilon": 0.001,
              "center": true,
              "dtype": "float32",
              "scale": true,
              "momentum": 0.999,
              "moving_mean_initializer": {
                "config": {
                  "dtype": "float32"
                },
                "class_name": "Zeros"
              },
              "axis": [
                3
              ],
              "beta_constraint": null,
              "name": "block_5_expand_BN",
              "moving_variance_initializer": {
                "config": {
                  "dtype": "float32"
                },
                "class_name": "Ones"
              },
              "gamma_initializer": {
                "config": {
                  "dtype": "float32"
                },
                "class_name": "Ones"
              },
              "gamma_regularizer": null,
              "beta_regularizer": null,
              "gamma_constraint": null
            },
            "class_name": "BatchNormalization",
            "inbound_nodes": [
              [
                [
                  "block_5_expand",
                  0,
                  0,
                  {}
                ]
              ]
            ]
          },
          {
            "name": "block_5_expand_relu",
            "config": {
              "trainable": true,
              "dtype": "float32",
              "name": "block_5_expand_relu",
              "max_value":6,
              "negative_slope": {
                "value": 0.0,
                "type": "ndarray"
              },
              "threshold": {
                "value": 0.0,
                "type": "ndarray"
              }
            },
            "class_name": "ReLU",
            "inbound_nodes": [
              [
                [
                  "block_5_expand_BN",
                  0,
                  0,
                  {}
                ]
              ]
            ]
          },
          {
            "name": "block_5_depthwise",
            "config": {
              "bias_regularizer": null,
              "trainable": true,
              "bias_initializer": {
                "config": {
                  "dtype": "float32"
                },
                "class_name": "Zeros"
              },
              "depthwise_regularizer": null,
              "depthwise_constraint": null,
              "dtype": "float32",
              "dilation_rate": [
                1,
                1
              ],
              "activation": "linear",
              "padding": "same",
              "data_format": "channels_last",
              "use_bias": false,
              "activity_regularizer": null,
              "strides": [
                1,
                1
              ],
              "kernel_size": [
                3,
                3
              ],
              "name": "block_5_depthwise",
              "depth_multiplier": 1,
              "depthwise_initializer": {
                "config": {
                  "seed": null,
                  "mode": "fan_avg",
                  "dtype": "float32",
                  "distribution": "uniform",
                  "scale": 1.0
                },
                "class_name": "VarianceScaling"
              },
              "bias_constraint": null
            },
            "class_name": "DepthwiseConv2D",
            "inbound_nodes": [
              [
                [
                  "block_5_expand_relu",
                  0,
                  0,
                  {}
                ]
              ]
            ]
          },
          {
            "name": "block_5_depthwise_BN",
            "config": {
              "beta_initializer": {
                "config": {
                  "dtype": "float32"
                },
                "class_name": "Zeros"
              },
              "trainable": true,
              "epsilon": 0.001,
              "center": true,
              "dtype": "float32",
              "scale": true,
              "momentum": 0.999,
              "moving_mean_initializer": {
                "config": {
                  "dtype": "float32"
                },
                "class_name": "Zeros"
              },
              "axis": [
                3
              ],
              "beta_constraint": null,
              "name": "block_5_depthwise_BN",
              "moving_variance_initializer": {
                "config": {
                  "dtype": "float32"
                },
                "class_name": "Ones"
              },
              "gamma_initializer": {
                "config": {
                  "dtype": "float32"
                },
                "class_name": "Ones"
              },
              "gamma_regularizer": null,
              "beta_regularizer": null,
              "gamma_constraint": null
            },
            "class_name": "BatchNormalization",
            "inbound_nodes": [
              [
                [
                  "block_5_depthwise",
                  0,
                  0,
                  {}
                ]
              ]
            ]
          },
          {
            "name": "block_5_depthwise_relu",
            "config": {
              "trainable": true,
              "dtype": "float32",
              "name": "block_5_depthwise_relu",
              "max_value":6,
              "negative_slope": {
                "value": 0.0,
                "type": "ndarray"
              },
              "threshold": {
                "value": 0.0,
                "type": "ndarray"
              }
            },
            "class_name": "ReLU",
            "inbound_nodes": [
              [
                [
                  "block_5_depthwise_BN",
                  0,
                  0,
                  {}
                ]
              ]
            ]
          },
          {
            "name": "block_5_project",
            "config": {
              "bias_regularizer": null,
              "trainable": true,
              "bias_initializer": {
                "config": {
                  "dtype": "float32"
                },
                "class_name": "Zeros"
              },
              "kernel_initializer": {
                "config": {
                  "seed": null,
                  "mode": "fan_avg",
                  "dtype": "float32",
                  "distribution": "uniform",
                  "scale": 1.0
                },
                "class_name": "VarianceScaling"
              },
              "dtype": "float32",
              "filters": 32,
              "kernel_constraint": null,
              "dilation_rate": [
                1,
                1
              ],
              "activation": "linear",
              "padding": "same",
              "data_format": "channels_last",
              "use_bias": false,
              "activity_regularizer": null,
              "strides": [
                1,
                1
              ],
              "kernel_size": [
                1,
                1
              ],
              "name": "block_5_project",
              "kernel_regularizer": null,
              "bias_constraint": null
            },
            "class_name": "Conv2D",
            "inbound_nodes": [
              [
                [
                  "block_5_depthwise_relu",
                  0,
                  0,
                  {}
                ]
              ]
            ]
          },
          {
            "name": "block_5_project_BN",
            "config": {
              "beta_initializer": {
                "config": {
                  "dtype": "float32"
                },
                "class_name": "Zeros"
              },
              "trainable": true,
              "epsilon": 0.001,
              "center": true,
              "dtype": "float32",
              "scale": true,
              "momentum": 0.999,
              "moving_mean_initializer": {
                "config": {
                  "dtype": "float32"
                },
                "class_name": "Zeros"
              },
              "axis": [
                3
              ],
              "beta_constraint": null,
              "name": "block_5_project_BN",
              "moving_variance_initializer": {
                "config": {
                  "dtype": "float32"
                },
                "class_name": "Ones"
              },
              "gamma_initializer": {
                "config": {
                  "dtype": "float32"
                },
                "class_name": "Ones"
              },
              "gamma_regularizer": null,
              "beta_regularizer": null,
              "gamma_constraint": null
            },
            "class_name": "BatchNormalization",
            "inbound_nodes": [
              [
                [
                  "block_5_project",
                  0,
                  0,
                  {}
                ]
              ]
            ]
          },
          {
            "name": "block_5_add",
            "config": {
              "name": "block_5_add",
              "trainable": true,
              "dtype": "float32"
            },
            "class_name": "Add",
            "inbound_nodes": [
              [
                [
                  "block_4_add",
                  0,
                  0,
                  {}
                ],
                [
                  "block_5_project_BN",
                  0,
                  0,
                  {}
                ]
              ]
            ]
          },
          {
            "name": "block_6_expand",
            "config": {
              "bias_regularizer": null,
              "trainable": true,
              "bias_initializer": {
                "config": {
                  "dtype": "float32"
                },
                "class_name": "Zeros"
              },
              "kernel_initializer": {
                "config": {
                  "seed": null,
                  "mode": "fan_avg",
                  "dtype": "float32",
                  "distribution": "uniform",
                  "scale": 1.0
                },
                "class_name": "VarianceScaling"
              },
              "dtype": "float32",
              "filters": 192,
              "kernel_constraint": null,
              "dilation_rate": [
                1,
                1
              ],
              "activation": "linear",
              "padding": "same",
              "data_format": "channels_last",
              "use_bias": false,
              "activity_regularizer": null,
              "strides": [
                1,
                1
              ],
              "kernel_size": [
                1,
                1
              ],
              "name": "block_6_expand",
              "kernel_regularizer": null,
              "bias_constraint": null
            },
            "class_name": "Conv2D",
            "inbound_nodes": [
              [
                [
                  "block_5_add",
                  0,
                  0,
                  {}
                ]
              ]
            ]
          },
          {
            "name": "block_6_expand_BN",
            "config": {
              "beta_initializer": {
                "config": {
                  "dtype": "float32"
                },
                "class_name": "Zeros"
              },
              "trainable": true,
              "epsilon": 0.001,
              "center": true,
              "dtype": "float32",
              "scale": true,
              "momentum": 0.999,
              "moving_mean_initializer": {
                "config": {
                  "dtype": "float32"
                },
                "class_name": "Zeros"
              },
              "axis": [
                3
              ],
              "beta_constraint": null,
              "name": "block_6_expand_BN",
              "moving_variance_initializer": {
                "config": {
                  "dtype": "float32"
                },
                "class_name": "Ones"
              },
              "gamma_initializer": {
                "config": {
                  "dtype": "float32"
                },
                "class_name": "Ones"
              },
              "gamma_regularizer": null,
              "beta_regularizer": null,
              "gamma_constraint": null
            },
            "class_name": "BatchNormalization",
            "inbound_nodes": [
              [
                [
                  "block_6_expand",
                  0,
                  0,
                  {}
                ]
              ]
            ]
          },
          {
            "name": "block_6_expand_relu",
            "config": {
              "trainable": true,
              "dtype": "float32",
              "name": "block_6_expand_relu",
              "max_value":6,
              "negative_slope": {
                "value": 0.0,
                "type": "ndarray"
              },
              "threshold": {
                "value": 0.0,
                "type": "ndarray"
              }
            },
            "class_name": "ReLU",
            "inbound_nodes": [
              [
                [
                  "block_6_expand_BN",
                  0,
                  0,
                  {}
                ]
              ]
            ]
          },
          {
            "name": "block_6_pad",
            "config": {
              "name": "block_6_pad",
              "padding": [
                [
                  0,
                  1
                ],
                [
                  0,
                  1
                ]
              ],
              "trainable": true,
              "data_format": "channels_last",
              "dtype": "float32"
            },
            "class_name": "ZeroPadding2D",
            "inbound_nodes": [
              [
                [
                  "block_6_expand_relu",
                  0,
                  0,
                  {}
                ]
              ]
            ]
          },
          {
            "name": "block_6_depthwise",
            "config": {
              "bias_regularizer": null,
              "trainable": true,
              "bias_initializer": {
                "config": {
                  "dtype": "float32"
                },
                "class_name": "Zeros"
              },
              "depthwise_regularizer": null,
              "depthwise_constraint": null,
              "dtype": "float32",
              "dilation_rate": [
                1,
                1
              ],
              "activation": "linear",
              "padding": "valid",
              "data_format": "channels_last",
              "use_bias": false,
              "activity_regularizer": null,
              "strides": [
                2,
                2
              ],
              "kernel_size": [
                3,
                3
              ],
              "name": "block_6_depthwise",
              "depth_multiplier": 1,
              "depthwise_initializer": {
                "config": {
                  "seed": null,
                  "mode": "fan_avg",
                  "dtype": "float32",
                  "distribution": "uniform",
                  "scale": 1.0
                },
                "class_name": "VarianceScaling"
              },
              "bias_constraint": null
            },
            "class_name": "DepthwiseConv2D",
            "inbound_nodes": [
              [
                [
                  "block_6_pad",
                  0,
                  0,
                  {}
                ]
              ]
            ]
          },
          {
            "name": "block_6_depthwise_BN",
            "config": {
              "beta_initializer": {
                "config": {
                  "dtype": "float32"
                },
                "class_name": "Zeros"
              },
              "trainable": true,
              "epsilon": 0.001,
              "center": true,
              "dtype": "float32",
              "scale": true,
              "momentum": 0.999,
              "moving_mean_initializer": {
                "config": {
                  "dtype": "float32"
                },
                "class_name": "Zeros"
              },
              "axis": [
                3
              ],
              "beta_constraint": null,
              "name": "block_6_depthwise_BN",
              "moving_variance_initializer": {
                "config": {
                  "dtype": "float32"
                },
                "class_name": "Ones"
              },
              "gamma_initializer": {
                "config": {
                  "dtype": "float32"
                },
                "class_name": "Ones"
              },
              "gamma_regularizer": null,
              "beta_regularizer": null,
              "gamma_constraint": null
            },
            "class_name": "BatchNormalization",
            "inbound_nodes": [
              [
                [
                  "block_6_depthwise",
                  0,
                  0,
                  {}
                ]
              ]
            ]
          },
          {
            "name": "block_6_depthwise_relu",
            "config": {
              "trainable": true,
              "dtype": "float32",
              "name": "block_6_depthwise_relu",
              "max_value":6,
              "negative_slope": {
                "value": 0.0,
                "type": "ndarray"
              },
              "threshold": {
                "value": 0.0,
                "type": "ndarray"
              }
            },
            "class_name": "ReLU",
            "inbound_nodes": [
              [
                [
                  "block_6_depthwise_BN",
                  0,
                  0,
                  {}
                ]
              ]
            ]
          },
          {
            "name": "block_6_project",
            "config": {
              "bias_regularizer": null,
              "trainable": true,
              "bias_initializer": {
                "config": {
                  "dtype": "float32"
                },
                "class_name": "Zeros"
              },
              "kernel_initializer": {
                "config": {
                  "seed": null,
                  "mode": "fan_avg",
                  "dtype": "float32",
                  "distribution": "uniform",
                  "scale": 1.0
                },
                "class_name": "VarianceScaling"
              },
              "dtype": "float32",
              "filters": 64,
              "kernel_constraint": null,
              "dilation_rate": [
                1,
                1
              ],
              "activation": "linear",
              "padding": "same",
              "data_format": "channels_last",
              "use_bias": false,
              "activity_regularizer": null,
              "strides": [
                1,
                1
              ],
              "kernel_size": [
                1,
                1
              ],
              "name": "block_6_project",
              "kernel_regularizer": null,
              "bias_constraint": null
            },
            "class_name": "Conv2D",
            "inbound_nodes": [
              [
                [
                  "block_6_depthwise_relu",
                  0,
                  0,
                  {}
                ]
              ]
            ]
          },
          {
            "name": "block_6_project_BN",
            "config": {
              "beta_initializer": {
                "config": {
                  "dtype": "float32"
                },
                "class_name": "Zeros"
              },
              "trainable": true,
              "epsilon": 0.001,
              "center": true,
              "dtype": "float32",
              "scale": true,
              "momentum": 0.999,
              "moving_mean_initializer": {
                "config": {
                  "dtype": "float32"
                },
                "class_name": "Zeros"
              },
              "axis": [
                3
              ],
              "beta_constraint": null,
              "name": "block_6_project_BN",
              "moving_variance_initializer": {
                "config": {
                  "dtype": "float32"
                },
                "class_name": "Ones"
              },
              "gamma_initializer": {
                "config": {
                  "dtype": "float32"
                },
                "class_name": "Ones"
              },
              "gamma_regularizer": null,
              "beta_regularizer": null,
              "gamma_constraint": null
            },
            "class_name": "BatchNormalization",
            "inbound_nodes": [
              [
                [
                  "block_6_project",
                  0,
                  0,
                  {}
                ]
              ]
            ]
          },
          {
            "name": "block_7_expand",
            "config": {
              "bias_regularizer": null,
              "trainable": true,
              "bias_initializer": {
                "config": {
                  "dtype": "float32"
                },
                "class_name": "Zeros"
              },
              "kernel_initializer": {
                "config": {
                  "seed": null,
                  "mode": "fan_avg",
                  "dtype": "float32",
                  "distribution": "uniform",
                  "scale": 1.0
                },
                "class_name": "VarianceScaling"
              },
              "dtype": "float32",
              "filters": 384,
              "kernel_constraint": null,
              "dilation_rate": [
                1,
                1
              ],
              "activation": "linear",
              "padding": "same",
              "data_format": "channels_last",
              "use_bias": false,
              "activity_regularizer": null,
              "strides": [
                1,
                1
              ],
              "kernel_size": [
                1,
                1
              ],
              "name": "block_7_expand",
              "kernel_regularizer": null,
              "bias_constraint": null
            },
            "class_name": "Conv2D",
            "inbound_nodes": [
              [
                [
                  "block_6_project_BN",
                  0,
                  0,
                  {}
                ]
              ]
            ]
          },
          {
            "name": "block_7_expand_BN",
            "config": {
              "beta_initializer": {
                "config": {
                  "dtype": "float32"
                },
                "class_name": "Zeros"
              },
              "trainable": true,
              "epsilon": 0.001,
              "center": true,
              "dtype": "float32",
              "scale": true,
              "momentum": 0.999,
              "moving_mean_initializer": {
                "config": {
                  "dtype": "float32"
                },
                "class_name": "Zeros"
              },
              "axis": [
                3
              ],
              "beta_constraint": null,
              "name": "block_7_expand_BN",
              "moving_variance_initializer": {
                "config": {
                  "dtype": "float32"
                },
                "class_name": "Ones"
              },
              "gamma_initializer": {
                "config": {
                  "dtype": "float32"
                },
                "class_name": "Ones"
              },
              "gamma_regularizer": null,
              "beta_regularizer": null,
              "gamma_constraint": null
            },
            "class_name": "BatchNormalization",
            "inbound_nodes": [
              [
                [
                  "block_7_expand",
                  0,
                  0,
                  {}
                ]
              ]
            ]
          },
          {
            "name": "block_7_expand_relu",
            "config": {
              "trainable": true,
              "dtype": "float32",
              "name": "block_7_expand_relu",
              "max_value":6,
              "negative_slope": {
                "value": 0.0,
                "type": "ndarray"
              },
              "threshold": {
                "value": 0.0,
                "type": "ndarray"
              }
            },
            "class_name": "ReLU",
            "inbound_nodes": [
              [
                [
                  "block_7_expand_BN",
                  0,
                  0,
                  {}
                ]
              ]
            ]
          },
          {
            "name": "block_7_depthwise",
            "config": {
              "bias_regularizer": null,
              "trainable": true,
              "bias_initializer": {
                "config": {
                  "dtype": "float32"
                },
                "class_name": "Zeros"
              },
              "depthwise_regularizer": null,
              "depthwise_constraint": null,
              "dtype": "float32",
              "dilation_rate": [
                1,
                1
              ],
              "activation": "linear",
              "padding": "same",
              "data_format": "channels_last",
              "use_bias": false,
              "activity_regularizer": null,
              "strides": [
                1,
                1
              ],
              "kernel_size": [
                3,
                3
              ],
              "name": "block_7_depthwise",
              "depth_multiplier": 1,
              "depthwise_initializer": {
                "config": {
                  "seed": null,
                  "mode": "fan_avg",
                  "dtype": "float32",
                  "distribution": "uniform",
                  "scale": 1.0
                },
                "class_name": "VarianceScaling"
              },
              "bias_constraint": null
            },
            "class_name": "DepthwiseConv2D",
            "inbound_nodes": [
              [
                [
                  "block_7_expand_relu",
                  0,
                  0,
                  {}
                ]
              ]
            ]
          },
          {
            "name": "block_7_depthwise_BN",
            "config": {
              "beta_initializer": {
                "config": {
                  "dtype": "float32"
                },
                "class_name": "Zeros"
              },
              "trainable": true,
              "epsilon": 0.001,
              "center": true,
              "dtype": "float32",
              "scale": true,
              "momentum": 0.999,
              "moving_mean_initializer": {
                "config": {
                  "dtype": "float32"
                },
                "class_name": "Zeros"
              },
              "axis": [
                3
              ],
              "beta_constraint": null,
              "name": "block_7_depthwise_BN",
              "moving_variance_initializer": {
                "config": {
                  "dtype": "float32"
                },
                "class_name": "Ones"
              },
              "gamma_initializer": {
                "config": {
                  "dtype": "float32"
                },
                "class_name": "Ones"
              },
              "gamma_regularizer": null,
              "beta_regularizer": null,
              "gamma_constraint": null
            },
            "class_name": "BatchNormalization",
            "inbound_nodes": [
              [
                [
                  "block_7_depthwise",
                  0,
                  0,
                  {}
                ]
              ]
            ]
          },
          {
            "name": "block_7_depthwise_relu",
            "config": {
              "trainable": true,
              "dtype": "float32",
              "name": "block_7_depthwise_relu",
              "max_value":6,
              "negative_slope": {
                "value": 0.0,
                "type": "ndarray"
              },
              "threshold": {
                "value": 0.0,
                "type": "ndarray"
              }
            },
            "class_name": "ReLU",
            "inbound_nodes": [
              [
                [
                  "block_7_depthwise_BN",
                  0,
                  0,
                  {}
                ]
              ]
            ]
          },
          {
            "name": "block_7_project",
            "config": {
              "bias_regularizer": null,
              "trainable": true,
              "bias_initializer": {
                "config": {
                  "dtype": "float32"
                },
                "class_name": "Zeros"
              },
              "kernel_initializer": {
                "config": {
                  "seed": null,
                  "mode": "fan_avg",
                  "dtype": "float32",
                  "distribution": "uniform",
                  "scale": 1.0
                },
                "class_name": "VarianceScaling"
              },
              "dtype": "float32",
              "filters": 64,
              "kernel_constraint": null,
              "dilation_rate": [
                1,
                1
              ],
              "activation": "linear",
              "padding": "same",
              "data_format": "channels_last",
              "use_bias": false,
              "activity_regularizer": null,
              "strides": [
                1,
                1
              ],
              "kernel_size": [
                1,
                1
              ],
              "name": "block_7_project",
              "kernel_regularizer": null,
              "bias_constraint": null
            },
            "class_name": "Conv2D",
            "inbound_nodes": [
              [
                [
                  "block_7_depthwise_relu",
                  0,
                  0,
                  {}
                ]
              ]
            ]
          },
          {
            "name": "block_7_project_BN",
            "config": {
              "beta_initializer": {
                "config": {
                  "dtype": "float32"
                },
                "class_name": "Zeros"
              },
              "trainable": true,
              "epsilon": 0.001,
              "center": true,
              "dtype": "float32",
              "scale": true,
              "momentum": 0.999,
              "moving_mean_initializer": {
                "config": {
                  "dtype": "float32"
                },
                "class_name": "Zeros"
              },
              "axis": [
                3
              ],
              "beta_constraint": null,
              "name": "block_7_project_BN",
              "moving_variance_initializer": {
                "config": {
                  "dtype": "float32"
                },
                "class_name": "Ones"
              },
              "gamma_initializer": {
                "config": {
                  "dtype": "float32"
                },
                "class_name": "Ones"
              },
              "gamma_regularizer": null,
              "beta_regularizer": null,
              "gamma_constraint": null
            },
            "class_name": "BatchNormalization",
            "inbound_nodes": [
              [
                [
                  "block_7_project",
                  0,
                  0,
                  {}
                ]
              ]
            ]
          },
          {
            "name": "block_7_add",
            "config": {
              "name": "block_7_add",
              "trainable": true,
              "dtype": "float32"
            },
            "class_name": "Add",
            "inbound_nodes": [
              [
                [
                  "block_6_project_BN",
                  0,
                  0,
                  {}
                ],
                [
                  "block_7_project_BN",
                  0,
                  0,
                  {}
                ]
              ]
            ]
          },
          {
            "name": "block_8_expand",
            "config": {
              "bias_regularizer": null,
              "trainable": true,
              "bias_initializer": {
                "config": {
                  "dtype": "float32"
                },
                "class_name": "Zeros"
              },
              "kernel_initializer": {
                "config": {
                  "seed": null,
                  "mode": "fan_avg",
                  "dtype": "float32",
                  "distribution": "uniform",
                  "scale": 1.0
                },
                "class_name": "VarianceScaling"
              },
              "dtype": "float32",
              "filters": 384,
              "kernel_constraint": null,
              "dilation_rate": [
                1,
                1
              ],
              "activation": "linear",
              "padding": "same",
              "data_format": "channels_last",
              "use_bias": false,
              "activity_regularizer": null,
              "strides": [
                1,
                1
              ],
              "kernel_size": [
                1,
                1
              ],
              "name": "block_8_expand",
              "kernel_regularizer": null,
              "bias_constraint": null
            },
            "class_name": "Conv2D",
            "inbound_nodes": [
              [
                [
                  "block_7_add",
                  0,
                  0,
                  {}
                ]
              ]
            ]
          },
          {
            "name": "block_8_expand_BN",
            "config": {
              "beta_initializer": {
                "config": {
                  "dtype": "float32"
                },
                "class_name": "Zeros"
              },
              "trainable": true,
              "epsilon": 0.001,
              "center": true,
              "dtype": "float32",
              "scale": true,
              "momentum": 0.999,
              "moving_mean_initializer": {
                "config": {
                  "dtype": "float32"
                },
                "class_name": "Zeros"
              },
              "axis": [
                3
              ],
              "beta_constraint": null,
              "name": "block_8_expand_BN",
              "moving_variance_initializer": {
                "config": {
                  "dtype": "float32"
                },
                "class_name": "Ones"
              },
              "gamma_initializer": {
                "config": {
                  "dtype": "float32"
                },
                "class_name": "Ones"
              },
              "gamma_regularizer": null,
              "beta_regularizer": null,
              "gamma_constraint": null
            },
            "class_name": "BatchNormalization",
            "inbound_nodes": [
              [
                [
                  "block_8_expand",
                  0,
                  0,
                  {}
                ]
              ]
            ]
          },
          {
            "name": "block_8_expand_relu",
            "config": {
              "trainable": true,
              "dtype": "float32",
              "name": "block_8_expand_relu",
              "max_value":6,
              "negative_slope": {
                "value": 0.0,
                "type": "ndarray"
              },
              "threshold": {
                "value": 0.0,
                "type": "ndarray"
              }
            },
            "class_name": "ReLU",
            "inbound_nodes": [
              [
                [
                  "block_8_expand_BN",
                  0,
                  0,
                  {}
                ]
              ]
            ]
          },
          {
            "name": "block_8_depthwise",
            "config": {
              "bias_regularizer": null,
              "trainable": true,
              "bias_initializer": {
                "config": {
                  "dtype": "float32"
                },
                "class_name": "Zeros"
              },
              "depthwise_regularizer": null,
              "depthwise_constraint": null,
              "dtype": "float32",
              "dilation_rate": [
                1,
                1
              ],
              "activation": "linear",
              "padding": "same",
              "data_format": "channels_last",
              "use_bias": false,
              "activity_regularizer": null,
              "strides": [
                1,
                1
              ],
              "kernel_size": [
                3,
                3
              ],
              "name": "block_8_depthwise",
              "depth_multiplier": 1,
              "depthwise_initializer": {
                "config": {
                  "seed": null,
                  "mode": "fan_avg",
                  "dtype": "float32",
                  "distribution": "uniform",
                  "scale": 1.0
                },
                "class_name": "VarianceScaling"
              },
              "bias_constraint": null
            },
            "class_name": "DepthwiseConv2D",
            "inbound_nodes": [
              [
                [
                  "block_8_expand_relu",
                  0,
                  0,
                  {}
                ]
              ]
            ]
          },
          {
            "name": "block_8_depthwise_BN",
            "config": {
              "beta_initializer": {
                "config": {
                  "dtype": "float32"
                },
                "class_name": "Zeros"
              },
              "trainable": true,
              "epsilon": 0.001,
              "center": true,
              "dtype": "float32",
              "scale": true,
              "momentum": 0.999,
              "moving_mean_initializer": {
                "config": {
                  "dtype": "float32"
                },
                "class_name": "Zeros"
              },
              "axis": [
                3
              ],
              "beta_constraint": null,
              "name": "block_8_depthwise_BN",
              "moving_variance_initializer": {
                "config": {
                  "dtype": "float32"
                },
                "class_name": "Ones"
              },
              "gamma_initializer": {
                "config": {
                  "dtype": "float32"
                },
                "class_name": "Ones"
              },
              "gamma_regularizer": null,
              "beta_regularizer": null,
              "gamma_constraint": null
            },
            "class_name": "BatchNormalization",
            "inbound_nodes": [
              [
                [
                  "block_8_depthwise",
                  0,
                  0,
                  {}
                ]
              ]
            ]
          },
          {
            "name": "block_8_depthwise_relu",
            "config": {
              "trainable": true,
              "dtype": "float32",
              "name": "block_8_depthwise_relu",
              "max_value":6,
              "negative_slope": {
                "value": 0.0,
                "type": "ndarray"
              },
              "threshold": {
                "value": 0.0,
                "type": "ndarray"
              }
            },
            "class_name": "ReLU",
            "inbound_nodes": [
              [
                [
                  "block_8_depthwise_BN",
                  0,
                  0,
                  {}
                ]
              ]
            ]
          },
          {
            "name": "block_8_project",
            "config": {
              "bias_regularizer": null,
              "trainable": true,
              "bias_initializer": {
                "config": {
                  "dtype": "float32"
                },
                "class_name": "Zeros"
              },
              "kernel_initializer": {
                "config": {
                  "seed": null,
                  "mode": "fan_avg",
                  "dtype": "float32",
                  "distribution": "uniform",
                  "scale": 1.0
                },
                "class_name": "VarianceScaling"
              },
              "dtype": "float32",
              "filters": 64,
              "kernel_constraint": null,
              "dilation_rate": [
                1,
                1
              ],
              "activation": "linear",
              "padding": "same",
              "data_format": "channels_last",
              "use_bias": false,
              "activity_regularizer": null,
              "strides": [
                1,
                1
              ],
              "kernel_size": [
                1,
                1
              ],
              "name": "block_8_project",
              "kernel_regularizer": null,
              "bias_constraint": null
            },
            "class_name": "Conv2D",
            "inbound_nodes": [
              [
                [
                  "block_8_depthwise_relu",
                  0,
                  0,
                  {}
                ]
              ]
            ]
          },
          {
            "name": "block_8_project_BN",
            "config": {
              "beta_initializer": {
                "config": {
                  "dtype": "float32"
                },
                "class_name": "Zeros"
              },
              "trainable": true,
              "epsilon": 0.001,
              "center": true,
              "dtype": "float32",
              "scale": true,
              "momentum": 0.999,
              "moving_mean_initializer": {
                "config": {
                  "dtype": "float32"
                },
                "class_name": "Zeros"
              },
              "axis": [
                3
              ],
              "beta_constraint": null,
              "name": "block_8_project_BN",
              "moving_variance_initializer": {
                "config": {
                  "dtype": "float32"
                },
                "class_name": "Ones"
              },
              "gamma_initializer": {
                "config": {
                  "dtype": "float32"
                },
                "class_name": "Ones"
              },
              "gamma_regularizer": null,
              "beta_regularizer": null,
              "gamma_constraint": null
            },
            "class_name": "BatchNormalization",
            "inbound_nodes": [
              [
                [
                  "block_8_project",
                  0,
                  0,
                  {}
                ]
              ]
            ]
          },
          {
            "name": "block_8_add",
            "config": {
              "name": "block_8_add",
              "trainable": true,
              "dtype": "float32"
            },
            "class_name": "Add",
            "inbound_nodes": [
              [
                [
                  "block_7_add",
                  0,
                  0,
                  {}
                ],
                [
                  "block_8_project_BN",
                  0,
                  0,
                  {}
                ]
              ]
            ]
          },
          {
            "name": "block_9_expand",
            "config": {
              "bias_regularizer": null,
              "trainable": true,
              "bias_initializer": {
                "config": {
                  "dtype": "float32"
                },
                "class_name": "Zeros"
              },
              "kernel_initializer": {
                "config": {
                  "seed": null,
                  "mode": "fan_avg",
                  "dtype": "float32",
                  "distribution": "uniform",
                  "scale": 1.0
                },
                "class_name": "VarianceScaling"
              },
              "dtype": "float32",
              "filters": 384,
              "kernel_constraint": null,
              "dilation_rate": [
                1,
                1
              ],
              "activation": "linear",
              "padding": "same",
              "data_format": "channels_last",
              "use_bias": false,
              "activity_regularizer": null,
              "strides": [
                1,
                1
              ],
              "kernel_size": [
                1,
                1
              ],
              "name": "block_9_expand",
              "kernel_regularizer": null,
              "bias_constraint": null
            },
            "class_name": "Conv2D",
            "inbound_nodes": [
              [
                [
                  "block_8_add",
                  0,
                  0,
                  {}
                ]
              ]
            ]
          },
          {
            "name": "block_9_expand_BN",
            "config": {
              "beta_initializer": {
                "config": {
                  "dtype": "float32"
                },
                "class_name": "Zeros"
              },
              "trainable": true,
              "epsilon": 0.001,
              "center": true,
              "dtype": "float32",
              "scale": true,
              "momentum": 0.999,
              "moving_mean_initializer": {
                "config": {
                  "dtype": "float32"
                },
                "class_name": "Zeros"
              },
              "axis": [
                3
              ],
              "beta_constraint": null,
              "name": "block_9_expand_BN",
              "moving_variance_initializer": {
                "config": {
                  "dtype": "float32"
                },
                "class_name": "Ones"
              },
              "gamma_initializer": {
                "config": {
                  "dtype": "float32"
                },
                "class_name": "Ones"
              },
              "gamma_regularizer": null,
              "beta_regularizer": null,
              "gamma_constraint": null
            },
            "class_name": "BatchNormalization",
            "inbound_nodes": [
              [
                [
                  "block_9_expand",
                  0,
                  0,
                  {}
                ]
              ]
            ]
          },
          {
            "name": "block_9_expand_relu",
            "config": {
              "trainable": true,
              "dtype": "float32",
              "name": "block_9_expand_relu",
              "max_value":6,
              "negative_slope": {
                "value": 0.0,
                "type": "ndarray"
              },
              "threshold": {
                "value": 0.0,
                "type": "ndarray"
              }
            },
            "class_name": "ReLU",
            "inbound_nodes": [
              [
                [
                  "block_9_expand_BN",
                  0,
                  0,
                  {}
                ]
              ]
            ]
          },
          {
            "name": "block_9_depthwise",
            "config": {
              "bias_regularizer": null,
              "trainable": true,
              "bias_initializer": {
                "config": {
                  "dtype": "float32"
                },
                "class_name": "Zeros"
              },
              "depthwise_regularizer": null,
              "depthwise_constraint": null,
              "dtype": "float32",
              "dilation_rate": [
                1,
                1
              ],
              "activation": "linear",
              "padding": "same",
              "data_format": "channels_last",
              "use_bias": false,
              "activity_regularizer": null,
              "strides": [
                1,
                1
              ],
              "kernel_size": [
                3,
                3
              ],
              "name": "block_9_depthwise",
              "depth_multiplier": 1,
              "depthwise_initializer": {
                "config": {
                  "seed": null,
                  "mode": "fan_avg",
                  "dtype": "float32",
                  "distribution": "uniform",
                  "scale": 1.0
                },
                "class_name": "VarianceScaling"
              },
              "bias_constraint": null
            },
            "class_name": "DepthwiseConv2D",
            "inbound_nodes": [
              [
                [
                  "block_9_expand_relu",
                  0,
                  0,
                  {}
                ]
              ]
            ]
          },
          {
            "name": "block_9_depthwise_BN",
            "config": {
              "beta_initializer": {
                "config": {
                  "dtype": "float32"
                },
                "class_name": "Zeros"
              },
              "trainable": true,
              "epsilon": 0.001,
              "center": true,
              "dtype": "float32",
              "scale": true,
              "momentum": 0.999,
              "moving_mean_initializer": {
                "config": {
                  "dtype": "float32"
                },
                "class_name": "Zeros"
              },
              "axis": [
                3
              ],
              "beta_constraint": null,
              "name": "block_9_depthwise_BN",
              "moving_variance_initializer": {
                "config": {
                  "dtype": "float32"
                },
                "class_name": "Ones"
              },
              "gamma_initializer": {
                "config": {
                  "dtype": "float32"
                },
                "class_name": "Ones"
              },
              "gamma_regularizer": null,
              "beta_regularizer": null,
              "gamma_constraint": null
            },
            "class_name": "BatchNormalization",
            "inbound_nodes": [
              [
                [
                  "block_9_depthwise",
                  0,
                  0,
                  {}
                ]
              ]
            ]
          },
          {
            "name": "block_9_depthwise_relu",
            "config": {
              "trainable": true,
              "dtype": "float32",
              "name": "block_9_depthwise_relu",
              "max_value":6,
              "negative_slope": {
                "value": 0.0,
                "type": "ndarray"
              },
              "threshold": {
                "value": 0.0,
                "type": "ndarray"
              }
            },
            "class_name": "ReLU",
            "inbound_nodes": [
              [
                [
                  "block_9_depthwise_BN",
                  0,
                  0,
                  {}
                ]
              ]
            ]
          },
          {
            "name": "block_9_project",
            "config": {
              "bias_regularizer": null,
              "trainable": true,
              "bias_initializer": {
                "config": {
                  "dtype": "float32"
                },
                "class_name": "Zeros"
              },
              "kernel_initializer": {
                "config": {
                  "seed": null,
                  "mode": "fan_avg",
                  "dtype": "float32",
                  "distribution": "uniform",
                  "scale": 1.0
                },
                "class_name": "VarianceScaling"
              },
              "dtype": "float32",
              "filters": 64,
              "kernel_constraint": null,
              "dilation_rate": [
                1,
                1
              ],
              "activation": "linear",
              "padding": "same",
              "data_format": "channels_last",
              "use_bias": false,
              "activity_regularizer": null,
              "strides": [
                1,
                1
              ],
              "kernel_size": [
                1,
                1
              ],
              "name": "block_9_project",
              "kernel_regularizer": null,
              "bias_constraint": null
            },
            "class_name": "Conv2D",
            "inbound_nodes": [
              [
                [
                  "block_9_depthwise_relu",
                  0,
                  0,
                  {}
                ]
              ]
            ]
          },
          {
            "name": "block_9_project_BN",
            "config": {
              "beta_initializer": {
                "config": {
                  "dtype": "float32"
                },
                "class_name": "Zeros"
              },
              "trainable": true,
              "epsilon": 0.001,
              "center": true,
              "dtype": "float32",
              "scale": true,
              "momentum": 0.999,
              "moving_mean_initializer": {
                "config": {
                  "dtype": "float32"
                },
                "class_name": "Zeros"
              },
              "axis": [
                3
              ],
              "beta_constraint": null,
              "name": "block_9_project_BN",
              "moving_variance_initializer": {
                "config": {
                  "dtype": "float32"
                },
                "class_name": "Ones"
              },
              "gamma_initializer": {
                "config": {
                  "dtype": "float32"
                },
                "class_name": "Ones"
              },
              "gamma_regularizer": null,
              "beta_regularizer": null,
              "gamma_constraint": null
            },
            "class_name": "BatchNormalization",
            "inbound_nodes": [
              [
                [
                  "block_9_project",
                  0,
                  0,
                  {}
                ]
              ]
            ]
          },
          {
            "name": "block_9_add",
            "config": {
              "name": "block_9_add",
              "trainable": true,
              "dtype": "float32"
            },
            "class_name": "Add",
            "inbound_nodes": [
              [
                [
                  "block_8_add",
                  0,
                  0,
                  {}
                ],
                [
                  "block_9_project_BN",
                  0,
                  0,
                  {}
                ]
              ]
            ]
          },
          {
            "name": "block_10_expand",
            "config": {
              "bias_regularizer": null,
              "trainable": true,
              "bias_initializer": {
                "config": {
                  "dtype": "float32"
                },
                "class_name": "Zeros"
              },
              "kernel_initializer": {
                "config": {
                  "seed": null,
                  "mode": "fan_avg",
                  "dtype": "float32",
                  "distribution": "uniform",
                  "scale": 1.0
                },
                "class_name": "VarianceScaling"
              },
              "dtype": "float32",
              "filters": 384,
              "kernel_constraint": null,
              "dilation_rate": [
                1,
                1
              ],
              "activation": "linear",
              "padding": "same",
              "data_format": "channels_last",
              "use_bias": false,
              "activity_regularizer": null,
              "strides": [
                1,
                1
              ],
              "kernel_size": [
                1,
                1
              ],
              "name": "block_10_expand",
              "kernel_regularizer": null,
              "bias_constraint": null
            },
            "class_name": "Conv2D",
            "inbound_nodes": [
              [
                [
                  "block_9_add",
                  0,
                  0,
                  {}
                ]
              ]
            ]
          },
          {
            "name": "block_10_expand_BN",
            "config": {
              "beta_initializer": {
                "config": {
                  "dtype": "float32"
                },
                "class_name": "Zeros"
              },
              "trainable": true,
              "epsilon": 0.001,
              "center": true,
              "dtype": "float32",
              "scale": true,
              "momentum": 0.999,
              "moving_mean_initializer": {
                "config": {
                  "dtype": "float32"
                },
                "class_name": "Zeros"
              },
              "axis": [
                3
              ],
              "beta_constraint": null,
              "name": "block_10_expand_BN",
              "moving_variance_initializer": {
                "config": {
                  "dtype": "float32"
                },
                "class_name": "Ones"
              },
              "gamma_initializer": {
                "config": {
                  "dtype": "float32"
                },
                "class_name": "Ones"
              },
              "gamma_regularizer": null,
              "beta_regularizer": null,
              "gamma_constraint": null
            },
            "class_name": "BatchNormalization",
            "inbound_nodes": [
              [
                [
                  "block_10_expand",
                  0,
                  0,
                  {}
                ]
              ]
            ]
          },
          {
            "name": "block_10_expand_relu",
            "config": {
              "trainable": true,
              "dtype": "float32",
              "name": "block_10_expand_relu",
              "max_value":6,
              "negative_slope": {
                "value": 0.0,
                "type": "ndarray"
              },
              "threshold": {
                "value": 0.0,
                "type": "ndarray"
              }
            },
            "class_name": "ReLU",
            "inbound_nodes": [
              [
                [
                  "block_10_expand_BN",
                  0,
                  0,
                  {}
                ]
              ]
            ]
          },
          {
            "name": "block_10_depthwise",
            "config": {
              "bias_regularizer": null,
              "trainable": true,
              "bias_initializer": {
                "config": {
                  "dtype": "float32"
                },
                "class_name": "Zeros"
              },
              "depthwise_regularizer": null,
              "depthwise_constraint": null,
              "dtype": "float32",
              "dilation_rate": [
                1,
                1
              ],
              "activation": "linear",
              "padding": "same",
              "data_format": "channels_last",
              "use_bias": false,
              "activity_regularizer": null,
              "strides": [
                1,
                1
              ],
              "kernel_size": [
                3,
                3
              ],
              "name": "block_10_depthwise",
              "depth_multiplier": 1,
              "depthwise_initializer": {
                "config": {
                  "seed": null,
                  "mode": "fan_avg",
                  "dtype": "float32",
                  "distribution": "uniform",
                  "scale": 1.0
                },
                "class_name": "VarianceScaling"
              },
              "bias_constraint": null
            },
            "class_name": "DepthwiseConv2D",
            "inbound_nodes": [
              [
                [
                  "block_10_expand_relu",
                  0,
                  0,
                  {}
                ]
              ]
            ]
          },
          {
            "name": "block_10_depthwise_BN",
            "config": {
              "beta_initializer": {
                "config": {
                  "dtype": "float32"
                },
                "class_name": "Zeros"
              },
              "trainable": true,
              "epsilon": 0.001,
              "center": true,
              "dtype": "float32",
              "scale": true,
              "momentum": 0.999,
              "moving_mean_initializer": {
                "config": {
                  "dtype": "float32"
                },
                "class_name": "Zeros"
              },
              "axis": [
                3
              ],
              "beta_constraint": null,
              "name": "block_10_depthwise_BN",
              "moving_variance_initializer": {
                "config": {
                  "dtype": "float32"
                },
                "class_name": "Ones"
              },
              "gamma_initializer": {
                "config": {
                  "dtype": "float32"
                },
                "class_name": "Ones"
              },
              "gamma_regularizer": null,
              "beta_regularizer": null,
              "gamma_constraint": null
            },
            "class_name": "BatchNormalization",
            "inbound_nodes": [
              [
                [
                  "block_10_depthwise",
                  0,
                  0,
                  {}
                ]
              ]
            ]
          },
          {
            "name": "block_10_depthwise_relu",
            "config": {
              "trainable": true,
              "dtype": "float32",
              "name": "block_10_depthwise_relu",
              "max_value":6,
              "negative_slope": {
                "value": 0.0,
                "type": "ndarray"
              },
              "threshold": {
                "value": 0.0,
                "type": "ndarray"
              }
            },
            "class_name": "ReLU",
            "inbound_nodes": [
              [
                [
                  "block_10_depthwise_BN",
                  0,
                  0,
                  {}
                ]
              ]
            ]
          },
          {
            "name": "block_10_project",
            "config": {
              "bias_regularizer": null,
              "trainable": true,
              "bias_initializer": {
                "config": {
                  "dtype": "float32"
                },
                "class_name": "Zeros"
              },
              "kernel_initializer": {
                "config": {
                  "seed": null,
                  "mode": "fan_avg",
                  "dtype": "float32",
                  "distribution": "uniform",
                  "scale": 1.0
                },
                "class_name": "VarianceScaling"
              },
              "dtype": "float32",
              "filters": 96,
              "kernel_constraint": null,
              "dilation_rate": [
                1,
                1
              ],
              "activation": "linear",
              "padding": "same",
              "data_format": "channels_last",
              "use_bias": false,
              "activity_regularizer": null,
              "strides": [
                1,
                1
              ],
              "kernel_size": [
                1,
                1
              ],
              "name": "block_10_project",
              "kernel_regularizer": null,
              "bias_constraint": null
            },
            "class_name": "Conv2D",
            "inbound_nodes": [
              [
                [
                  "block_10_depthwise_relu",
                  0,
                  0,
                  {}
                ]
              ]
            ]
          },
          {
            "name": "block_10_project_BN",
            "config": {
              "beta_initializer": {
                "config": {
                  "dtype": "float32"
                },
                "class_name": "Zeros"
              },
              "trainable": true,
              "epsilon": 0.001,
              "center": true,
              "dtype": "float32",
              "scale": true,
              "momentum": 0.999,
              "moving_mean_initializer": {
                "config": {
                  "dtype": "float32"
                },
                "class_name": "Zeros"
              },
              "axis": [
                3
              ],
              "beta_constraint": null,
              "name": "block_10_project_BN",
              "moving_variance_initializer": {
                "config": {
                  "dtype": "float32"
                },
                "class_name": "Ones"
              },
              "gamma_initializer": {
                "config": {
                  "dtype": "float32"
                },
                "class_name": "Ones"
              },
              "gamma_regularizer": null,
              "beta_regularizer": null,
              "gamma_constraint": null
            },
            "class_name": "BatchNormalization",
            "inbound_nodes": [
              [
                [
                  "block_10_project",
                  0,
                  0,
                  {}
                ]
              ]
            ]
          },
          {
            "name": "block_11_expand",
            "config": {
              "bias_regularizer": null,
              "trainable": true,
              "bias_initializer": {
                "config": {
                  "dtype": "float32"
                },
                "class_name": "Zeros"
              },
              "kernel_initializer": {
                "config": {
                  "seed": null,
                  "mode": "fan_avg",
                  "dtype": "float32",
                  "distribution": "uniform",
                  "scale": 1.0
                },
                "class_name": "VarianceScaling"
              },
              "dtype": "float32",
              "filters": 576,
              "kernel_constraint": null,
              "dilation_rate": [
                1,
                1
              ],
              "activation": "linear",
              "padding": "same",
              "data_format": "channels_last",
              "use_bias": false,
              "activity_regularizer": null,
              "strides": [
                1,
                1
              ],
              "kernel_size": [
                1,
                1
              ],
              "name": "block_11_expand",
              "kernel_regularizer": null,
              "bias_constraint": null
            },
            "class_name": "Conv2D",
            "inbound_nodes": [
              [
                [
                  "block_10_project_BN",
                  0,
                  0,
                  {}
                ]
              ]
            ]
          },
          {
            "name": "block_11_expand_BN",
            "config": {
              "beta_initializer": {
                "config": {
                  "dtype": "float32"
                },
                "class_name": "Zeros"
              },
              "trainable": true,
              "epsilon": 0.001,
              "center": true,
              "dtype": "float32",
              "scale": true,
              "momentum": 0.999,
              "moving_mean_initializer": {
                "config": {
                  "dtype": "float32"
                },
                "class_name": "Zeros"
              },
              "axis": [
                3
              ],
              "beta_constraint": null,
              "name": "block_11_expand_BN",
              "moving_variance_initializer": {
                "config": {
                  "dtype": "float32"
                },
                "class_name": "Ones"
              },
              "gamma_initializer": {
                "config": {
                  "dtype": "float32"
                },
                "class_name": "Ones"
              },
              "gamma_regularizer": null,
              "beta_regularizer": null,
              "gamma_constraint": null
            },
            "class_name": "BatchNormalization",
            "inbound_nodes": [
              [
                [
                  "block_11_expand",
                  0,
                  0,
                  {}
                ]
              ]
            ]
          },
          {
            "name": "block_11_expand_relu",
            "config": {
              "trainable": true,
              "dtype": "float32",
              "name": "block_11_expand_relu",
              "max_value":6,
              "negative_slope": {
                "value": 0.0,
                "type": "ndarray"
              },
              "threshold": {
                "value": 0.0,
                "type": "ndarray"
              }
            },
            "class_name": "ReLU",
            "inbound_nodes": [
              [
                [
                  "block_11_expand_BN",
                  0,
                  0,
                  {}
                ]
              ]
            ]
          },
          {
            "name": "block_11_depthwise",
            "config": {
              "bias_regularizer": null,
              "trainable": true,
              "bias_initializer": {
                "config": {
                  "dtype": "float32"
                },
                "class_name": "Zeros"
              },
              "depthwise_regularizer": null,
              "depthwise_constraint": null,
              "dtype": "float32",
              "dilation_rate": [
                1,
                1
              ],
              "activation": "linear",
              "padding": "same",
              "data_format": "channels_last",
              "use_bias": false,
              "activity_regularizer": null,
              "strides": [
                1,
                1
              ],
              "kernel_size": [
                3,
                3
              ],
              "name": "block_11_depthwise",
              "depth_multiplier": 1,
              "depthwise_initializer": {
                "config": {
                  "seed": null,
                  "mode": "fan_avg",
                  "dtype": "float32",
                  "distribution": "uniform",
                  "scale": 1.0
                },
                "class_name": "VarianceScaling"
              },
              "bias_constraint": null
            },
            "class_name": "DepthwiseConv2D",
            "inbound_nodes": [
              [
                [
                  "block_11_expand_relu",
                  0,
                  0,
                  {}
                ]
              ]
            ]
          },
          {
            "name": "block_11_depthwise_BN",
            "config": {
              "beta_initializer": {
                "config": {
                  "dtype": "float32"
                },
                "class_name": "Zeros"
              },
              "trainable": true,
              "epsilon": 0.001,
              "center": true,
              "dtype": "float32",
              "scale": true,
              "momentum": 0.999,
              "moving_mean_initializer": {
                "config": {
                  "dtype": "float32"
                },
                "class_name": "Zeros"
              },
              "axis": [
                3
              ],
              "beta_constraint": null,
              "name": "block_11_depthwise_BN",
              "moving_variance_initializer": {
                "config": {
                  "dtype": "float32"
                },
                "class_name": "Ones"
              },
              "gamma_initializer": {
                "config": {
                  "dtype": "float32"
                },
                "class_name": "Ones"
              },
              "gamma_regularizer": null,
              "beta_regularizer": null,
              "gamma_constraint": null
            },
            "class_name": "BatchNormalization",
            "inbound_nodes": [
              [
                [
                  "block_11_depthwise",
                  0,
                  0,
                  {}
                ]
              ]
            ]
          },
          {
            "name": "block_11_depthwise_relu",
            "config": {
              "trainable": true,
              "dtype": "float32",
              "name": "block_11_depthwise_relu",
              "max_value":6,
              "negative_slope": {
                "value": 0.0,
                "type": "ndarray"
              },
              "threshold": {
                "value": 0.0,
                "type": "ndarray"
              }
            },
            "class_name": "ReLU",
            "inbound_nodes": [
              [
                [
                  "block_11_depthwise_BN",
                  0,
                  0,
                  {}
                ]
              ]
            ]
          },
          {
            "name": "block_11_project",
            "config": {
              "bias_regularizer": null,
              "trainable": true,
              "bias_initializer": {
                "config": {
                  "dtype": "float32"
                },
                "class_name": "Zeros"
              },
              "kernel_initializer": {
                "config": {
                  "seed": null,
                  "mode": "fan_avg",
                  "dtype": "float32",
                  "distribution": "uniform",
                  "scale": 1.0
                },
                "class_name": "VarianceScaling"
              },
              "dtype": "float32",
              "filters": 96,
              "kernel_constraint": null,
              "dilation_rate": [
                1,
                1
              ],
              "activation": "linear",
              "padding": "same",
              "data_format": "channels_last",
              "use_bias": false,
              "activity_regularizer": null,
              "strides": [
                1,
                1
              ],
              "kernel_size": [
                1,
                1
              ],
              "name": "block_11_project",
              "kernel_regularizer": null,
              "bias_constraint": null
            },
            "class_name": "Conv2D",
            "inbound_nodes": [
              [
                [
                  "block_11_depthwise_relu",
                  0,
                  0,
                  {}
                ]
              ]
            ]
          },
          {
            "name": "block_11_project_BN",
            "config": {
              "beta_initializer": {
                "config": {
                  "dtype": "float32"
                },
                "class_name": "Zeros"
              },
              "trainable": true,
              "epsilon": 0.001,
              "center": true,
              "dtype": "float32",
              "scale": true,
              "momentum": 0.999,
              "moving_mean_initializer": {
                "config": {
                  "dtype": "float32"
                },
                "class_name": "Zeros"
              },
              "axis": [
                3
              ],
              "beta_constraint": null,
              "name": "block_11_project_BN",
              "moving_variance_initializer": {
                "config": {
                  "dtype": "float32"
                },
                "class_name": "Ones"
              },
              "gamma_initializer": {
                "config": {
                  "dtype": "float32"
                },
                "class_name": "Ones"
              },
              "gamma_regularizer": null,
              "beta_regularizer": null,
              "gamma_constraint": null
            },
            "class_name": "BatchNormalization",
            "inbound_nodes": [
              [
                [
                  "block_11_project",
                  0,
                  0,
                  {}
                ]
              ]
            ]
          },
          {
            "name": "block_11_add",
            "config": {
              "name": "block_11_add",
              "trainable": true,
              "dtype": "float32"
            },
            "class_name": "Add",
            "inbound_nodes": [
              [
                [
                  "block_10_project_BN",
                  0,
                  0,
                  {}
                ],
                [
                  "block_11_project_BN",
                  0,
                  0,
                  {}
                ]
              ]
            ]
          },
          {
            "name": "block_12_expand",
            "config": {
              "bias_regularizer": null,
              "trainable": true,
              "bias_initializer": {
                "config": {
                  "dtype": "float32"
                },
                "class_name": "Zeros"
              },
              "kernel_initializer": {
                "config": {
                  "seed": null,
                  "mode": "fan_avg",
                  "dtype": "float32",
                  "distribution": "uniform",
                  "scale": 1.0
                },
                "class_name": "VarianceScaling"
              },
              "dtype": "float32",
              "filters": 576,
              "kernel_constraint": null,
              "dilation_rate": [
                1,
                1
              ],
              "activation": "linear",
              "padding": "same",
              "data_format": "channels_last",
              "use_bias": false,
              "activity_regularizer": null,
              "strides": [
                1,
                1
              ],
              "kernel_size": [
                1,
                1
              ],
              "name": "block_12_expand",
              "kernel_regularizer": null,
              "bias_constraint": null
            },
            "class_name": "Conv2D",
            "inbound_nodes": [
              [
                [
                  "block_11_add",
                  0,
                  0,
                  {}
                ]
              ]
            ]
          },
          {
            "name": "block_12_expand_BN",
            "config": {
              "beta_initializer": {
                "config": {
                  "dtype": "float32"
                },
                "class_name": "Zeros"
              },
              "trainable": true,
              "epsilon": 0.001,
              "center": true,
              "dtype": "float32",
              "scale": true,
              "momentum": 0.999,
              "moving_mean_initializer": {
                "config": {
                  "dtype": "float32"
                },
                "class_name": "Zeros"
              },
              "axis": [
                3
              ],
              "beta_constraint": null,
              "name": "block_12_expand_BN",
              "moving_variance_initializer": {
                "config": {
                  "dtype": "float32"
                },
                "class_name": "Ones"
              },
              "gamma_initializer": {
                "config": {
                  "dtype": "float32"
                },
                "class_name": "Ones"
              },
              "gamma_regularizer": null,
              "beta_regularizer": null,
              "gamma_constraint": null
            },
            "class_name": "BatchNormalization",
            "inbound_nodes": [
              [
                [
                  "block_12_expand",
                  0,
                  0,
                  {}
                ]
              ]
            ]
          },
          {
            "name": "block_12_expand_relu",
            "config": {
              "trainable": true,
              "dtype": "float32",
              "name": "block_12_expand_relu",
              "max_value":6,
              "negative_slope": {
                "value": 0.0,
                "type": "ndarray"
              },
              "threshold": {
                "value": 0.0,
                "type": "ndarray"
              }
            },
            "class_name": "ReLU",
            "inbound_nodes": [
              [
                [
                  "block_12_expand_BN",
                  0,
                  0,
                  {}
                ]
              ]
            ]
          },
          {
            "name": "block_12_depthwise",
            "config": {
              "bias_regularizer": null,
              "trainable": true,
              "bias_initializer": {
                "config": {
                  "dtype": "float32"
                },
                "class_name": "Zeros"
              },
              "depthwise_regularizer": null,
              "depthwise_constraint": null,
              "dtype": "float32",
              "dilation_rate": [
                1,
                1
              ],
              "activation": "linear",
              "padding": "same",
              "data_format": "channels_last",
              "use_bias": false,
              "activity_regularizer": null,
              "strides": [
                1,
                1
              ],
              "kernel_size": [
                3,
                3
              ],
              "name": "block_12_depthwise",
              "depth_multiplier": 1,
              "depthwise_initializer": {
                "config": {
                  "seed": null,
                  "mode": "fan_avg",
                  "dtype": "float32",
                  "distribution": "uniform",
                  "scale": 1.0
                },
                "class_name": "VarianceScaling"
              },
              "bias_constraint": null
            },
            "class_name": "DepthwiseConv2D",
            "inbound_nodes": [
              [
                [
                  "block_12_expand_relu",
                  0,
                  0,
                  {}
                ]
              ]
            ]
          },
          {
            "name": "block_12_depthwise_BN",
            "config": {
              "beta_initializer": {
                "config": {
                  "dtype": "float32"
                },
                "class_name": "Zeros"
              },
              "trainable": true,
              "epsilon": 0.001,
              "center": true,
              "dtype": "float32",
              "scale": true,
              "momentum": 0.999,
              "moving_mean_initializer": {
                "config": {
                  "dtype": "float32"
                },
                "class_name": "Zeros"
              },
              "axis": [
                3
              ],
              "beta_constraint": null,
              "name": "block_12_depthwise_BN",
              "moving_variance_initializer": {
                "config": {
                  "dtype": "float32"
                },
                "class_name": "Ones"
              },
              "gamma_initializer": {
                "config": {
                  "dtype": "float32"
                },
                "class_name": "Ones"
              },
              "gamma_regularizer": null,
              "beta_regularizer": null,
              "gamma_constraint": null
            },
            "class_name": "BatchNormalization",
            "inbound_nodes": [
              [
                [
                  "block_12_depthwise",
                  0,
                  0,
                  {}
                ]
              ]
            ]
          },
          {
            "name": "block_12_depthwise_relu",
            "config": {
              "trainable": true,
              "dtype": "float32",
              "name": "block_12_depthwise_relu",
              "max_value":6,
              "negative_slope": {
                "value": 0.0,
                "type": "ndarray"
              },
              "threshold": {
                "value": 0.0,
                "type": "ndarray"
              }
            },
            "class_name": "ReLU",
            "inbound_nodes": [
              [
                [
                  "block_12_depthwise_BN",
                  0,
                  0,
                  {}
                ]
              ]
            ]
          },
          {
            "name": "block_12_project",
            "config": {
              "bias_regularizer": null,
              "trainable": true,
              "bias_initializer": {
                "config": {
                  "dtype": "float32"
                },
                "class_name": "Zeros"
              },
              "kernel_initializer": {
                "config": {
                  "seed": null,
                  "mode": "fan_avg",
                  "dtype": "float32",
                  "distribution": "uniform",
                  "scale": 1.0
                },
                "class_name": "VarianceScaling"
              },
              "dtype": "float32",
              "filters": 96,
              "kernel_constraint": null,
              "dilation_rate": [
                1,
                1
              ],
              "activation": "linear",
              "padding": "same",
              "data_format": "channels_last",
              "use_bias": false,
              "activity_regularizer": null,
              "strides": [
                1,
                1
              ],
              "kernel_size": [
                1,
                1
              ],
              "name": "block_12_project",
              "kernel_regularizer": null,
              "bias_constraint": null
            },
            "class_name": "Conv2D",
            "inbound_nodes": [
              [
                [
                  "block_12_depthwise_relu",
                  0,
                  0,
                  {}
                ]
              ]
            ]
          },
          {
            "name": "block_12_project_BN",
            "config": {
              "beta_initializer": {
                "config": {
                  "dtype": "float32"
                },
                "class_name": "Zeros"
              },
              "trainable": true,
              "epsilon": 0.001,
              "center": true,
              "dtype": "float32",
              "scale": true,
              "momentum": 0.999,
              "moving_mean_initializer": {
                "config": {
                  "dtype": "float32"
                },
                "class_name": "Zeros"
              },
              "axis": [
                3
              ],
              "beta_constraint": null,
              "name": "block_12_project_BN",
              "moving_variance_initializer": {
                "config": {
                  "dtype": "float32"
                },
                "class_name": "Ones"
              },
              "gamma_initializer": {
                "config": {
                  "dtype": "float32"
                },
                "class_name": "Ones"
              },
              "gamma_regularizer": null,
              "beta_regularizer": null,
              "gamma_constraint": null
            },
            "class_name": "BatchNormalization",
            "inbound_nodes": [
              [
                [
                  "block_12_project",
                  0,
                  0,
                  {}
                ]
              ]
            ]
          },
          {
            "name": "block_12_add",
            "config": {
              "name": "block_12_add",
              "trainable": true,
              "dtype": "float32"
            },
            "class_name": "Add",
            "inbound_nodes": [
              [
                [
                  "block_11_add",
                  0,
                  0,
                  {}
                ],
                [
                  "block_12_project_BN",
…
                1,
                1
              ],
              "activation": "linear",
              "padding": "same",
              "data_format": "channels_last",
              "use_bias": false,
              "activity_regularizer": null,
              "strides": [
                1,
                1
              ],
              "kernel_size": [
                1,
                1
              ],
              "name": "block_16_project",
              "kernel_regularizer": null,
              "bias_constraint": null
            },
            "class_name": "Conv2D",
            "inbound_nodes": [
              [
                [
                  "block_16_depthwise_relu",
                  0,
                  0,
                  {}
                ]
              ]
            ]
          },
          {
            "name": "block_16_project_BN",
            "config": {
              "beta_initializer": {
                "config": {
                  "dtype": "float32"
                },
                "class_name": "Zeros"
              },
              "trainable": true,
              "epsilon": 0.001,
              "center": true,
              "dtype": "float32",
              "scale": true,
              "momentum": 0.999,
              "moving_mean_initializer": {
                "config": {
                  "dtype": "float32"
                },
                "class_name": "Zeros"
              },
              "axis": [
                3
              ],
              "beta_constraint": null,
              "name": "block_16_project_BN",
              "moving_variance_initializer": {
                "config": {
                  "dtype": "float32"
                },
                "class_name": "Ones"
              },
              "gamma_initializer": {
                "config": {
                  "dtype": "float32"
                },
                "class_name": "Ones"
              },
              "gamma_regularizer": null,
              "beta_regularizer": null,
              "gamma_constraint": null
            },
            "class_name": "BatchNormalization",
            "inbound_nodes": [
              [
                [
                  "block_16_project",
                  0,
                  0,
                  {}
                ]
              ]
            ]
          },
          {
            "name": "Conv_1",
            "config": {
              "bias_regularizer": null,
              "trainable": true,
              "bias_initializer": {
                "config": {
                  "dtype": "float32"
                },
                "class_name": "Zeros"
              },
              "kernel_initializer": {
                "config": {
                  "seed": null,
                  "mode": "fan_avg",
                  "dtype": "float32",
                  "distribution": "uniform",
                  "scale": 1.0
                },
                "class_name": "VarianceScaling"
              },
              "dtype": "float32",
              "filters": 1280,
              "kernel_constraint": null,
              "dilation_rate": [
                1,
                1
              ],
              "activation": "linear",
              "padding": "valid",
              "data_format": "channels_last",
              "use_bias": false,
              "activity_regularizer": null,
              "strides": [
                1,
                1
              ],
              "kernel_size": [
                1,
                1
              ],
              "name": "Conv_1",
              "kernel_regularizer": null,
              "bias_constraint": null
            },
            "class_name": "Conv2D",
            "inbound_nodes": [
              [
                [
                  "block_16_project_BN",
                  0,
                  0,
                  {}
                ]
              ]
            ]
          },
          {
            "name": "Conv_1_bn",
            "config": {
              "beta_initializer": {
                "config": {
                  "dtype": "float32"
                },
                "class_name": "Zeros"
              },
              "trainable": true,
              "epsilon": 0.001,
              "center": true,
              "dtype": "float32",
              "scale": true,
              "momentum": 0.999,
              "moving_mean_initializer": {
                "config": {
                  "dtype": "float32"
                },
                "class_name": "Zeros"
              },
              "axis": [
                3
              ],
              "beta_constraint": null,
              "name": "Conv_1_bn",
              "moving_variance_initializer": {
                "config": {
                  "dtype": "float32"
                },
                "class_name": "Ones"
              },
              "gamma_initializer": {
                "config": {
                  "dtype": "float32"
                },
                "class_name": "Ones"
              },
              "gamma_regularizer": null,
              "beta_regularizer": null,
              "gamma_constraint": null
            },
            "class_name": "BatchNormalization",
            "inbound_nodes": [
              [
                [
                  "Conv_1",
                  0,
                  0,
                  {}
                ]
              ]
            ]
          },
          {
            "name": "out_relu",
            "config": {
              "trainable": true,
              "dtype": "float32",
              "name": "out_relu",
              "max_value":6,
              "negative_slope": {
                "value": 0.0,
                "type": "ndarray"
              },
              "threshold": {
                "value": 0.0,
                "type": "ndarray"
              }
            },
            "class_name": "ReLU",
            "inbound_nodes": [
              [
                [
                  "Conv_1_bn",
                  0,
                  0,
                  {}
                ]
              ]
            ]
          },
          {
            "name": "global_average_pooling2d",
            "config": {
              "name": "global_average_pooling2d",
              "trainable": true,
              "data_format": "channels_last",
              "dtype": "float32"
            },
            "class_name": "GlobalAveragePooling2D",
            "inbound_nodes": [
              [
                [
                  "out_relu",
                  0,
                  0,
                  {}
                ]
              ]
            ]
          },
          {
            "name": "Logits",
            "config": {
              "bias_regularizer": null,
              "trainable": true,
              "bias_initializer": {
                "config": {
                  "dtype": "float32"
                },
                "class_name": "Zeros"
              },
              "kernel_initializer": {
                "config": {
                  "seed": null,
                  "mode": "fan_avg",
                  "dtype": "float32",
                  "distribution": "uniform",
                  "scale": 1.0
                },
                "class_name": "VarianceScaling"
              },
              "dtype": "float32",
              "kernel_constraint": null,
              "activation": "softmax",
              "use_bias": true,
              "activity_regularizer": null,
              "name": "Logits",
              "units": 1000,
              "kernel_regularizer": null,
              "bias_constraint": null
            },
            "class_name": "Dense",
            "inbound_nodes": [
              [
                [
                  "global_average_pooling2d",
                  0,
                  0,
                  {}
                ]
              ]
            ]
          }
        ],
        "input_layers": [
          [
            "input_1",
            0,
            0
          ]
        ],
        "output_layers": [
          [
            "Logits",
            0,
            0
          ]
        ]
      },
      "class_name": "Model"
    }
  },
  "weightsManifest": [
    {
      "paths": [
        "group1-shard1of4",
        "group1-shard2of4",
        "group1-shard3of4",
        "group1-shard4of4"
      ],
      "weights": [
        {
          "name": "Conv1/kernel",
          "dtype": "float32",
          "shape": [
            3,
            3,
            3,
            32
          ]
        },
        {
          "name": "Conv_1/kernel",
          "dtype": "float32",
          "shape": [
            1,
            1,
            320,
            1280
          ]
        },
        {
          "name": "Conv_1_bn/gamma",
          "dtype": "float32",
          "shape": [
            1280
          ]
        },
        {
          "name": "Conv_1_bn/beta",
          "dtype": "float32",
          "shape": [
            1280
          ]
        },
        {
          "name": "Conv_1_bn/moving_mean",
          "dtype": "float32",
          "shape": [
            1280
          ]
        },
        {
          "name": "Conv_1_bn/moving_variance",
          "dtype": "float32",
          "shape": [
            1280
          ]
        },
        {
          "name": "Logits/kernel",
          "dtype": "float32",
          "shape": [
            1280,
            1000
          ]
        },
        {
          "name": "Logits/bias",
          "dtype": "float32",
          "shape": [
            1000
          ]
        },
        {
          "name": "block_10_depthwise/depthwise_kernel",
          "dtype": "float32",
          "shape": [
            3,
            3,
            384,
            1
          ]
        },
        {
          "name": "block_10_depthwise_BN/gamma",
          "dtype": "float32",
          "shape": [
            384
          ]
        },
        {
          "name": "block_10_depthwise_BN/beta",
          "dtype": "float32",
          "shape": [
            384
          ]
        },
        {
          "name": "block_10_depthwise_BN/moving_mean",
          "dtype": "float32",
          "shape": [
            384
          ]
        },
        {
          "name": "block_10_depthwise_BN/moving_variance",
          "dtype": "float32",
          "shape": [
            384
          ]
        },
        {
          "name": "block_10_expand/kernel",
          "dtype": "float32",
          "shape": [
            1,
            1,
            64,
            384
          ]
        },
        {
          "name": "block_10_expand_BN/gamma",
          "dtype": "float32",
          "shape": [
            384
          ]
        },
        {
          "name": "block_10_expand_BN/beta",
          "dtype": "float32",
          "shape": [
            384
          ]
        },
        {
          "name": "block_10_expand_BN/moving_mean",
          "dtype": "float32",
          "shape": [
            384
          ]
        },
        {
          "name": "block_10_expand_BN/moving_variance",
          "dtype": "float32",
          "shape": [
            384
          ]
        },
        {
          "name": "block_10_project/kernel",
          "dtype": "float32",
          "shape": [
            1,
            1,
            384,
            96
          ]
        },
        {
          "name": "block_10_project_BN/gamma",
          "dtype": "float32",
          "shape": [
            96
          ]
        },
        {
          "name": "block_10_project_BN/beta",
          "dtype": "float32",
          "shape": [
            96
          ]
        },
        {
          "name": "block_10_project_BN/moving_mean",
          "dtype": "float32",
          "shape": [
            96
          ]
        },
        {
          "name": "block_10_project_BN/moving_variance",
          "dtype": "float32",
          "shape": [
            96
          ]
        },
        {
          "name": "block_11_depthwise/depthwise_kernel",
          "dtype": "float32",
          "shape": [
            3,
            3,
            576,
            1
          ]
        },
        {
          "name": "block_11_depthwise_BN/gamma",
          "dtype": "float32",
          "shape": [
            576
          ]
        },
        {
          "name": "block_11_depthwise_BN/beta",
          "dtype": "float32",
          "shape": [
            576
          ]
        },
        {
          "name": "block_11_depthwise_BN/moving_mean",
          "dtype": "float32",
          "shape": [
            576
          ]
        },
        {
          "name": "block_11_depthwise_BN/moving_variance",
          "dtype": "float32",
          "shape": [
            576
          ]
        },
        {
          "name": "block_11_expand/kernel",
          "dtype": "float32",
          "shape": [
            1,
            1,
            96,
            576
          ]
        },
        {
          "name": "block_11_expand_BN/gamma",
          "dtype": "float32",
          "shape": [
            576
          ]
        },
        {
          "name": "block_11_expand_BN/beta",
          "dtype": "float32",
          "shape": [
            576
          ]
        },
        {
          "name": "block_11_expand_BN/moving_mean",
          "dtype": "float32",
          "shape": [
            576
          ]
        },
        {
          "name": "block_11_expand_BN/moving_variance",
          "dtype": "float32",
          "shape": [
            576
          ]
        },
        {
          "name": "block_11_project/kernel",
          "dtype": "float32",
          "shape": [
            1,
            1,
            576,
            96
          ]
        },
        {
          "name": "block_11_project_BN/gamma",
          "dtype": "float32",
          "shape": [
            96
          ]
        },
        {
          "name": "block_11_project_BN/beta",
          "dtype": "float32",
          "shape": [
            96
          ]
        },
        {
          "name": "block_11_project_BN/moving_mean",
          "dtype": "float32",
          "shape": [
            96
          ]
        },
        {
          "name": "block_11_project_BN/moving_variance",
          "dtype": "float32",
          "shape": [
            96
          ]
        },
        {
          "name": "block_12_depthwise/depthwise_kernel",
          "dtype": "float32",
          "shape": [
            3,
            3,
            576,
            1
          ]
        },
        {
          "name": "block_12_depthwise_BN/gamma",
          "dtype": "float32",
          "shape": [
            576
          ]
        },
        {
          "name": "block_12_depthwise_BN/beta",
          "dtype": "float32",
          "shape": [
            576
          ]
        },
        {
          "name": "block_12_depthwise_BN/moving_mean",
          "dtype": "float32",
          "shape": [
            576
          ]
        },
        {
          "name": "block_12_depthwise_BN/moving_variance",
          "dtype": "float32",
          "shape": [
            576
          ]
        },
        {
          "name": "block_12_expand/kernel",
          "dtype": "float32",
          "shape": [
            1,
            1,
            96,
            576
          ]
        },
        {
          "name": "block_12_expand_BN/gamma",
          "dtype": "float32",
          "shape": [
            576
          ]
        },
        {
          "name": "block_12_expand_BN/beta",
          "dtype": "float32",
          "shape": [
            576
          ]
        },
        {
          "name": "block_12_expand_BN/moving_mean",
          "dtype": "float32",
          "shape": [
            576
          ]
        },
        {
          "name": "block_12_expand_BN/moving_variance",
          "dtype": "float32",
          "shape": [
            576
          ]
        },
        {
          "name": "block_12_project/kernel",
          "dtype": "float32",
          "shape": [
            1,
            1,
            576,
            96
          ]
        },
        {
          "name": "block_12_project_BN/gamma",
          "dtype": "float32",
          "shape": [
            96
          ]
        },
        {
          "name": "block_12_project_BN/beta",
          "dtype": "float32",
          "shape": [
            96
          ]
        },
        {
          "name": "block_12_project_BN/moving_mean",
          "dtype": "float32",
          "shape": [
            96
          ]
        },
        {
          "name": "block_12_project_BN/moving_variance",
          "dtype": "float32",
          "shape": [
            96
          ]
        },
        {
          "name": "block_13_depthwise/depthwise_kernel",
          "dtype": "float32",
          "shape": [
            3,
            3,
            576,
            1
          ]
        },
        {
          "name": "block_13_depthwise_BN/gamma",
          "dtype": "float32",
          "shape": [
            576
          ]
        },
        {
          "name": "block_13_depthwise_BN/beta",
          "dtype": "float32",
          "shape": [
            576
          ]
        },
        {
          "name": "block_13_depthwise_BN/moving_mean",
          "dtype": "float32",
          "shape": [
            576
          ]
        },
        {
          "name": "block_13_depthwise_BN/moving_variance",
          "dtype": "float32",
          "shape": [
            576
          ]
        },
        {
          "name": "block_13_expand/kernel",
          "dtype": "float32",
          "shape": [
            1,
            1,
            96,
            576
          ]
        },
        {
          "name": "block_13_expand_BN/gamma",
          "dtype": "float32",
          "shape": [
            576
          ]
        },
        {
          "name": "block_13_expand_BN/beta",
          "dtype": "float32",
          "shape": [
            576
          ]
        },
        {
          "name": "block_13_expand_BN/moving_mean",
          "dtype": "float32",
          "shape": [
            576
          ]
        },
        {
          "name": "block_13_expand_BN/moving_variance",
          "dtype": "float32",
          "shape": [
            576
          ]
        },
        {
          "name": "block_13_project/kernel",
          "dtype": "float32",
          "shape": [
            1,
            1,
            576,
            160
          ]
        },
        {
          "name": "block_13_project_BN/gamma",
          "dtype": "float32",
          "shape": [
            160
          ]
        },
        {
          "name": "block_13_project_BN/beta",
          "dtype": "float32",
          "shape": [
            160
          ]
        },
        {
          "name": "block_13_project_BN/moving_mean",
          "dtype": "float32",
          "shape": [
            160
          ]
        },
        {
          "name": "block_13_project_BN/moving_variance",
          "dtype": "float32",
          "shape": [
            160
          ]
        },
        {
          "name": "block_14_depthwise/depthwise_kernel",
          "dtype": "float32",
          "shape": [
            3,
            3,
            960,
            1
          ]
        },
        {
          "name": "block_14_depthwise_BN/gamma",
          "dtype": "float32",
          "shape": [
            960
          ]
        },
        {
          "name": "block_14_depthwise_BN/beta",
          "dtype": "float32",
          "shape": [
            960
          ]
        },
        {
          "name": "block_14_depthwise_BN/moving_mean",
          "dtype": "float32",
          "shape": [
            960
          ]
        },
        {
          "name": "block_14_depthwise_BN/moving_variance",
          "dtype": "float32",
          "shape": [
            960
          ]
        },
        {
          "name": "block_14_expand/kernel",
          "dtype": "float32",
          "shape": [
            1,
            1,
            160,
            960
          ]
        },
        {
          "name": "block_14_expand_BN/gamma",
          "dtype": "float32",
          "shape": [
            960
          ]
        },
        {
          "name": "block_14_expand_BN/beta",
          "dtype": "float32",
          "shape": [
            960
          ]
        },
        {
          "name": "block_14_expand_BN/moving_mean",
          "dtype": "float32",
          "shape": [
            960
          ]
        },
        {
          "name": "block_14_expand_BN/moving_variance",
          "dtype": "float32",
          "shape": [
            960
          ]
        },
        {
          "name": "block_14_project/kernel",
          "dtype": "float32",
          "shape": [
            1,
            1,
            960,
            160
          ]
        },
        {
          "name": "block_14_project_BN/gamma",
          "dtype": "float32",
          "shape": [
            160
          ]
        },
        {
          "name": "block_14_project_BN/beta",
          "dtype": "float32",
          "shape": [
            160
          ]
        },
        {
          "name": "block_14_project_BN/moving_mean",
          "dtype": "float32",
          "shape": [
            160
          ]
        },
        {
          "name": "block_14_project_BN/moving_variance",
          "dtype": "float32",
          "shape": [
            160
          ]
        },
        {
          "name": "block_15_depthwise/depthwise_kernel",
          "dtype": "float32",
          "shape": [
            3,
            3,
            960,
            1
          ]
        },
        {
          "name": "block_15_depthwise_BN/gamma",
          "dtype": "float32",
          "shape": [
            960
          ]
        },
        {
          "name": "block_15_depthwise_BN/beta",
          "dtype": "float32",
          "shape": [
            960
          ]
        },
        {
          "name": "block_15_depthwise_BN/moving_mean",
          "dtype": "float32",
          "shape": [
            960
          ]
        },
        {
          "name": "block_15_depthwise_BN/moving_variance",
          "dtype": "float32",
          "shape": [
            960
          ]
        },
        {
          "name": "block_15_expand/kernel",
          "dtype": "float32",
          "shape": [
            1,
            1,
            160,
            960
          ]
        },
        {
          "name": "block_15_expand_BN/gamma",
          "dtype": "float32",
          "shape": [
            960
          ]
        },
        {
          "name": "block_15_expand_BN/beta",
          "dtype": "float32",
          "shape": [
            960
          ]
        },
        {
          "name": "block_15_expand_BN/moving_mean",
          "dtype": "float32",
          "shape": [
            960
          ]
        },
        {
          "name": "block_15_expand_BN/moving_variance",
          "dtype": "float32",
          "shape": [
            960
          ]
        },
        {
          "name": "block_15_project/kernel",
          "dtype": "float32",
          "shape": [
            1,
            1,
            960,
            160
          ]
        },
        {
          "name": "block_15_project_BN/gamma",
          "dtype": "float32",
          "shape": [
            160
          ]
        },
        {
          "name": "block_15_project_BN/beta",
          "dtype": "float32",
          "shape": [
            160
          ]
        },
        {
          "name": "block_15_project_BN/moving_mean",
          "dtype": "float32",
          "shape": [
            160
          ]
        },
        {
          "name": "block_15_project_BN/moving_variance",
          "dtype": "float32",
          "shape": [
            160
          ]
        },
        {
          "name": "block_16_depthwise/depthwise_kernel",
          "dtype": "float32",
          "shape": [
            3,
            3,
            960,
            1
          ]
        },
        {
          "name": "block_16_depthwise_BN/gamma",
          "dtype": "float32",
          "shape": [
            960
          ]
        },
        {
          "name": "block_16_depthwise_BN/beta",
          "dtype": "float32",
          "shape": [
            960
          ]
        },
        {
          "name": "block_16_depthwise_BN/moving_mean",
          "dtype": "float32",
          "shape": [
            960
          ]
        },
        {
          "name": "block_16_depthwise_BN/moving_variance",
          "dtype": "float32",
          "shape": [
            960
          ]
        },
        {
          "name": "block_16_expand/kernel",
          "dtype": "float32",
          "shape": [
            1,
            1,
            160,
            960
          ]
        },
        {
          "name": "block_16_expand_BN/gamma",
          "dtype": "float32",
          "shape": [
            960
          ]
        },
        {
          "name": "block_16_expand_BN/beta",
          "dtype": "float32",
          "shape": [
            960
          ]
        },
        {
          "name": "block_16_expand_BN/moving_mean",
          "dtype": "float32",
          "shape": [
            960
          ]
        },
        {
          "name": "block_16_expand_BN/moving_variance",
          "dtype": "float32",
          "shape": [
            960
          ]
        },
        {
          "name": "block_16_project/kernel",
          "dtype": "float32",
          "shape": [
            1,
            1,
            960,
            320
          ]
        },
        {
          "name": "block_16_project_BN/gamma",
          "dtype": "float32",
          "shape": [
            320
          ]
        },
        {
          "name": "block_16_project_BN/beta",
          "dtype": "float32",
          "shape": [
            320
          ]
        },
        {
          "name": "block_16_project_BN/moving_mean",
          "dtype": "float32",
          "shape": [
            320
          ]
        },
        {
          "name": "block_16_project_BN/moving_variance",
          "dtype": "float32",
          "shape": [
            320
          ]
        },
        {
          "name": "block_1_depthwise/depthwise_kernel",
          "dtype": "float32",
          "shape": [
            3,
            3,
            96,
            1
          ]
        },
        {
          "name": "block_1_depthwise_BN/gamma",
          "dtype": "float32",
          "shape": [
            96
          ]
        },
        {
          "name": "block_1_depthwise_BN/beta",
          "dtype": "float32",
          "shape": [
            96
          ]
        },
        {
          "name": "block_1_depthwise_BN/moving_mean",
          "dtype": "float32",
          "shape": [
            96
          ]
        },
        {
          "name": "block_1_depthwise_BN/moving_variance",
          "dtype": "float32",
          "shape": [
            96
          ]
        },
        {
          "name": "block_1_expand/kernel",
          "dtype": "float32",
          "shape": [
            1,
            1,
            16,
            96
          ]
        },
        {
          "name": "block_1_expand_BN/gamma",
          "dtype": "float32",
          "shape": [
            96
          ]
        },
        {
          "name": "block_1_expand_BN/beta",
          "dtype": "float32",
          "shape": [
            96
          ]
        },
        {
          "name": "block_1_expand_BN/moving_mean",
          "dtype": "float32",
          "shape": [
            96
          ]
        },
        {
          "name": "block_1_expand_BN/moving_variance",
          "dtype": "float32",
          "shape": [
            96
          ]
        },
        {
          "name": "block_1_project/kernel",
          "dtype": "float32",
          "shape": [
            1,
            1,
            96,
            24
          ]
        },
        {
          "name": "block_1_project_BN/gamma",
          "dtype": "float32",
          "shape": [
            24
          ]
        },
        {
          "name": "block_1_project_BN/beta",
          "dtype": "float32",
          "shape": [
            24
          ]
        },
        {
          "name": "block_1_project_BN/moving_mean",
          "dtype": "float32",
          "shape": [
            24
          ]
        },
        {
          "name": "block_1_project_BN/moving_variance",
          "dtype": "float32",
          "shape": [
            24
          ]
        },
        {
          "name": "block_2_depthwise/depthwise_kernel",
          "dtype": "float32",
          "shape": [
            3,
            3,
            144,
            1
          ]
        },
        {
          "name": "block_2_depthwise_BN/gamma",
          "dtype": "float32",
          "shape": [
            144
          ]
        },
        {
          "name": "block_2_depthwise_BN/beta",
          "dtype": "float32",
          "shape": [
            144
          ]
        },
        {
          "name": "block_2_depthwise_BN/moving_mean",
          "dtype": "float32",
          "shape": [
            144
          ]
        },
        {
          "name": "block_2_depthwise_BN/moving_variance",
          "dtype": "float32",
          "shape": [
            144
          ]
        },
        {
          "name": "block_2_expand/kernel",
          "dtype": "float32",
          "shape": [
            1,
            1,
            24,
            144
          ]
        },
        {
          "name": "block_2_expand_BN/gamma",
          "dtype": "float32",
          "shape": [
            144
          ]
        },
        {
          "name": "block_2_expand_BN/beta",
          "dtype": "float32",
          "shape": [
            144
          ]
        },
        {
          "name": "block_2_expand_BN/moving_mean",
          "dtype": "float32",
          "shape": [
            144
          ]
        },
        {
          "name": "block_2_expand_BN/moving_variance",
          "dtype": "float32",
          "shape": [
            144
          ]
        },
        {
          "name": "block_2_project/kernel",
          "dtype": "float32",
          "shape": [
            1,
            1,
            144,
            24
          ]
        },
        {
          "name": "block_2_project_BN/gamma",
          "dtype": "float32",
          "shape": [
            24
          ]
        },
        {
          "name": "block_2_project_BN/beta",
          "dtype": "float32",
          "shape": [
            24
          ]
        },
        {
          "name": "block_2_project_BN/moving_mean",
          "dtype": "float32",
          "shape": [
            24
          ]
        },
        {
          "name": "block_2_project_BN/moving_variance",
          "dtype": "float32",
          "shape": [
            24
          ]
        },
        {
          "name": "block_3_depthwise/depthwise_kernel",
          "dtype": "float32",
          "shape": [
            3,
            3,
            144,
            1
          ]
        },
        {
          "name": "block_3_depthwise_BN/gamma",
          "dtype": "float32",
          "shape": [
            144
          ]
        },
        {
          "name": "block_3_depthwise_BN/beta",
          "dtype": "float32",
          "shape": [
            144
          ]
        },
        {
          "name": "block_3_depthwise_BN/moving_mean",
          "dtype": "float32",
          "shape": [
            144
          ]
        },
        {
          "name": "block_3_depthwise_BN/moving_variance",
          "dtype": "float32",
          "shape": [
            144
          ]
        },
        {
          "name": "block_3_expand/kernel",
          "dtype": "float32",
          "shape": [
            1,
            1,
            24,
            144
          ]
        },
        {
          "name": "block_3_expand_BN/gamma",
          "dtype": "float32",
          "shape": [
            144
          ]
        },
        {
          "name": "block_3_expand_BN/beta",
          "dtype": "float32",
          "shape": [
            144
          ]
        },
        {
          "name": "block_3_expand_BN/moving_mean",
          "dtype": "float32",
          "shape": [
            144
          ]
        },
        {
          "name": "block_3_expand_BN/moving_variance",
          "dtype": "float32",
          "shape": [
            144
          ]
        },
        {
          "name": "block_3_project/kernel",
          "dtype": "float32",
          "shape": [
            1,
            1,
            144,
            32
          ]
        },
        {
          "name": "block_3_project_BN/gamma",
          "dtype": "float32",
          "shape": [
            32
          ]
        },
        {
          "name": "block_3_project_BN/beta",
          "dtype": "float32",
          "shape": [
            32
          ]
        },
        {
          "name": "block_3_project_BN/moving_mean",
          "dtype": "float32",
          "shape": [
            32
          ]
        },
        {
          "name": "block_3_project_BN/moving_variance",
          "dtype": "float32",
          "shape": [
            32
          ]
        },
        {
          "name": "block_4_depthwise/depthwise_kernel",
          "dtype": "float32",
          "shape": [
            3,
            3,
            192,
            1
          ]
        },
        {
          "name": "block_4_depthwise_BN/gamma",
          "dtype": "float32",
          "shape": [
            192
          ]
        },
        {
          "name": "block_4_depthwise_BN/beta",
          "dtype": "float32",
          "shape": [
            192
          ]
        },
        {
          "name": "block_4_depthwise_BN/moving_mean",
          "dtype": "float32",
          "shape": [
            192
          ]
        },
        {
          "name": "block_4_depthwise_BN/moving_variance",
          "dtype": "float32",
          "shape": [
            192
          ]
        },
        {
          "name": "block_4_expand/kernel",
          "dtype": "float32",
          "shape": [
            1,
            1,
            32,
            192
          ]
        },
        {
          "name": "block_4_expand_BN/gamma",
          "dtype": "float32",
          "shape": [
            192
          ]
        },
        {
          "name": "block_4_expand_BN/beta",
          "dtype": "float32",
          "shape": [
            192
          ]
        },
        {
          "name": "block_4_expand_BN/moving_mean",
          "dtype": "float32",
          "shape": [
            192
          ]
        },
        {
          "name": "block_4_expand_BN/moving_variance",
          "dtype": "float32",
          "shape": [
            192
          ]
        },
        {
          "name": "block_4_project/kernel",
          "dtype": "float32",
          "shape": [
            1,
            1,
            192,
            32
          ]
        },
        {
          "name": "block_4_project_BN/gamma",
          "dtype": "float32",
          "shape": [
            32
          ]
        },
        {
          "name": "block_4_project_BN/beta",
          "dtype": "float32",
          "shape": [
            32
          ]
        },
        {
          "name": "block_4_project_BN/moving_mean",
          "dtype": "float32",
          "shape": [
            32
          ]
        },
        {
          "name": "block_4_project_BN/moving_variance",
          "dtype": "float32",
          "shape": [
            32
          ]
        },
        {
          "name": "block_5_depthwise/depthwise_kernel",
          "dtype": "float32",
          "shape": [
            3,
            3,
            192,
            1
          ]
        },
        {
          "name": "block_5_depthwise_BN/gamma",
          "dtype": "float32",
          "shape": [
            192
          ]
        },
        {
          "name": "block_5_depthwise_BN/beta",
          "dtype": "float32",
          "shape": [
            192
          ]
        },
        {
          "name": "block_5_depthwise_BN/moving_mean",
          "dtype": "float32",
          "shape": [
            192
          ]
        },
        {
          "name": "block_5_depthwise_BN/moving_variance",
          "dtype": "float32",
          "shape": [
            192
          ]
        },
        {
          "name": "block_5_expand/kernel",
          "dtype": "float32",
          "shape": [
            1,
            1,
            32,
            192
          ]
        },
        {
          "name": "block_5_expand_BN/gamma",
          "dtype": "float32",
          "shape": [
            192
          ]
        },
        {
          "name": "block_5_expand_BN/beta",
          "dtype": "float32",
          "shape": [
            192
          ]
        },
        {
          "name": "block_5_expand_BN/moving_mean",
          "dtype": "float32",
          "shape": [
            192
          ]
        },
        {
          "name": "block_5_expand_BN/moving_variance",
          "dtype": "float32",
          "shape": [
            192
          ]
        },
        {
          "name": "block_5_project/kernel",
          "dtype": "float32",
          "shape": [
            1,
            1,
            192,
            32
          ]
        },
        {
          "name": "block_5_project_BN/gamma",
          "dtype": "float32",
          "shape": [
            32
          ]
        },
        {
          "name": "block_5_project_BN/beta",
          "dtype": "float32",
          "shape": [
            32
          ]
        },
        {
          "name": "block_5_project_BN/moving_mean",
          "dtype": "float32",
          "shape": [
            32
          ]
        },
        {
          "name": "block_5_project_BN/moving_variance",
          "dtype": "float32",
          "shape": [
            32
          ]
        },
        {
          "name": "block_6_depthwise/depthwise_kernel",
          "dtype": "float32",
          "shape": [
            3,
            3,
            192,
            1
          ]
        },
        {
          "name": "block_6_depthwise_BN/gamma",
          "dtype": "float32",
          "shape": [
            192
          ]
        },
        {
          "name": "block_6_depthwise_BN/beta",
          "dtype": "float32",
          "shape": [
            192
          ]
        },
        {
          "name": "block_6_depthwise_BN/moving_mean",
          "dtype": "float32",
          "shape": [
            192
          ]
        },
        {
          "name": "block_6_depthwise_BN/moving_variance",
          "dtype": "float32",
          "shape": [
            192
          ]
        },
        {
          "name": "block_6_expand/kernel",
          "dtype": "float32",
          "shape": [
            1,
            1,
            32,
            192
          ]
        },
        {
          "name": "block_6_expand_BN/gamma",
          "dtype": "float32",
          "shape": [
            192
          ]
        },
        {
          "name": "block_6_expand_BN/beta",
          "dtype": "float32",
          "shape": [
            192
          ]
        },
        {
          "name": "block_6_expand_BN/moving_mean",
          "dtype": "float32",
          "shape": [
            192
          ]
        },
        {
          "name": "block_6_expand_BN/moving_variance",
          "dtype": "float32",
          "shape": [
            192
          ]
        },
        {
          "name": "block_6_project/kernel",
          "dtype": "float32",
          "shape": [
            1,
            1,
            192,
            64
          ]
        },
        {
          "name": "block_6_project_BN/gamma",
          "dtype": "float32",
          "shape": [
            64
          ]
        },
        {
          "name": "block_6_project_BN/beta",
          "dtype": "float32",
          "shape": [
            64
          ]
        },
        {
          "name": "block_6_project_BN/moving_mean",
          "dtype": "float32",
          "shape": [
            64
          ]
        },
        {
          "name": "block_6_project_BN/moving_variance",
          "dtype": "float32",
          "shape": [
            64
          ]
        },
        {
          "name": "block_7_depthwise/depthwise_kernel",
          "dtype": "float32",
          "shape": [
            3,
            3,
            384,
            1
          ]
        },
        {
          "name": "block_7_depthwise_BN/gamma",
          "dtype": "float32",
          "shape": [
            384
          ]
        },
        {
          "name": "block_7_depthwise_BN/beta",
          "dtype": "float32",
          "shape": [
            384
          ]
        },
        {
          "name": "block_7_depthwise_BN/moving_mean",
          "dtype": "float32",
          "shape": [
            384
          ]
        },
        {
          "name": "block_7_depthwise_BN/moving_variance",
          "dtype": "float32",
          "shape": [
            384
          ]
        },
        {
          "name": "block_7_expand/kernel",
          "dtype": "float32",
          "shape": [
            1,
            1,
            64,
            384
          ]
        },
        {
          "name": "block_7_expand_BN/gamma",
          "dtype": "float32",
          "shape": [
            384
          ]
        },
        {
          "name": "block_7_expand_BN/beta",
          "dtype": "float32",
          "shape": [
            384
          ]
        },
        {
          "name": "block_7_expand_BN/moving_mean",
          "dtype": "float32",
          "shape": [
            384
          ]
        },
        {
          "name": "block_7_expand_BN/moving_variance",
          "dtype": "float32",
          "shape": [
            384
          ]
        },
        {
          "name": "block_7_project/kernel",
          "dtype": "float32",
          "shape": [
            1,
            1,
            384,
            64
          ]
        },
        {
          "name": "block_7_project_BN/gamma",
          "dtype": "float32",
          "shape": [
            64
          ]
        },
        {
          "name": "block_7_project_BN/beta",
          "dtype": "float32",
          "shape": [
            64
          ]
        },
        {
          "name": "block_7_project_BN/moving_mean",
          "dtype": "float32",
          "shape": [
            64
          ]
        },
        {
          "name": "block_7_project_BN/moving_variance",
          "dtype": "float32",
          "shape": [
            64
          ]
        },
        {
          "name": "block_8_depthwise/depthwise_kernel",
          "dtype": "float32",
          "shape": [
            3,
            3,
            384,
            1
          ]
        },
        {
          "name": "block_8_depthwise_BN/gamma",
          "dtype": "float32",
          "shape": [
            384
          ]
        },
        {
          "name": "block_8_depthwise_BN/beta",
          "dtype": "float32",
          "shape": [
            384
          ]
        },
        {
          "name": "block_8_depthwise_BN/moving_mean",
          "dtype": "float32",
          "shape": [
            384
          ]
        },
        {
          "name": "block_8_depthwise_BN/moving_variance",
          "dtype": "float32",
          "shape": [
            384
          ]
        },
        {
          "name": "block_8_expand/kernel",
          "dtype": "float32",
          "shape": [
            1,
            1,
            64,
            384
          ]
        },
        {
          "name": "block_8_expand_BN/gamma",
          "dtype": "float32",
          "shape": [
            384
          ]
        },
        {
          "name": "block_8_expand_BN/beta",
          "dtype": "float32",
          "shape": [
            384
          ]
        },
        {
          "name": "block_8_expand_BN/moving_mean",
          "dtype": "float32",
          "shape": [
            384
          ]
        },
        {
          "name": "block_8_expand_BN/moving_variance",
          "dtype": "float32",
          "shape": [
            384
          ]
        },
        {
          "name": "block_8_project/kernel",
          "dtype": "float32",
          "shape": [
            1,
            1,
            384,
            64
          ]
        },
        {
          "name": "block_8_project_BN/gamma",
          "dtype": "float32",
          "shape": [
            64
          ]
        },
        {
          "name": "block_8_project_BN/beta",
          "dtype": "float32",
          "shape": [
            64
          ]
        },
        {
          "name": "block_8_project_BN/moving_mean",
          "dtype": "float32",
          "shape": [
            64
          ]
        },
        {
          "name": "block_8_project_BN/moving_variance",
          "dtype": "float32",
          "shape": [
            64
          ]
        },
        {
          "name": "block_9_depthwise/depthwise_kernel",
          "dtype": "float32",
          "shape": [
            3,
            3,
            384,
            1
          ]
        },
        {
          "name": "block_9_depthwise_BN/gamma",
          "dtype": "float32",
          "shape": [
            384
          ]
        },
        {
          "name": "block_9_depthwise_BN/beta",
          "dtype": "float32",
          "shape": [
            384
          ]
        },
        {
          "name": "block_9_depthwise_BN/moving_mean",
          "dtype": "float32",
          "shape": [
            384
          ]
        },
        {
          "name": "block_9_depthwise_BN/moving_variance",
          "dtype": "float32",
          "shape": [
            384
          ]
        },
        {
          "name": "block_9_expand/kernel",
          "dtype": "float32",
          "shape": [
            1,
            1,
            64,
            384
          ]
        },
        {
          "name": "block_9_expand_BN/gamma",
          "dtype": "float32",
          "shape": [
            384
          ]
        },
        {
          "name": "block_9_expand_BN/beta",
          "dtype": "float32",
          "shape": [
            384
          ]
        },
        {
          "name": "block_9_expand_BN/moving_mean",
          "dtype": "float32",
          "shape": [
            384
          ]
        },
        {
          "name": "block_9_expand_BN/moving_variance",
          "dtype": "float32",
          "shape": [
            384
          ]
        },
        {
          "name": "block_9_project/kernel",
          "dtype": "float32",
          "shape": [
            1,
            1,
            384,
            64
          ]
        },
        {
          "name": "block_9_project_BN/gamma",
          "dtype": "float32",
          "shape": [
            64
          ]
        },
        {
          "name": "block_9_project_BN/beta",
          "dtype": "float32",
          "shape": [
            64
          ]
        },
        {
          "name": "block_9_project_BN/moving_mean",
          "dtype": "float32",
          "shape": [
            64
          ]
        },
        {
          "name": "block_9_project_BN/moving_variance",
          "dtype": "float32",
          "shape": [
            64
          ]
        },
        {
          "name": "bn_Conv1/gamma",
          "dtype": "float32",
          "shape": [
            32
          ]
        },
        {
          "name": "bn_Conv1/beta",
          "dtype": "float32",
          "shape": [
            32
          ]
        },
        {
          "name": "bn_Conv1/moving_mean",
          "dtype": "float32",
          "shape": [
            32
          ]
        },
        {
          "name": "bn_Conv1/moving_variance",
          "dtype": "float32",
          "shape": [
            32
          ]
        },
        {
          "name": "expanded_conv_depthwise/depthwise_kernel",
          "dtype": "float32",
          "shape": [
            3,
            3,
            32,
            1
          ]
        },
        {
          "name": "expanded_conv_depthwise_BN/gamma",
          "dtype": "float32",
          "shape": [
            32
          ]
        },
        {
          "name": "expanded_conv_depthwise_BN/beta",
          "dtype": "float32",
          "shape": [
            32
          ]
        },
        {
          "name": "expanded_conv_depthwise_BN/moving_mean",
          "dtype": "float32",
          "shape": [
            32
          ]
        },
        {
          "name": "expanded_conv_depthwise_BN/moving_variance",
          "dtype": "float32",
          "shape": [
            32
          ]
        },
        {
          "name": "expanded_conv_project/kernel",
          "dtype": "float32",
          "shape": [
            1,
            1,
            32,
            16
          ]
        },
        {
          "name": "expanded_conv_project_BN/gamma",
          "dtype": "float32",
          "shape": [
            16
          ]
        },
        {
          "name": "expanded_conv_project_BN/beta",
          "dtype": "float32",
          "shape": [
            16
          ]
        },
        {
          "name": "expanded_conv_project_BN/moving_mean",
          "dtype": "float32",
          "shape": [
            16
          ]
        },
        {
          "name": "expanded_conv_project_BN/moving_variance",
          "dtype": "float32",
          "shape": [
            16
          ]
        }
      ]
    }
  ]
}